{"backend": "tensorflow", "config": {"input_layers": [["input_1", 0, 0]], "name": "model_1", "layers": [{"config": {"name": "input_1", "batch_input_shape": [null, 140, 140, 3], "dtype": "float32", "sparse": false}, "name": "input_1", "class_name": "InputLayer", "inbound_nodes": []}, {"config": {"name": "conv2d_1", "kernel_regularizer": null, "use_bias": false, "dilation_rate": [1, 1], "data_format": "channels_last", "filters": 32, "bias_constraint": null, "activity_regularizer": null, "bias_initializer": {"config": {}, "class_name": "Zeros"}, "bias_regularizer": null, "strides": [2, 2], "kernel_size": [3, 3], "trainable": false, "kernel_constraint": null, "padding": "valid", "kernel_initializer": {"config": {"mode": "fan_avg", "distribution": "uniform", "seed": null, "scale": 1.0}, "class_name": "VarianceScaling"}, "activation": "linear"}, "name": "conv2d_1", "class_name": "Conv2D", "inbound_nodes": [[["input_1", 0, 0, {}]]]}, {"config": {"name": "batch_normalization_1", "center": true, "gamma_initializer": {"config": {}, "class_name": "Ones"}, "moving_mean_initializer": {"config": {}, "class_name": "Zeros"}, "beta_initializer": {"config": {}, "class_name": "Zeros"}, "scale": false, "axis": 3, "beta_regularizer": null, "gamma_constraint": null, "gamma_regularizer": null, "momentum": 0.99, "trainable": false, "epsilon": 0.001, "beta_constraint": null, "moving_variance_initializer": {"config": {}, "class_name": "Ones"}}, "name": "batch_normalization_1", "class_name": "BatchNormalization", "inbound_nodes": [[["conv2d_1", 0, 0, {}]]]}, {"config": {"name": "activation_1", "trainable": false, "activation": "relu"}, "name": "activation_1", "class_name": "Activation", "inbound_nodes": [[["batch_normalization_1", 0, 0, {}]]]}, {"config": {"name": "conv2d_2", "kernel_regularizer": null, "use_bias": false, "dilation_rate": [1, 1], "data_format": "channels_last", "filters": 32, "bias_constraint": null, "activity_regularizer": null, "bias_initializer": {"config": {}, "class_name": "Zeros"}, "bias_regularizer": null, "strides": [1, 1], "kernel_size": [3, 3], "trainable": false, "kernel_constraint": null, "padding": "valid", "kernel_initializer": {"config": {"mode": "fan_avg", "distribution": "uniform", "seed": null, "scale": 1.0}, "class_name": "VarianceScaling"}, "activation": "linear"}, "name": "conv2d_2", "class_name": "Conv2D", "inbound_nodes": [[["activation_1", 0, 0, {}]]]}, {"config": {"name": "batch_normalization_2", "center": true, "gamma_initializer": {"config": {}, "class_name": "Ones"}, "moving_mean_initializer": {"config": {}, "class_name": "Zeros"}, "beta_initializer": {"config": {}, "class_name": "Zeros"}, "scale": false, "axis": 3, "beta_regularizer": null, "gamma_constraint": null, "gamma_regularizer": null, "momentum": 0.99, "trainable": false, "epsilon": 0.001, "beta_constraint": null, "moving_variance_initializer": {"config": {}, "class_name": "Ones"}}, "name": "batch_normalization_2", "class_name": "BatchNormalization", "inbound_nodes": [[["conv2d_2", 0, 0, {}]]]}, {"config": {"name": "activation_2", "trainable": false, "activation": "relu"}, "name": "activation_2", "class_name": "Activation", "inbound_nodes": [[["batch_normalization_2", 0, 0, {}]]]}, {"config": {"name": "conv2d_3", "kernel_regularizer": null, "use_bias": false, "dilation_rate": [1, 1], "data_format": "channels_last", "filters": 64, "bias_constraint": null, "activity_regularizer": null, "bias_initializer": {"config": {}, "class_name": "Zeros"}, "bias_regularizer": null, "strides": [1, 1], "kernel_size": [3, 3], "trainable": false, "kernel_constraint": null, "padding": "same", "kernel_initializer": {"config": {"mode": "fan_avg", "distribution": "uniform", "seed": null, "scale": 1.0}, "class_name": "VarianceScaling"}, "activation": "linear"}, "name": "conv2d_3", "class_name": "Conv2D", "inbound_nodes": [[["activation_2", 0, 0, {}]]]}, {"config": {"name": "batch_normalization_3", "center": true, "gamma_initializer": {"config": {}, "class_name": "Ones"}, "moving_mean_initializer": {"config": {}, "class_name": "Zeros"}, "beta_initializer": {"config": {}, "class_name": "Zeros"}, "scale": false, "axis": 3, "beta_regularizer": null, "gamma_constraint": null, "gamma_regularizer": null, "momentum": 0.99, "trainable": false, "epsilon": 0.001, "beta_constraint": null, "moving_variance_initializer": {"config": {}, "class_name": "Ones"}}, "name": "batch_normalization_3", "class_name": "BatchNormalization", "inbound_nodes": [[["conv2d_3", 0, 0, {}]]]}, {"config": {"name": "activation_3", "trainable": false, "activation": "relu"}, "name": "activation_3", "class_name": "Activation", "inbound_nodes": [[["batch_normalization_3", 0, 0, {}]]]}, {"config": {"name": "max_pooling2d_1", "strides": [2, 2], "trainable": false, "data_format": "channels_last", "padding": "valid", "pool_size": [3, 3]}, "name": "max_pooling2d_1", "class_name": "MaxPooling2D", "inbound_nodes": [[["activation_3", 0, 0, {}]]]}, {"config": {"name": "conv2d_4", "kernel_regularizer": null, "use_bias": false, "dilation_rate": [1, 1], "data_format": "channels_last", "filters": 80, "bias_constraint": null, "activity_regularizer": null, "bias_initializer": {"config": {}, "class_name": "Zeros"}, "bias_regularizer": null, "strides": [1, 1], "kernel_size": [1, 1], "trainable": false, "kernel_constraint": null, "padding": "valid", "kernel_initializer": {"config": {"mode": "fan_avg", "distribution": "uniform", "seed": null, "scale": 1.0}, "class_name": "VarianceScaling"}, "activation": "linear"}, "name": "conv2d_4", "class_name": "Conv2D", "inbound_nodes": [[["max_pooling2d_1", 0, 0, {}]]]}, {"config": {"name": "batch_normalization_4", "center": true, "gamma_initializer": {"config": {}, "class_name": "Ones"}, "moving_mean_initializer": {"config": {}, "class_name": "Zeros"}, "beta_initializer": {"config": {}, "class_name": "Zeros"}, "scale": false, "axis": 3, "beta_regularizer": null, "gamma_constraint": null, "gamma_regularizer": null, "momentum": 0.99, "trainable": false, "epsilon": 0.001, "beta_constraint": null, "moving_variance_initializer": {"config": {}, "class_name": "Ones"}}, "name": "batch_normalization_4", "class_name": "BatchNormalization", "inbound_nodes": [[["conv2d_4", 0, 0, {}]]]}, {"config": {"name": "activation_4", "trainable": false, "activation": "relu"}, "name": "activation_4", "class_name": "Activation", "inbound_nodes": [[["batch_normalization_4", 0, 0, {}]]]}, {"config": {"name": "conv2d_5", "kernel_regularizer": null, "use_bias": false, "dilation_rate": [1, 1], "data_format": "channels_last", "filters": 192, "bias_constraint": null, "activity_regularizer": null, "bias_initializer": {"config": {}, "class_name": "Zeros"}, "bias_regularizer": null, "strides": [1, 1], "kernel_size": [3, 3], "trainable": false, "kernel_constraint": null, "padding": "valid", "kernel_initializer": {"config": {"mode": "fan_avg", "distribution": "uniform", "seed": null, "scale": 1.0}, "class_name": "VarianceScaling"}, "activation": "linear"}, "name": "conv2d_5", "class_name": "Conv2D", "inbound_nodes": [[["activation_4", 0, 0, {}]]]}, {"config": {"name": "batch_normalization_5", "center": true, "gamma_initializer": {"config": {}, "class_name": "Ones"}, "moving_mean_initializer": {"config": {}, "class_name": "Zeros"}, "beta_initializer": {"config": {}, "class_name": "Zeros"}, "scale": false, "axis": 3, "beta_regularizer": null, "gamma_constraint": null, "gamma_regularizer": null, "momentum": 0.99, "trainable": false, "epsilon": 0.001, "beta_constraint": null, "moving_variance_initializer": {"config": {}, "class_name": "Ones"}}, "name": "batch_normalization_5", "class_name": "BatchNormalization", "inbound_nodes": [[["conv2d_5", 0, 0, {}]]]}, {"config": {"name": "activation_5", "trainable": false, "activation": "relu"}, "name": "activation_5", "class_name": "Activation", "inbound_nodes": [[["batch_normalization_5", 0, 0, {}]]]}, {"config": {"name": "max_pooling2d_2", "strides": [2, 2], "trainable": false, "data_format": "channels_last", "padding": "valid", "pool_size": [3, 3]}, "name": "max_pooling2d_2", "class_name": "MaxPooling2D", "inbound_nodes": [[["activation_5", 0, 0, {}]]]}, {"config": {"name": "conv2d_9", "kernel_regularizer": null, "use_bias": false, "dilation_rate": [1, 1], "data_format": "channels_last", "filters": 64, "bias_constraint": null, "activity_regularizer": null, "bias_initializer": {"config": {}, "class_name": "Zeros"}, "bias_regularizer": null, "strides": [1, 1], "kernel_size": [1, 1], "trainable": false, "kernel_constraint": null, "padding": "same", "kernel_initializer": {"config": {"mode": "fan_avg", "distribution": "uniform", "seed": null, "scale": 1.0}, "class_name": "VarianceScaling"}, "activation": "linear"}, "name": "conv2d_9", "class_name": "Conv2D", "inbound_nodes": [[["max_pooling2d_2", 0, 0, {}]]]}, {"config": {"name": "batch_normalization_9", "center": true, "gamma_initializer": {"config": {}, "class_name": "Ones"}, "moving_mean_initializer": {"config": {}, "class_name": "Zeros"}, "beta_initializer": {"config": {}, "class_name": "Zeros"}, "scale": false, "axis": 3, "beta_regularizer": null, "gamma_constraint": null, "gamma_regularizer": null, "momentum": 0.99, "trainable": false, "epsilon": 0.001, "beta_constraint": null, "moving_variance_initializer": {"config": {}, "class_name": "Ones"}}, "name": "batch_normalization_9", "class_name": "BatchNormalization", "inbound_nodes": [[["conv2d_9", 0, 0, {}]]]}, {"config": {"name": "activation_9", "trainable": false, "activation": "relu"}, "name": "activation_9", "class_name": "Activation", "inbound_nodes": [[["batch_normalization_9", 0, 0, {}]]]}, {"config": {"name": "conv2d_7", "kernel_regularizer": null, "use_bias": false, "dilation_rate": [1, 1], "data_format": "channels_last", "filters": 48, "bias_constraint": null, "activity_regularizer": null, "bias_initializer": {"config": {}, "class_name": "Zeros"}, "bias_regularizer": null, "strides": [1, 1], "kernel_size": [1, 1], "trainable": false, "kernel_constraint": null, "padding": "same", "kernel_initializer": {"config": {"mode": "fan_avg", "distribution": "uniform", "seed": null, "scale": 1.0}, "class_name": "VarianceScaling"}, "activation": "linear"}, "name": "conv2d_7", "class_name": "Conv2D", "inbound_nodes": [[["max_pooling2d_2", 0, 0, {}]]]}, {"config": {"name": "conv2d_10", "kernel_regularizer": null, "use_bias": false, "dilation_rate": [1, 1], "data_format": "channels_last", "filters": 96, "bias_constraint": null, "activity_regularizer": null, "bias_initializer": {"config": {}, "class_name": "Zeros"}, "bias_regularizer": null, "strides": [1, 1], "kernel_size": [3, 3], "trainable": false, "kernel_constraint": null, "padding": "same", "kernel_initializer": {"config": {"mode": "fan_avg", "distribution": "uniform", "seed": null, "scale": 1.0}, "class_name": "VarianceScaling"}, "activation": "linear"}, "name": "conv2d_10", "class_name": "Conv2D", "inbound_nodes": [[["activation_9", 0, 0, {}]]]}, {"config": {"name": "batch_normalization_7", "center": true, "gamma_initializer": {"config": {}, "class_name": "Ones"}, "moving_mean_initializer": {"config": {}, "class_name": "Zeros"}, "beta_initializer": {"config": {}, "class_name": "Zeros"}, "scale": false, "axis": 3, "beta_regularizer": null, "gamma_constraint": null, "gamma_regularizer": null, "momentum": 0.99, "trainable": false, "epsilon": 0.001, "beta_constraint": null, "moving_variance_initializer": {"config": {}, "class_name": "Ones"}}, "name": "batch_normalization_7", "class_name": "BatchNormalization", "inbound_nodes": [[["conv2d_7", 0, 0, {}]]]}, {"config": {"name": "batch_normalization_10", "center": true, "gamma_initializer": {"config": {}, "class_name": "Ones"}, "moving_mean_initializer": {"config": {}, "class_name": "Zeros"}, "beta_initializer": {"config": {}, "class_name": "Zeros"}, "scale": false, "axis": 3, "beta_regularizer": null, "gamma_constraint": null, "gamma_regularizer": null, "momentum": 0.99, "trainable": false, "epsilon": 0.001, "beta_constraint": null, "moving_variance_initializer": {"config": {}, "class_name": "Ones"}}, "name": "batch_normalization_10", "class_name": "BatchNormalization", "inbound_nodes": [[["conv2d_10", 0, 0, {}]]]}, {"config": {"name": "activation_7", "trainable": false, "activation": "relu"}, "name": "activation_7", "class_name": "Activation", "inbound_nodes": [[["batch_normalization_7", 0, 0, {}]]]}, {"config": {"name": "activation_10", "trainable": false, "activation": "relu"}, "name": "activation_10", "class_name": "Activation", "inbound_nodes": [[["batch_normalization_10", 0, 0, {}]]]}, {"config": {"name": "average_pooling2d_1", "strides": [1, 1], "trainable": false, "data_format": "channels_last", "padding": "same", "pool_size": [3, 3]}, "name": "average_pooling2d_1", "class_name": "AveragePooling2D", "inbound_nodes": [[["max_pooling2d_2", 0, 0, {}]]]}, {"config": {"name": "conv2d_6", "kernel_regularizer": null, "use_bias": false, "dilation_rate": [1, 1], "data_format": "channels_last", "filters": 64, "bias_constraint": null, "activity_regularizer": null, "bias_initializer": {"config": {}, "class_name": "Zeros"}, "bias_regularizer": null, "strides": [1, 1], "kernel_size": [1, 1], "trainable": false, "kernel_constraint": null, "padding": "same", "kernel_initializer": {"config": {"mode": "fan_avg", "distribution": "uniform", "seed": null, "scale": 1.0}, "class_name": "VarianceScaling"}, "activation": "linear"}, "name": "conv2d_6", "class_name": "Conv2D", "inbound_nodes": [[["max_pooling2d_2", 0, 0, {}]]]}, {"config": {"name": "conv2d_8", "kernel_regularizer": null, "use_bias": false, "dilation_rate": [1, 1], "data_format": "channels_last", "filters": 64, "bias_constraint": null, "activity_regularizer": null, "bias_initializer": {"config": {}, "class_name": "Zeros"}, "bias_regularizer": null, "strides": [1, 1], "kernel_size": [5, 5], "trainable": false, "kernel_constraint": null, "padding": "same", "kernel_initializer": {"config": {"mode": "fan_avg", "distribution": "uniform", "seed": null, "scale": 1.0}, "class_name": "VarianceScaling"}, "activation": "linear"}, "name": "conv2d_8", "class_name": "Conv2D", "inbound_nodes": [[["activation_7", 0, 0, {}]]]}, {"config": {"name": "conv2d_11", "kernel_regularizer": null, "use_bias": false, "dilation_rate": [1, 1], "data_format": "channels_last", "filters": 96, "bias_constraint": null, "activity_regularizer": null, "bias_initializer": {"config": {}, "class_name": "Zeros"}, "bias_regularizer": null, "strides": [1, 1], "kernel_size": [3, 3], "trainable": false, "kernel_constraint": null, "padding": "same", "kernel_initializer": {"config": {"mode": "fan_avg", "distribution": "uniform", "seed": null, "scale": 1.0}, "class_name": "VarianceScaling"}, "activation": "linear"}, "name": "conv2d_11", "class_name": "Conv2D", "inbound_nodes": [[["activation_10", 0, 0, {}]]]}, {"config": {"name": "conv2d_12", "kernel_regularizer": null, "use_bias": false, "dilation_rate": [1, 1], "data_format": "channels_last", "filters": 32, "bias_constraint": null, "activity_regularizer": null, "bias_initializer": {"config": {}, "class_name": "Zeros"}, "bias_regularizer": null, "strides": [1, 1], "kernel_size": [1, 1], "trainable": false, "kernel_constraint": null, "padding": "same", "kernel_initializer": {"config": {"mode": "fan_avg", "distribution": "uniform", "seed": null, "scale": 1.0}, "class_name": "VarianceScaling"}, "activation": "linear"}, "name": "conv2d_12", "class_name": "Conv2D", "inbound_nodes": [[["average_pooling2d_1", 0, 0, {}]]]}, {"config": {"name": "batch_normalization_6", "center": true, "gamma_initializer": {"config": {}, "class_name": "Ones"}, "moving_mean_initializer": {"config": {}, "class_name": "Zeros"}, "beta_initializer": {"config": {}, "class_name": "Zeros"}, "scale": false, "axis": 3, "beta_regularizer": null, "gamma_constraint": null, "gamma_regularizer": null, "momentum": 0.99, "trainable": false, "epsilon": 0.001, "beta_constraint": null, "moving_variance_initializer": {"config": {}, "class_name": "Ones"}}, "name": "batch_normalization_6", "class_name": "BatchNormalization", "inbound_nodes": [[["conv2d_6", 0, 0, {}]]]}, {"config": {"name": "batch_normalization_8", "center": true, "gamma_initializer": {"config": {}, "class_name": "Ones"}, "moving_mean_initializer": {"config": {}, "class_name": "Zeros"}, "beta_initializer": {"config": {}, "class_name": "Zeros"}, "scale": false, "axis": 3, "beta_regularizer": null, "gamma_constraint": null, "gamma_regularizer": null, "momentum": 0.99, "trainable": false, "epsilon": 0.001, "beta_constraint": null, "moving_variance_initializer": {"config": {}, "class_name": "Ones"}}, "name": "batch_normalization_8", "class_name": "BatchNormalization", "inbound_nodes": [[["conv2d_8", 0, 0, {}]]]}, {"config": {"name": "batch_normalization_11", "center": true, "gamma_initializer": {"config": {}, "class_name": "Ones"}, "moving_mean_initializer": {"config": {}, "class_name": "Zeros"}, "beta_initializer": {"config": {}, "class_name": "Zeros"}, "scale": false, "axis": 3, "beta_regularizer": null, "gamma_constraint": null, "gamma_regularizer": null, "momentum": 0.99, "trainable": false, "epsilon": 0.001, "beta_constraint": null, "moving_variance_initializer": {"config": {}, "class_name": "Ones"}}, "name": "batch_normalization_11", "class_name": "BatchNormalization", "inbound_nodes": [[["conv2d_11", 0, 0, {}]]]}, {"config": {"name": "batch_normalization_12", "center": true, "gamma_initializer": {"config": {}, "class_name": "Ones"}, "moving_mean_initializer": {"config": {}, "class_name": "Zeros"}, "beta_initializer": {"config": {}, "class_name": "Zeros"}, "scale": false, "axis": 3, "beta_regularizer": null, "gamma_constraint": null, "gamma_regularizer": null, "momentum": 0.99, "trainable": false, "epsilon": 0.001, "beta_constraint": null, "moving_variance_initializer": {"config": {}, "class_name": "Ones"}}, "name": "batch_normalization_12", "class_name": "BatchNormalization", "inbound_nodes": [[["conv2d_12", 0, 0, {}]]]}, {"config": {"name": "activation_6", "trainable": false, "activation": "relu"}, "name": "activation_6", "class_name": "Activation", "inbound_nodes": [[["batch_normalization_6", 0, 0, {}]]]}, {"config": {"name": "activation_8", "trainable": false, "activation": "relu"}, "name": "activation_8", "class_name": "Activation", "inbound_nodes": [[["batch_normalization_8", 0, 0, {}]]]}, {"config": {"name": "activation_11", "trainable": false, "activation": "relu"}, "name": "activation_11", "class_name": "Activation", "inbound_nodes": [[["batch_normalization_11", 0, 0, {}]]]}, {"config": {"name": "activation_12", "trainable": false, "activation": "relu"}, "name": "activation_12", "class_name": "Activation", "inbound_nodes": [[["batch_normalization_12", 0, 0, {}]]]}, {"config": {"name": "mixed0", "axis": 3, "trainable": false}, "name": "mixed0", "class_name": "Concatenate", "inbound_nodes": [[["activation_6", 0, 0, {}], ["activation_8", 0, 0, {}], ["activation_11", 0, 0, {}], ["activation_12", 0, 0, {}]]]}, {"config": {"name": "conv2d_16", "kernel_regularizer": null, "use_bias": false, "dilation_rate": [1, 1], "data_format": "channels_last", "filters": 64, "bias_constraint": null, "activity_regularizer": null, "bias_initializer": {"config": {}, "class_name": "Zeros"}, "bias_regularizer": null, "strides": [1, 1], "kernel_size": [1, 1], "trainable": false, "kernel_constraint": null, "padding": "same", "kernel_initializer": {"config": {"mode": "fan_avg", "distribution": "uniform", "seed": null, "scale": 1.0}, "class_name": "VarianceScaling"}, "activation": "linear"}, "name": "conv2d_16", "class_name": "Conv2D", "inbound_nodes": [[["mixed0", 0, 0, {}]]]}, {"config": {"name": "batch_normalization_16", "center": true, "gamma_initializer": {"config": {}, "class_name": "Ones"}, "moving_mean_initializer": {"config": {}, "class_name": "Zeros"}, "beta_initializer": {"config": {}, "class_name": "Zeros"}, "scale": false, "axis": 3, "beta_regularizer": null, "gamma_constraint": null, "gamma_regularizer": null, "momentum": 0.99, "trainable": false, "epsilon": 0.001, "beta_constraint": null, "moving_variance_initializer": {"config": {}, "class_name": "Ones"}}, "name": "batch_normalization_16", "class_name": "BatchNormalization", "inbound_nodes": [[["conv2d_16", 0, 0, {}]]]}, {"config": {"name": "activation_16", "trainable": false, "activation": "relu"}, "name": "activation_16", "class_name": "Activation", "inbound_nodes": [[["batch_normalization_16", 0, 0, {}]]]}, {"config": {"name": "conv2d_14", "kernel_regularizer": null, "use_bias": false, "dilation_rate": [1, 1], "data_format": "channels_last", "filters": 48, "bias_constraint": null, "activity_regularizer": null, "bias_initializer": {"config": {}, "class_name": "Zeros"}, "bias_regularizer": null, "strides": [1, 1], "kernel_size": [1, 1], "trainable": false, "kernel_constraint": null, "padding": "same", "kernel_initializer": {"config": {"mode": "fan_avg", "distribution": "uniform", "seed": null, "scale": 1.0}, "class_name": "VarianceScaling"}, "activation": "linear"}, "name": "conv2d_14", "class_name": "Conv2D", "inbound_nodes": [[["mixed0", 0, 0, {}]]]}, {"config": {"name": "conv2d_17", "kernel_regularizer": null, "use_bias": false, "dilation_rate": [1, 1], "data_format": "channels_last", "filters": 96, "bias_constraint": null, "activity_regularizer": null, "bias_initializer": {"config": {}, "class_name": "Zeros"}, "bias_regularizer": null, "strides": [1, 1], "kernel_size": [3, 3], "trainable": false, "kernel_constraint": null, "padding": "same", "kernel_initializer": {"config": {"mode": "fan_avg", "distribution": "uniform", "seed": null, "scale": 1.0}, "class_name": "VarianceScaling"}, "activation": "linear"}, "name": "conv2d_17", "class_name": "Conv2D", "inbound_nodes": [[["activation_16", 0, 0, {}]]]}, {"config": {"name": "batch_normalization_14", "center": true, "gamma_initializer": {"config": {}, "class_name": "Ones"}, "moving_mean_initializer": {"config": {}, "class_name": "Zeros"}, "beta_initializer": {"config": {}, "class_name": "Zeros"}, "scale": false, "axis": 3, "beta_regularizer": null, "gamma_constraint": null, "gamma_regularizer": null, "momentum": 0.99, "trainable": false, "epsilon": 0.001, "beta_constraint": null, "moving_variance_initializer": {"config": {}, "class_name": "Ones"}}, "name": "batch_normalization_14", "class_name": "BatchNormalization", "inbound_nodes": [[["conv2d_14", 0, 0, {}]]]}, {"config": {"name": "batch_normalization_17", "center": true, "gamma_initializer": {"config": {}, "class_name": "Ones"}, "moving_mean_initializer": {"config": {}, "class_name": "Zeros"}, "beta_initializer": {"config": {}, "class_name": "Zeros"}, "scale": false, "axis": 3, "beta_regularizer": null, "gamma_constraint": null, "gamma_regularizer": null, "momentum": 0.99, "trainable": false, "epsilon": 0.001, "beta_constraint": null, "moving_variance_initializer": {"config": {}, "class_name": "Ones"}}, "name": "batch_normalization_17", "class_name": "BatchNormalization", "inbound_nodes": [[["conv2d_17", 0, 0, {}]]]}, {"config": {"name": "activation_14", "trainable": false, "activation": "relu"}, "name": "activation_14", "class_name": "Activation", "inbound_nodes": [[["batch_normalization_14", 0, 0, {}]]]}, {"config": {"name": "activation_17", "trainable": false, "activation": "relu"}, "name": "activation_17", "class_name": "Activation", "inbound_nodes": [[["batch_normalization_17", 0, 0, {}]]]}, {"config": {"name": "average_pooling2d_2", "strides": [1, 1], "trainable": false, "data_format": "channels_last", "padding": "same", "pool_size": [3, 3]}, "name": "average_pooling2d_2", "class_name": "AveragePooling2D", "inbound_nodes": [[["mixed0", 0, 0, {}]]]}, {"config": {"name": "conv2d_13", "kernel_regularizer": null, "use_bias": false, "dilation_rate": [1, 1], "data_format": "channels_last", "filters": 64, "bias_constraint": null, "activity_regularizer": null, "bias_initializer": {"config": {}, "class_name": "Zeros"}, "bias_regularizer": null, "strides": [1, 1], "kernel_size": [1, 1], "trainable": false, "kernel_constraint": null, "padding": "same", "kernel_initializer": {"config": {"mode": "fan_avg", "distribution": "uniform", "seed": null, "scale": 1.0}, "class_name": "VarianceScaling"}, "activation": "linear"}, "name": "conv2d_13", "class_name": "Conv2D", "inbound_nodes": [[["mixed0", 0, 0, {}]]]}, {"config": {"name": "conv2d_15", "kernel_regularizer": null, "use_bias": false, "dilation_rate": [1, 1], "data_format": "channels_last", "filters": 64, "bias_constraint": null, "activity_regularizer": null, "bias_initializer": {"config": {}, "class_name": "Zeros"}, "bias_regularizer": null, "strides": [1, 1], "kernel_size": [5, 5], "trainable": false, "kernel_constraint": null, "padding": "same", "kernel_initializer": {"config": {"mode": "fan_avg", "distribution": "uniform", "seed": null, "scale": 1.0}, "class_name": "VarianceScaling"}, "activation": "linear"}, "name": "conv2d_15", "class_name": "Conv2D", "inbound_nodes": [[["activation_14", 0, 0, {}]]]}, {"config": {"name": "conv2d_18", "kernel_regularizer": null, "use_bias": false, "dilation_rate": [1, 1], "data_format": "channels_last", "filters": 96, "bias_constraint": null, "activity_regularizer": null, "bias_initializer": {"config": {}, "class_name": "Zeros"}, "bias_regularizer": null, "strides": [1, 1], "kernel_size": [3, 3], "trainable": false, "kernel_constraint": null, "padding": "same", "kernel_initializer": {"config": {"mode": "fan_avg", "distribution": "uniform", "seed": null, "scale": 1.0}, "class_name": "VarianceScaling"}, "activation": "linear"}, "name": "conv2d_18", "class_name": "Conv2D", "inbound_nodes": [[["activation_17", 0, 0, {}]]]}, {"config": {"name": "conv2d_19", "kernel_regularizer": null, "use_bias": false, "dilation_rate": [1, 1], "data_format": "channels_last", "filters": 64, "bias_constraint": null, "activity_regularizer": null, "bias_initializer": {"config": {}, "class_name": "Zeros"}, "bias_regularizer": null, "strides": [1, 1], "kernel_size": [1, 1], "trainable": false, "kernel_constraint": null, "padding": "same", "kernel_initializer": {"config": {"mode": "fan_avg", "distribution": "uniform", "seed": null, "scale": 1.0}, "class_name": "VarianceScaling"}, "activation": "linear"}, "name": "conv2d_19", "class_name": "Conv2D", "inbound_nodes": [[["average_pooling2d_2", 0, 0, {}]]]}, {"config": {"name": "batch_normalization_13", "center": true, "gamma_initializer": {"config": {}, "class_name": "Ones"}, "moving_mean_initializer": {"config": {}, "class_name": "Zeros"}, "beta_initializer": {"config": {}, "class_name": "Zeros"}, "scale": false, "axis": 3, "beta_regularizer": null, "gamma_constraint": null, "gamma_regularizer": null, "momentum": 0.99, "trainable": false, "epsilon": 0.001, "beta_constraint": null, "moving_variance_initializer": {"config": {}, "class_name": "Ones"}}, "name": "batch_normalization_13", "class_name": "BatchNormalization", "inbound_nodes": [[["conv2d_13", 0, 0, {}]]]}, {"config": {"name": "batch_normalization_15", "center": true, "gamma_initializer": {"config": {}, "class_name": "Ones"}, "moving_mean_initializer": {"config": {}, "class_name": "Zeros"}, "beta_initializer": {"config": {}, "class_name": "Zeros"}, "scale": false, "axis": 3, "beta_regularizer": null, "gamma_constraint": null, "gamma_regularizer": null, "momentum": 0.99, "trainable": false, "epsilon": 0.001, "beta_constraint": null, "moving_variance_initializer": {"config": {}, "class_name": "Ones"}}, "name": "batch_normalization_15", "class_name": "BatchNormalization", "inbound_nodes": [[["conv2d_15", 0, 0, {}]]]}, {"config": {"name": "batch_normalization_18", "center": true, "gamma_initializer": {"config": {}, "class_name": "Ones"}, "moving_mean_initializer": {"config": {}, "class_name": "Zeros"}, "beta_initializer": {"config": {}, "class_name": "Zeros"}, "scale": false, "axis": 3, "beta_regularizer": null, "gamma_constraint": null, "gamma_regularizer": null, "momentum": 0.99, "trainable": false, "epsilon": 0.001, "beta_constraint": null, "moving_variance_initializer": {"config": {}, "class_name": "Ones"}}, "name": "batch_normalization_18", "class_name": "BatchNormalization", "inbound_nodes": [[["conv2d_18", 0, 0, {}]]]}, {"config": {"name": "batch_normalization_19", "center": true, "gamma_initializer": {"config": {}, "class_name": "Ones"}, "moving_mean_initializer": {"config": {}, "class_name": "Zeros"}, "beta_initializer": {"config": {}, "class_name": "Zeros"}, "scale": false, "axis": 3, "beta_regularizer": null, "gamma_constraint": null, "gamma_regularizer": null, "momentum": 0.99, "trainable": false, "epsilon": 0.001, "beta_constraint": null, "moving_variance_initializer": {"config": {}, "class_name": "Ones"}}, "name": "batch_normalization_19", "class_name": "BatchNormalization", "inbound_nodes": [[["conv2d_19", 0, 0, {}]]]}, {"config": {"name": "activation_13", "trainable": false, "activation": "relu"}, "name": "activation_13", "class_name": "Activation", "inbound_nodes": [[["batch_normalization_13", 0, 0, {}]]]}, {"config": {"name": "activation_15", "trainable": false, "activation": "relu"}, "name": "activation_15", "class_name": "Activation", "inbound_nodes": [[["batch_normalization_15", 0, 0, {}]]]}, {"config": {"name": "activation_18", "trainable": false, "activation": "relu"}, "name": "activation_18", "class_name": "Activation", "inbound_nodes": [[["batch_normalization_18", 0, 0, {}]]]}, {"config": {"name": "activation_19", "trainable": false, "activation": "relu"}, "name": "activation_19", "class_name": "Activation", "inbound_nodes": [[["batch_normalization_19", 0, 0, {}]]]}, {"config": {"name": "mixed1", "axis": 3, "trainable": false}, "name": "mixed1", "class_name": "Concatenate", "inbound_nodes": [[["activation_13", 0, 0, {}], ["activation_15", 0, 0, {}], ["activation_18", 0, 0, {}], ["activation_19", 0, 0, {}]]]}, {"config": {"name": "conv2d_23", "kernel_regularizer": null, "use_bias": false, "dilation_rate": [1, 1], "data_format": "channels_last", "filters": 64, "bias_constraint": null, "activity_regularizer": null, "bias_initializer": {"config": {}, "class_name": "Zeros"}, "bias_regularizer": null, "strides": [1, 1], "kernel_size": [1, 1], "trainable": false, "kernel_constraint": null, "padding": "same", "kernel_initializer": {"config": {"mode": "fan_avg", "distribution": "uniform", "seed": null, "scale": 1.0}, "class_name": "VarianceScaling"}, "activation": "linear"}, "name": "conv2d_23", "class_name": "Conv2D", "inbound_nodes": [[["mixed1", 0, 0, {}]]]}, {"config": {"name": "batch_normalization_23", "center": true, "gamma_initializer": {"config": {}, "class_name": "Ones"}, "moving_mean_initializer": {"config": {}, "class_name": "Zeros"}, "beta_initializer": {"config": {}, "class_name": "Zeros"}, "scale": false, "axis": 3, "beta_regularizer": null, "gamma_constraint": null, "gamma_regularizer": null, "momentum": 0.99, "trainable": false, "epsilon": 0.001, "beta_constraint": null, "moving_variance_initializer": {"config": {}, "class_name": "Ones"}}, "name": "batch_normalization_23", "class_name": "BatchNormalization", "inbound_nodes": [[["conv2d_23", 0, 0, {}]]]}, {"config": {"name": "activation_23", "trainable": false, "activation": "relu"}, "name": "activation_23", "class_name": "Activation", "inbound_nodes": [[["batch_normalization_23", 0, 0, {}]]]}, {"config": {"name": "conv2d_21", "kernel_regularizer": null, "use_bias": false, "dilation_rate": [1, 1], "data_format": "channels_last", "filters": 48, "bias_constraint": null, "activity_regularizer": null, "bias_initializer": {"config": {}, "class_name": "Zeros"}, "bias_regularizer": null, "strides": [1, 1], "kernel_size": [1, 1], "trainable": false, "kernel_constraint": null, "padding": "same", "kernel_initializer": {"config": {"mode": "fan_avg", "distribution": "uniform", "seed": null, "scale": 1.0}, "class_name": "VarianceScaling"}, "activation": "linear"}, "name": "conv2d_21", "class_name": "Conv2D", "inbound_nodes": [[["mixed1", 0, 0, {}]]]}, {"config": {"name": "conv2d_24", "kernel_regularizer": null, "use_bias": false, "dilation_rate": [1, 1], "data_format": "channels_last", "filters": 96, "bias_constraint": null, "activity_regularizer": null, "bias_initializer": {"config": {}, "class_name": "Zeros"}, "bias_regularizer": null, "strides": [1, 1], "kernel_size": [3, 3], "trainable": false, "kernel_constraint": null, "padding": "same", "kernel_initializer": {"config": {"mode": "fan_avg", "distribution": "uniform", "seed": null, "scale": 1.0}, "class_name": "VarianceScaling"}, "activation": "linear"}, "name": "conv2d_24", "class_name": "Conv2D", "inbound_nodes": [[["activation_23", 0, 0, {}]]]}, {"config": {"name": "batch_normalization_21", "center": true, "gamma_initializer": {"config": {}, "class_name": "Ones"}, "moving_mean_initializer": {"config": {}, "class_name": "Zeros"}, "beta_initializer": {"config": {}, "class_name": "Zeros"}, "scale": false, "axis": 3, "beta_regularizer": null, "gamma_constraint": null, "gamma_regularizer": null, "momentum": 0.99, "trainable": false, "epsilon": 0.001, "beta_constraint": null, "moving_variance_initializer": {"config": {}, "class_name": "Ones"}}, "name": "batch_normalization_21", "class_name": "BatchNormalization", "inbound_nodes": [[["conv2d_21", 0, 0, {}]]]}, {"config": {"name": "batch_normalization_24", "center": true, "gamma_initializer": {"config": {}, "class_name": "Ones"}, "moving_mean_initializer": {"config": {}, "class_name": "Zeros"}, "beta_initializer": {"config": {}, "class_name": "Zeros"}, "scale": false, "axis": 3, "beta_regularizer": null, "gamma_constraint": null, "gamma_regularizer": null, "momentum": 0.99, "trainable": false, "epsilon": 0.001, "beta_constraint": null, "moving_variance_initializer": {"config": {}, "class_name": "Ones"}}, "name": "batch_normalization_24", "class_name": "BatchNormalization", "inbound_nodes": [[["conv2d_24", 0, 0, {}]]]}, {"config": {"name": "activation_21", "trainable": false, "activation": "relu"}, "name": "activation_21", "class_name": "Activation", "inbound_nodes": [[["batch_normalization_21", 0, 0, {}]]]}, {"config": {"name": "activation_24", "trainable": false, "activation": "relu"}, "name": "activation_24", "class_name": "Activation", "inbound_nodes": [[["batch_normalization_24", 0, 0, {}]]]}, {"config": {"name": "average_pooling2d_3", "strides": [1, 1], "trainable": false, "data_format": "channels_last", "padding": "same", "pool_size": [3, 3]}, "name": "average_pooling2d_3", "class_name": "AveragePooling2D", "inbound_nodes": [[["mixed1", 0, 0, {}]]]}, {"config": {"name": "conv2d_20", "kernel_regularizer": null, "use_bias": false, "dilation_rate": [1, 1], "data_format": "channels_last", "filters": 64, "bias_constraint": null, "activity_regularizer": null, "bias_initializer": {"config": {}, "class_name": "Zeros"}, "bias_regularizer": null, "strides": [1, 1], "kernel_size": [1, 1], "trainable": false, "kernel_constraint": null, "padding": "same", "kernel_initializer": {"config": {"mode": "fan_avg", "distribution": "uniform", "seed": null, "scale": 1.0}, "class_name": "VarianceScaling"}, "activation": "linear"}, "name": "conv2d_20", "class_name": "Conv2D", "inbound_nodes": [[["mixed1", 0, 0, {}]]]}, {"config": {"name": "conv2d_22", "kernel_regularizer": null, "use_bias": false, "dilation_rate": [1, 1], "data_format": "channels_last", "filters": 64, "bias_constraint": null, "activity_regularizer": null, "bias_initializer": {"config": {}, "class_name": "Zeros"}, "bias_regularizer": null, "strides": [1, 1], "kernel_size": [5, 5], "trainable": false, "kernel_constraint": null, "padding": "same", "kernel_initializer": {"config": {"mode": "fan_avg", "distribution": "uniform", "seed": null, "scale": 1.0}, "class_name": "VarianceScaling"}, "activation": "linear"}, "name": "conv2d_22", "class_name": "Conv2D", "inbound_nodes": [[["activation_21", 0, 0, {}]]]}, {"config": {"name": "conv2d_25", "kernel_regularizer": null, "use_bias": false, "dilation_rate": [1, 1], "data_format": "channels_last", "filters": 96, "bias_constraint": null, "activity_regularizer": null, "bias_initializer": {"config": {}, "class_name": "Zeros"}, "bias_regularizer": null, "strides": [1, 1], "kernel_size": [3, 3], "trainable": false, "kernel_constraint": null, "padding": "same", "kernel_initializer": {"config": {"mode": "fan_avg", "distribution": "uniform", "seed": null, "scale": 1.0}, "class_name": "VarianceScaling"}, "activation": "linear"}, "name": "conv2d_25", "class_name": "Conv2D", "inbound_nodes": [[["activation_24", 0, 0, {}]]]}, {"config": {"name": "conv2d_26", "kernel_regularizer": null, "use_bias": false, "dilation_rate": [1, 1], "data_format": "channels_last", "filters": 64, "bias_constraint": null, "activity_regularizer": null, "bias_initializer": {"config": {}, "class_name": "Zeros"}, "bias_regularizer": null, "strides": [1, 1], "kernel_size": [1, 1], "trainable": false, "kernel_constraint": null, "padding": "same", "kernel_initializer": {"config": {"mode": "fan_avg", "distribution": "uniform", "seed": null, "scale": 1.0}, "class_name": "VarianceScaling"}, "activation": "linear"}, "name": "conv2d_26", "class_name": "Conv2D", "inbound_nodes": [[["average_pooling2d_3", 0, 0, {}]]]}, {"config": {"name": "batch_normalization_20", "center": true, "gamma_initializer": {"config": {}, "class_name": "Ones"}, "moving_mean_initializer": {"config": {}, "class_name": "Zeros"}, "beta_initializer": {"config": {}, "class_name": "Zeros"}, "scale": false, "axis": 3, "beta_regularizer": null, "gamma_constraint": null, "gamma_regularizer": null, "momentum": 0.99, "trainable": false, "epsilon": 0.001, "beta_constraint": null, "moving_variance_initializer": {"config": {}, "class_name": "Ones"}}, "name": "batch_normalization_20", "class_name": "BatchNormalization", "inbound_nodes": [[["conv2d_20", 0, 0, {}]]]}, {"config": {"name": "batch_normalization_22", "center": true, "gamma_initializer": {"config": {}, "class_name": "Ones"}, "moving_mean_initializer": {"config": {}, "class_name": "Zeros"}, "beta_initializer": {"config": {}, "class_name": "Zeros"}, "scale": false, "axis": 3, "beta_regularizer": null, "gamma_constraint": null, "gamma_regularizer": null, "momentum": 0.99, "trainable": false, "epsilon": 0.001, "beta_constraint": null, "moving_variance_initializer": {"config": {}, "class_name": "Ones"}}, "name": "batch_normalization_22", "class_name": "BatchNormalization", "inbound_nodes": [[["conv2d_22", 0, 0, {}]]]}, {"config": {"name": "batch_normalization_25", "center": true, "gamma_initializer": {"config": {}, "class_name": "Ones"}, "moving_mean_initializer": {"config": {}, "class_name": "Zeros"}, "beta_initializer": {"config": {}, "class_name": "Zeros"}, "scale": false, "axis": 3, "beta_regularizer": null, "gamma_constraint": null, "gamma_regularizer": null, "momentum": 0.99, "trainable": false, "epsilon": 0.001, "beta_constraint": null, "moving_variance_initializer": {"config": {}, "class_name": "Ones"}}, "name": "batch_normalization_25", "class_name": "BatchNormalization", "inbound_nodes": [[["conv2d_25", 0, 0, {}]]]}, {"config": {"name": "batch_normalization_26", "center": true, "gamma_initializer": {"config": {}, "class_name": "Ones"}, "moving_mean_initializer": {"config": {}, "class_name": "Zeros"}, "beta_initializer": {"config": {}, "class_name": "Zeros"}, "scale": false, "axis": 3, "beta_regularizer": null, "gamma_constraint": null, "gamma_regularizer": null, "momentum": 0.99, "trainable": false, "epsilon": 0.001, "beta_constraint": null, "moving_variance_initializer": {"config": {}, "class_name": "Ones"}}, "name": "batch_normalization_26", "class_name": "BatchNormalization", "inbound_nodes": [[["conv2d_26", 0, 0, {}]]]}, {"config": {"name": "activation_20", "trainable": false, "activation": "relu"}, "name": "activation_20", "class_name": "Activation", "inbound_nodes": [[["batch_normalization_20", 0, 0, {}]]]}, {"config": {"name": "activation_22", "trainable": false, "activation": "relu"}, "name": "activation_22", "class_name": "Activation", "inbound_nodes": [[["batch_normalization_22", 0, 0, {}]]]}, {"config": {"name": "activation_25", "trainable": false, "activation": "relu"}, "name": "activation_25", "class_name": "Activation", "inbound_nodes": [[["batch_normalization_25", 0, 0, {}]]]}, {"config": {"name": "activation_26", "trainable": false, "activation": "relu"}, "name": "activation_26", "class_name": "Activation", "inbound_nodes": [[["batch_normalization_26", 0, 0, {}]]]}, {"config": {"name": "mixed2", "axis": 3, "trainable": false}, "name": "mixed2", "class_name": "Concatenate", "inbound_nodes": [[["activation_20", 0, 0, {}], ["activation_22", 0, 0, {}], ["activation_25", 0, 0, {}], ["activation_26", 0, 0, {}]]]}, {"config": {"name": "conv2d_28", "kernel_regularizer": null, "use_bias": false, "dilation_rate": [1, 1], "data_format": "channels_last", "filters": 64, "bias_constraint": null, "activity_regularizer": null, "bias_initializer": {"config": {}, "class_name": "Zeros"}, "bias_regularizer": null, "strides": [1, 1], "kernel_size": [1, 1], "trainable": false, "kernel_constraint": null, "padding": "same", "kernel_initializer": {"config": {"mode": "fan_avg", "distribution": "uniform", "seed": null, "scale": 1.0}, "class_name": "VarianceScaling"}, "activation": "linear"}, "name": "conv2d_28", "class_name": "Conv2D", "inbound_nodes": [[["mixed2", 0, 0, {}]]]}, {"config": {"name": "batch_normalization_28", "center": true, "gamma_initializer": {"config": {}, "class_name": "Ones"}, "moving_mean_initializer": {"config": {}, "class_name": "Zeros"}, "beta_initializer": {"config": {}, "class_name": "Zeros"}, "scale": false, "axis": 3, "beta_regularizer": null, "gamma_constraint": null, "gamma_regularizer": null, "momentum": 0.99, "trainable": false, "epsilon": 0.001, "beta_constraint": null, "moving_variance_initializer": {"config": {}, "class_name": "Ones"}}, "name": "batch_normalization_28", "class_name": "BatchNormalization", "inbound_nodes": [[["conv2d_28", 0, 0, {}]]]}, {"config": {"name": "activation_28", "trainable": false, "activation": "relu"}, "name": "activation_28", "class_name": "Activation", "inbound_nodes": [[["batch_normalization_28", 0, 0, {}]]]}, {"config": {"name": "conv2d_29", "kernel_regularizer": null, "use_bias": false, "dilation_rate": [1, 1], "data_format": "channels_last", "filters": 96, "bias_constraint": null, "activity_regularizer": null, "bias_initializer": {"config": {}, "class_name": "Zeros"}, "bias_regularizer": null, "strides": [1, 1], "kernel_size": [3, 3], "trainable": false, "kernel_constraint": null, "padding": "same", "kernel_initializer": {"config": {"mode": "fan_avg", "distribution": "uniform", "seed": null, "scale": 1.0}, "class_name": "VarianceScaling"}, "activation": "linear"}, "name": "conv2d_29", "class_name": "Conv2D", "inbound_nodes": [[["activation_28", 0, 0, {}]]]}, {"config": {"name": "batch_normalization_29", "center": true, "gamma_initializer": {"config": {}, "class_name": "Ones"}, "moving_mean_initializer": {"config": {}, "class_name": "Zeros"}, "beta_initializer": {"config": {}, "class_name": "Zeros"}, "scale": false, "axis": 3, "beta_regularizer": null, "gamma_constraint": null, "gamma_regularizer": null, "momentum": 0.99, "trainable": false, "epsilon": 0.001, "beta_constraint": null, "moving_variance_initializer": {"config": {}, "class_name": "Ones"}}, "name": "batch_normalization_29", "class_name": "BatchNormalization", "inbound_nodes": [[["conv2d_29", 0, 0, {}]]]}, {"config": {"name": "activation_29", "trainable": false, "activation": "relu"}, "name": "activation_29", "class_name": "Activation", "inbound_nodes": [[["batch_normalization_29", 0, 0, {}]]]}, {"config": {"name": "conv2d_27", "kernel_regularizer": null, "use_bias": false, "dilation_rate": [1, 1], "data_format": "channels_last", "filters": 384, "bias_constraint": null, "activity_regularizer": null, "bias_initializer": {"config": {}, "class_name": "Zeros"}, "bias_regularizer": null, "strides": [2, 2], "kernel_size": [3, 3], "trainable": false, "kernel_constraint": null, "padding": "valid", "kernel_initializer": {"config": {"mode": "fan_avg", "distribution": "uniform", "seed": null, "scale": 1.0}, "class_name": "VarianceScaling"}, "activation": "linear"}, "name": "conv2d_27", "class_name": "Conv2D", "inbound_nodes": [[["mixed2", 0, 0, {}]]]}, {"config": {"name": "conv2d_30", "kernel_regularizer": null, "use_bias": false, "dilation_rate": [1, 1], "data_format": "channels_last", "filters": 96, "bias_constraint": null, "activity_regularizer": null, "bias_initializer": {"config": {}, "class_name": "Zeros"}, "bias_regularizer": null, "strides": [2, 2], "kernel_size": [3, 3], "trainable": false, "kernel_constraint": null, "padding": "valid", "kernel_initializer": {"config": {"mode": "fan_avg", "distribution": "uniform", "seed": null, "scale": 1.0}, "class_name": "VarianceScaling"}, "activation": "linear"}, "name": "conv2d_30", "class_name": "Conv2D", "inbound_nodes": [[["activation_29", 0, 0, {}]]]}, {"config": {"name": "batch_normalization_27", "center": true, "gamma_initializer": {"config": {}, "class_name": "Ones"}, "moving_mean_initializer": {"config": {}, "class_name": "Zeros"}, "beta_initializer": {"config": {}, "class_name": "Zeros"}, "scale": false, "axis": 3, "beta_regularizer": null, "gamma_constraint": null, "gamma_regularizer": null, "momentum": 0.99, "trainable": false, "epsilon": 0.001, "beta_constraint": null, "moving_variance_initializer": {"config": {}, "class_name": "Ones"}}, "name": "batch_normalization_27", "class_name": "BatchNormalization", "inbound_nodes": [[["conv2d_27", 0, 0, {}]]]}, {"config": {"name": "batch_normalization_30", "center": true, "gamma_initializer": {"config": {}, "class_name": "Ones"}, "moving_mean_initializer": {"config": {}, "class_name": "Zeros"}, "beta_initializer": {"config": {}, "class_name": "Zeros"}, "scale": false, "axis": 3, "beta_regularizer": null, "gamma_constraint": null, "gamma_regularizer": null, "momentum": 0.99, "trainable": false, "epsilon": 0.001, "beta_constraint": null, "moving_variance_initializer": {"config": {}, "class_name": "Ones"}}, "name": "batch_normalization_30", "class_name": "BatchNormalization", "inbound_nodes": [[["conv2d_30", 0, 0, {}]]]}, {"config": {"name": "activation_27", "trainable": false, "activation": "relu"}, "name": "activation_27", "class_name": "Activation", "inbound_nodes": [[["batch_normalization_27", 0, 0, {}]]]}, {"config": {"name": "activation_30", "trainable": false, "activation": "relu"}, "name": "activation_30", "class_name": "Activation", "inbound_nodes": [[["batch_normalization_30", 0, 0, {}]]]}, {"config": {"name": "max_pooling2d_3", "strides": [2, 2], "trainable": false, "data_format": "channels_last", "padding": "valid", "pool_size": [3, 3]}, "name": "max_pooling2d_3", "class_name": "MaxPooling2D", "inbound_nodes": [[["mixed2", 0, 0, {}]]]}, {"config": {"name": "mixed3", "axis": 3, "trainable": false}, "name": "mixed3", "class_name": "Concatenate", "inbound_nodes": [[["activation_27", 0, 0, {}], ["activation_30", 0, 0, {}], ["max_pooling2d_3", 0, 0, {}]]]}, {"config": {"name": "conv2d_35", "kernel_regularizer": null, "use_bias": false, "dilation_rate": [1, 1], "data_format": "channels_last", "filters": 128, "bias_constraint": null, "activity_regularizer": null, "bias_initializer": {"config": {}, "class_name": "Zeros"}, "bias_regularizer": null, "strides": [1, 1], "kernel_size": [1, 1], "trainable": false, "kernel_constraint": null, "padding": "same", "kernel_initializer": {"config": {"mode": "fan_avg", "distribution": "uniform", "seed": null, "scale": 1.0}, "class_name": "VarianceScaling"}, "activation": "linear"}, "name": "conv2d_35", "class_name": "Conv2D", "inbound_nodes": [[["mixed3", 0, 0, {}]]]}, {"config": {"name": "batch_normalization_35", "center": true, "gamma_initializer": {"config": {}, "class_name": "Ones"}, "moving_mean_initializer": {"config": {}, "class_name": "Zeros"}, "beta_initializer": {"config": {}, "class_name": "Zeros"}, "scale": false, "axis": 3, "beta_regularizer": null, "gamma_constraint": null, "gamma_regularizer": null, "momentum": 0.99, "trainable": false, "epsilon": 0.001, "beta_constraint": null, "moving_variance_initializer": {"config": {}, "class_name": "Ones"}}, "name": "batch_normalization_35", "class_name": "BatchNormalization", "inbound_nodes": [[["conv2d_35", 0, 0, {}]]]}, {"config": {"name": "activation_35", "trainable": false, "activation": "relu"}, "name": "activation_35", "class_name": "Activation", "inbound_nodes": [[["batch_normalization_35", 0, 0, {}]]]}, {"config": {"name": "conv2d_36", "kernel_regularizer": null, "use_bias": false, "dilation_rate": [1, 1], "data_format": "channels_last", "filters": 128, "bias_constraint": null, "activity_regularizer": null, "bias_initializer": {"config": {}, "class_name": "Zeros"}, "bias_regularizer": null, "strides": [1, 1], "kernel_size": [7, 1], "trainable": false, "kernel_constraint": null, "padding": "same", "kernel_initializer": {"config": {"mode": "fan_avg", "distribution": "uniform", "seed": null, "scale": 1.0}, "class_name": "VarianceScaling"}, "activation": "linear"}, "name": "conv2d_36", "class_name": "Conv2D", "inbound_nodes": [[["activation_35", 0, 0, {}]]]}, {"config": {"name": "batch_normalization_36", "center": true, "gamma_initializer": {"config": {}, "class_name": "Ones"}, "moving_mean_initializer": {"config": {}, "class_name": "Zeros"}, "beta_initializer": {"config": {}, "class_name": "Zeros"}, "scale": false, "axis": 3, "beta_regularizer": null, "gamma_constraint": null, "gamma_regularizer": null, "momentum": 0.99, "trainable": false, "epsilon": 0.001, "beta_constraint": null, "moving_variance_initializer": {"config": {}, "class_name": "Ones"}}, "name": "batch_normalization_36", "class_name": "BatchNormalization", "inbound_nodes": [[["conv2d_36", 0, 0, {}]]]}, {"config": {"name": "activation_36", "trainable": false, "activation": "relu"}, "name": "activation_36", "class_name": "Activation", "inbound_nodes": [[["batch_normalization_36", 0, 0, {}]]]}, {"config": {"name": "conv2d_32", "kernel_regularizer": null, "use_bias": false, "dilation_rate": [1, 1], "data_format": "channels_last", "filters": 128, "bias_constraint": null, "activity_regularizer": null, "bias_initializer": {"config": {}, "class_name": "Zeros"}, "bias_regularizer": null, "strides": [1, 1], "kernel_size": [1, 1], "trainable": false, "kernel_constraint": null, "padding": "same", "kernel_initializer": {"config": {"mode": "fan_avg", "distribution": "uniform", "seed": null, "scale": 1.0}, "class_name": "VarianceScaling"}, "activation": "linear"}, "name": "conv2d_32", "class_name": "Conv2D", "inbound_nodes": [[["mixed3", 0, 0, {}]]]}, {"config": {"name": "conv2d_37", "kernel_regularizer": null, "use_bias": false, "dilation_rate": [1, 1], "data_format": "channels_last", "filters": 128, "bias_constraint": null, "activity_regularizer": null, "bias_initializer": {"config": {}, "class_name": "Zeros"}, "bias_regularizer": null, "strides": [1, 1], "kernel_size": [1, 7], "trainable": false, "kernel_constraint": null, "padding": "same", "kernel_initializer": {"config": {"mode": "fan_avg", "distribution": "uniform", "seed": null, "scale": 1.0}, "class_name": "VarianceScaling"}, "activation": "linear"}, "name": "conv2d_37", "class_name": "Conv2D", "inbound_nodes": [[["activation_36", 0, 0, {}]]]}, {"config": {"name": "batch_normalization_32", "center": true, "gamma_initializer": {"config": {}, "class_name": "Ones"}, "moving_mean_initializer": {"config": {}, "class_name": "Zeros"}, "beta_initializer": {"config": {}, "class_name": "Zeros"}, "scale": false, "axis": 3, "beta_regularizer": null, "gamma_constraint": null, "gamma_regularizer": null, "momentum": 0.99, "trainable": false, "epsilon": 0.001, "beta_constraint": null, "moving_variance_initializer": {"config": {}, "class_name": "Ones"}}, "name": "batch_normalization_32", "class_name": "BatchNormalization", "inbound_nodes": [[["conv2d_32", 0, 0, {}]]]}, {"config": {"name": "batch_normalization_37", "center": true, "gamma_initializer": {"config": {}, "class_name": "Ones"}, "moving_mean_initializer": {"config": {}, "class_name": "Zeros"}, "beta_initializer": {"config": {}, "class_name": "Zeros"}, "scale": false, "axis": 3, "beta_regularizer": null, "gamma_constraint": null, "gamma_regularizer": null, "momentum": 0.99, "trainable": false, "epsilon": 0.001, "beta_constraint": null, "moving_variance_initializer": {"config": {}, "class_name": "Ones"}}, "name": "batch_normalization_37", "class_name": "BatchNormalization", "inbound_nodes": [[["conv2d_37", 0, 0, {}]]]}, {"config": {"name": "activation_32", "trainable": false, "activation": "relu"}, "name": "activation_32", "class_name": "Activation", "inbound_nodes": [[["batch_normalization_32", 0, 0, {}]]]}, {"config": {"name": "activation_37", "trainable": false, "activation": "relu"}, "name": "activation_37", "class_name": "Activation", "inbound_nodes": [[["batch_normalization_37", 0, 0, {}]]]}, {"config": {"name": "conv2d_33", "kernel_regularizer": null, "use_bias": false, "dilation_rate": [1, 1], "data_format": "channels_last", "filters": 128, "bias_constraint": null, "activity_regularizer": null, "bias_initializer": {"config": {}, "class_name": "Zeros"}, "bias_regularizer": null, "strides": [1, 1], "kernel_size": [1, 7], "trainable": false, "kernel_constraint": null, "padding": "same", "kernel_initializer": {"config": {"mode": "fan_avg", "distribution": "uniform", "seed": null, "scale": 1.0}, "class_name": "VarianceScaling"}, "activation": "linear"}, "name": "conv2d_33", "class_name": "Conv2D", "inbound_nodes": [[["activation_32", 0, 0, {}]]]}, {"config": {"name": "conv2d_38", "kernel_regularizer": null, "use_bias": false, "dilation_rate": [1, 1], "data_format": "channels_last", "filters": 128, "bias_constraint": null, "activity_regularizer": null, "bias_initializer": {"config": {}, "class_name": "Zeros"}, "bias_regularizer": null, "strides": [1, 1], "kernel_size": [7, 1], "trainable": false, "kernel_constraint": null, "padding": "same", "kernel_initializer": {"config": {"mode": "fan_avg", "distribution": "uniform", "seed": null, "scale": 1.0}, "class_name": "VarianceScaling"}, "activation": "linear"}, "name": "conv2d_38", "class_name": "Conv2D", "inbound_nodes": [[["activation_37", 0, 0, {}]]]}, {"config": {"name": "batch_normalization_33", "center": true, "gamma_initializer": {"config": {}, "class_name": "Ones"}, "moving_mean_initializer": {"config": {}, "class_name": "Zeros"}, "beta_initializer": {"config": {}, "class_name": "Zeros"}, "scale": false, "axis": 3, "beta_regularizer": null, "gamma_constraint": null, "gamma_regularizer": null, "momentum": 0.99, "trainable": false, "epsilon": 0.001, "beta_constraint": null, "moving_variance_initializer": {"config": {}, "class_name": "Ones"}}, "name": "batch_normalization_33", "class_name": "BatchNormalization", "inbound_nodes": [[["conv2d_33", 0, 0, {}]]]}, {"config": {"name": "batch_normalization_38", "center": true, "gamma_initializer": {"config": {}, "class_name": "Ones"}, "moving_mean_initializer": {"config": {}, "class_name": "Zeros"}, "beta_initializer": {"config": {}, "class_name": "Zeros"}, "scale": false, "axis": 3, "beta_regularizer": null, "gamma_constraint": null, "gamma_regularizer": null, "momentum": 0.99, "trainable": false, "epsilon": 0.001, "beta_constraint": null, "moving_variance_initializer": {"config": {}, "class_name": "Ones"}}, "name": "batch_normalization_38", "class_name": "BatchNormalization", "inbound_nodes": [[["conv2d_38", 0, 0, {}]]]}, {"config": {"name": "activation_33", "trainable": false, "activation": "relu"}, "name": "activation_33", "class_name": "Activation", "inbound_nodes": [[["batch_normalization_33", 0, 0, {}]]]}, {"config": {"name": "activation_38", "trainable": false, "activation": "relu"}, "name": "activation_38", "class_name": "Activation", "inbound_nodes": [[["batch_normalization_38", 0, 0, {}]]]}, {"config": {"name": "average_pooling2d_4", "strides": [1, 1], "trainable": false, "data_format": "channels_last", "padding": "same", "pool_size": [3, 3]}, "name": "average_pooling2d_4", "class_name": "AveragePooling2D", "inbound_nodes": [[["mixed3", 0, 0, {}]]]}, {"config": {"name": "conv2d_31", "kernel_regularizer": null, "use_bias": false, "dilation_rate": [1, 1], "data_format": "channels_last", "filters": 192, "bias_constraint": null, "activity_regularizer": null, "bias_initializer": {"config": {}, "class_name": "Zeros"}, "bias_regularizer": null, "strides": [1, 1], "kernel_size": [1, 1], "trainable": false, "kernel_constraint": null, "padding": "same", "kernel_initializer": {"config": {"mode": "fan_avg", "distribution": "uniform", "seed": null, "scale": 1.0}, "class_name": "VarianceScaling"}, "activation": "linear"}, "name": "conv2d_31", "class_name": "Conv2D", "inbound_nodes": [[["mixed3", 0, 0, {}]]]}, {"config": {"name": "conv2d_34", "kernel_regularizer": null, "use_bias": false, "dilation_rate": [1, 1], "data_format": "channels_last", "filters": 192, "bias_constraint": null, "activity_regularizer": null, "bias_initializer": {"config": {}, "class_name": "Zeros"}, "bias_regularizer": null, "strides": [1, 1], "kernel_size": [7, 1], "trainable": false, "kernel_constraint": null, "padding": "same", "kernel_initializer": {"config": {"mode": "fan_avg", "distribution": "uniform", "seed": null, "scale": 1.0}, "class_name": "VarianceScaling"}, "activation": "linear"}, "name": "conv2d_34", "class_name": "Conv2D", "inbound_nodes": [[["activation_33", 0, 0, {}]]]}, {"config": {"name": "conv2d_39", "kernel_regularizer": null, "use_bias": false, "dilation_rate": [1, 1], "data_format": "channels_last", "filters": 192, "bias_constraint": null, "activity_regularizer": null, "bias_initializer": {"config": {}, "class_name": "Zeros"}, "bias_regularizer": null, "strides": [1, 1], "kernel_size": [1, 7], "trainable": false, "kernel_constraint": null, "padding": "same", "kernel_initializer": {"config": {"mode": "fan_avg", "distribution": "uniform", "seed": null, "scale": 1.0}, "class_name": "VarianceScaling"}, "activation": "linear"}, "name": "conv2d_39", "class_name": "Conv2D", "inbound_nodes": [[["activation_38", 0, 0, {}]]]}, {"config": {"name": "conv2d_40", "kernel_regularizer": null, "use_bias": false, "dilation_rate": [1, 1], "data_format": "channels_last", "filters": 192, "bias_constraint": null, "activity_regularizer": null, "bias_initializer": {"config": {}, "class_name": "Zeros"}, "bias_regularizer": null, "strides": [1, 1], "kernel_size": [1, 1], "trainable": false, "kernel_constraint": null, "padding": "same", "kernel_initializer": {"config": {"mode": "fan_avg", "distribution": "uniform", "seed": null, "scale": 1.0}, "class_name": "VarianceScaling"}, "activation": "linear"}, "name": "conv2d_40", "class_name": "Conv2D", "inbound_nodes": [[["average_pooling2d_4", 0, 0, {}]]]}, {"config": {"name": "batch_normalization_31", "center": true, "gamma_initializer": {"config": {}, "class_name": "Ones"}, "moving_mean_initializer": {"config": {}, "class_name": "Zeros"}, "beta_initializer": {"config": {}, "class_name": "Zeros"}, "scale": false, "axis": 3, "beta_regularizer": null, "gamma_constraint": null, "gamma_regularizer": null, "momentum": 0.99, "trainable": false, "epsilon": 0.001, "beta_constraint": null, "moving_variance_initializer": {"config": {}, "class_name": "Ones"}}, "name": "batch_normalization_31", "class_name": "BatchNormalization", "inbound_nodes": [[["conv2d_31", 0, 0, {}]]]}, {"config": {"name": "batch_normalization_34", "center": true, "gamma_initializer": {"config": {}, "class_name": "Ones"}, "moving_mean_initializer": {"config": {}, "class_name": "Zeros"}, "beta_initializer": {"config": {}, "class_name": "Zeros"}, "scale": false, "axis": 3, "beta_regularizer": null, "gamma_constraint": null, "gamma_regularizer": null, "momentum": 0.99, "trainable": false, "epsilon": 0.001, "beta_constraint": null, "moving_variance_initializer": {"config": {}, "class_name": "Ones"}}, "name": "batch_normalization_34", "class_name": "BatchNormalization", "inbound_nodes": [[["conv2d_34", 0, 0, {}]]]}, {"config": {"name": "batch_normalization_39", "center": true, "gamma_initializer": {"config": {}, "class_name": "Ones"}, "moving_mean_initializer": {"config": {}, "class_name": "Zeros"}, "beta_initializer": {"config": {}, "class_name": "Zeros"}, "scale": false, "axis": 3, "beta_regularizer": null, "gamma_constraint": null, "gamma_regularizer": null, "momentum": 0.99, "trainable": false, "epsilon": 0.001, "beta_constraint": null, "moving_variance_initializer": {"config": {}, "class_name": "Ones"}}, "name": "batch_normalization_39", "class_name": "BatchNormalization", "inbound_nodes": [[["conv2d_39", 0, 0, {}]]]}, {"config": {"name": "batch_normalization_40", "center": true, "gamma_initializer": {"config": {}, "class_name": "Ones"}, "moving_mean_initializer": {"config": {}, "class_name": "Zeros"}, "beta_initializer": {"config": {}, "class_name": "Zeros"}, "scale": false, "axis": 3, "beta_regularizer": null, "gamma_constraint": null, "gamma_regularizer": null, "momentum": 0.99, "trainable": false, "epsilon": 0.001, "beta_constraint": null, "moving_variance_initializer": {"config": {}, "class_name": "Ones"}}, "name": "batch_normalization_40", "class_name": "BatchNormalization", "inbound_nodes": [[["conv2d_40", 0, 0, {}]]]}, {"config": {"name": "activation_31", "trainable": false, "activation": "relu"}, "name": "activation_31", "class_name": "Activation", "inbound_nodes": [[["batch_normalization_31", 0, 0, {}]]]}, {"config": {"name": "activation_34", "trainable": false, "activation": "relu"}, "name": "activation_34", "class_name": "Activation", "inbound_nodes": [[["batch_normalization_34", 0, 0, {}]]]}, {"config": {"name": "activation_39", "trainable": false, "activation": "relu"}, "name": "activation_39", "class_name": "Activation", "inbound_nodes": [[["batch_normalization_39", 0, 0, {}]]]}, {"config": {"name": "activation_40", "trainable": false, "activation": "relu"}, "name": "activation_40", "class_name": "Activation", "inbound_nodes": [[["batch_normalization_40", 0, 0, {}]]]}, {"config": {"name": "mixed4", "axis": 3, "trainable": false}, "name": "mixed4", "class_name": "Concatenate", "inbound_nodes": [[["activation_31", 0, 0, {}], ["activation_34", 0, 0, {}], ["activation_39", 0, 0, {}], ["activation_40", 0, 0, {}]]]}, {"config": {"name": "conv2d_45", "kernel_regularizer": null, "use_bias": false, "dilation_rate": [1, 1], "data_format": "channels_last", "filters": 160, "bias_constraint": null, "activity_regularizer": null, "bias_initializer": {"config": {}, "class_name": "Zeros"}, "bias_regularizer": null, "strides": [1, 1], "kernel_size": [1, 1], "trainable": false, "kernel_constraint": null, "padding": "same", "kernel_initializer": {"config": {"mode": "fan_avg", "distribution": "uniform", "seed": null, "scale": 1.0}, "class_name": "VarianceScaling"}, "activation": "linear"}, "name": "conv2d_45", "class_name": "Conv2D", "inbound_nodes": [[["mixed4", 0, 0, {}]]]}, {"config": {"name": "batch_normalization_45", "center": true, "gamma_initializer": {"config": {}, "class_name": "Ones"}, "moving_mean_initializer": {"config": {}, "class_name": "Zeros"}, "beta_initializer": {"config": {}, "class_name": "Zeros"}, "scale": false, "axis": 3, "beta_regularizer": null, "gamma_constraint": null, "gamma_regularizer": null, "momentum": 0.99, "trainable": false, "epsilon": 0.001, "beta_constraint": null, "moving_variance_initializer": {"config": {}, "class_name": "Ones"}}, "name": "batch_normalization_45", "class_name": "BatchNormalization", "inbound_nodes": [[["conv2d_45", 0, 0, {}]]]}, {"config": {"name": "activation_45", "trainable": false, "activation": "relu"}, "name": "activation_45", "class_name": "Activation", "inbound_nodes": [[["batch_normalization_45", 0, 0, {}]]]}, {"config": {"name": "conv2d_46", "kernel_regularizer": null, "use_bias": false, "dilation_rate": [1, 1], "data_format": "channels_last", "filters": 160, "bias_constraint": null, "activity_regularizer": null, "bias_initializer": {"config": {}, "class_name": "Zeros"}, "bias_regularizer": null, "strides": [1, 1], "kernel_size": [7, 1], "trainable": false, "kernel_constraint": null, "padding": "same", "kernel_initializer": {"config": {"mode": "fan_avg", "distribution": "uniform", "seed": null, "scale": 1.0}, "class_name": "VarianceScaling"}, "activation": "linear"}, "name": "conv2d_46", "class_name": "Conv2D", "inbound_nodes": [[["activation_45", 0, 0, {}]]]}, {"config": {"name": "batch_normalization_46", "center": true, "gamma_initializer": {"config": {}, "class_name": "Ones"}, "moving_mean_initializer": {"config": {}, "class_name": "Zeros"}, "beta_initializer": {"config": {}, "class_name": "Zeros"}, "scale": false, "axis": 3, "beta_regularizer": null, "gamma_constraint": null, "gamma_regularizer": null, "momentum": 0.99, "trainable": false, "epsilon": 0.001, "beta_constraint": null, "moving_variance_initializer": {"config": {}, "class_name": "Ones"}}, "name": "batch_normalization_46", "class_name": "BatchNormalization", "inbound_nodes": [[["conv2d_46", 0, 0, {}]]]}, {"config": {"name": "activation_46", "trainable": false, "activation": "relu"}, "name": "activation_46", "class_name": "Activation", "inbound_nodes": [[["batch_normalization_46", 0, 0, {}]]]}, {"config": {"name": "conv2d_42", "kernel_regularizer": null, "use_bias": false, "dilation_rate": [1, 1], "data_format": "channels_last", "filters": 160, "bias_constraint": null, "activity_regularizer": null, "bias_initializer": {"config": {}, "class_name": "Zeros"}, "bias_regularizer": null, "strides": [1, 1], "kernel_size": [1, 1], "trainable": false, "kernel_constraint": null, "padding": "same", "kernel_initializer": {"config": {"mode": "fan_avg", "distribution": "uniform", "seed": null, "scale": 1.0}, "class_name": "VarianceScaling"}, "activation": "linear"}, "name": "conv2d_42", "class_name": "Conv2D", "inbound_nodes": [[["mixed4", 0, 0, {}]]]}, {"config": {"name": "conv2d_47", "kernel_regularizer": null, "use_bias": false, "dilation_rate": [1, 1], "data_format": "channels_last", "filters": 160, "bias_constraint": null, "activity_regularizer": null, "bias_initializer": {"config": {}, "class_name": "Zeros"}, "bias_regularizer": null, "strides": [1, 1], "kernel_size": [1, 7], "trainable": false, "kernel_constraint": null, "padding": "same", "kernel_initializer": {"config": {"mode": "fan_avg", "distribution": "uniform", "seed": null, "scale": 1.0}, "class_name": "VarianceScaling"}, "activation": "linear"}, "name": "conv2d_47", "class_name": "Conv2D", "inbound_nodes": [[["activation_46", 0, 0, {}]]]}, {"config": {"name": "batch_normalization_42", "center": true, "gamma_initializer": {"config": {}, "class_name": "Ones"}, "moving_mean_initializer": {"config": {}, "class_name": "Zeros"}, "beta_initializer": {"config": {}, "class_name": "Zeros"}, "scale": false, "axis": 3, "beta_regularizer": null, "gamma_constraint": null, "gamma_regularizer": null, "momentum": 0.99, "trainable": false, "epsilon": 0.001, "beta_constraint": null, "moving_variance_initializer": {"config": {}, "class_name": "Ones"}}, "name": "batch_normalization_42", "class_name": "BatchNormalization", "inbound_nodes": [[["conv2d_42", 0, 0, {}]]]}, {"config": {"name": "batch_normalization_47", "center": true, "gamma_initializer": {"config": {}, "class_name": "Ones"}, "moving_mean_initializer": {"config": {}, "class_name": "Zeros"}, "beta_initializer": {"config": {}, "class_name": "Zeros"}, "scale": false, "axis": 3, "beta_regularizer": null, "gamma_constraint": null, "gamma_regularizer": null, "momentum": 0.99, "trainable": false, "epsilon": 0.001, "beta_constraint": null, "moving_variance_initializer": {"config": {}, "class_name": "Ones"}}, "name": "batch_normalization_47", "class_name": "BatchNormalization", "inbound_nodes": [[["conv2d_47", 0, 0, {}]]]}, {"config": {"name": "activation_42", "trainable": false, "activation": "relu"}, "name": "activation_42", "class_name": "Activation", "inbound_nodes": [[["batch_normalization_42", 0, 0, {}]]]}, {"config": {"name": "activation_47", "trainable": false, "activation": "relu"}, "name": "activation_47", "class_name": "Activation", "inbound_nodes": [[["batch_normalization_47", 0, 0, {}]]]}, {"config": {"name": "conv2d_43", "kernel_regularizer": null, "use_bias": false, "dilation_rate": [1, 1], "data_format": "channels_last", "filters": 160, "bias_constraint": null, "activity_regularizer": null, "bias_initializer": {"config": {}, "class_name": "Zeros"}, "bias_regularizer": null, "strides": [1, 1], "kernel_size": [1, 7], "trainable": false, "kernel_constraint": null, "padding": "same", "kernel_initializer": {"config": {"mode": "fan_avg", "distribution": "uniform", "seed": null, "scale": 1.0}, "class_name": "VarianceScaling"}, "activation": "linear"}, "name": "conv2d_43", "class_name": "Conv2D", "inbound_nodes": [[["activation_42", 0, 0, {}]]]}, {"config": {"name": "conv2d_48", "kernel_regularizer": null, "use_bias": false, "dilation_rate": [1, 1], "data_format": "channels_last", "filters": 160, "bias_constraint": null, "activity_regularizer": null, "bias_initializer": {"config": {}, "class_name": "Zeros"}, "bias_regularizer": null, "strides": [1, 1], "kernel_size": [7, 1], "trainable": false, "kernel_constraint": null, "padding": "same", "kernel_initializer": {"config": {"mode": "fan_avg", "distribution": "uniform", "seed": null, "scale": 1.0}, "class_name": "VarianceScaling"}, "activation": "linear"}, "name": "conv2d_48", "class_name": "Conv2D", "inbound_nodes": [[["activation_47", 0, 0, {}]]]}, {"config": {"name": "batch_normalization_43", "center": true, "gamma_initializer": {"config": {}, "class_name": "Ones"}, "moving_mean_initializer": {"config": {}, "class_name": "Zeros"}, "beta_initializer": {"config": {}, "class_name": "Zeros"}, "scale": false, "axis": 3, "beta_regularizer": null, "gamma_constraint": null, "gamma_regularizer": null, "momentum": 0.99, "trainable": false, "epsilon": 0.001, "beta_constraint": null, "moving_variance_initializer": {"config": {}, "class_name": "Ones"}}, "name": "batch_normalization_43", "class_name": "BatchNormalization", "inbound_nodes": [[["conv2d_43", 0, 0, {}]]]}, {"config": {"name": "batch_normalization_48", "center": true, "gamma_initializer": {"config": {}, "class_name": "Ones"}, "moving_mean_initializer": {"config": {}, "class_name": "Zeros"}, "beta_initializer": {"config": {}, "class_name": "Zeros"}, "scale": false, "axis": 3, "beta_regularizer": null, "gamma_constraint": null, "gamma_regularizer": null, "momentum": 0.99, "trainable": false, "epsilon": 0.001, "beta_constraint": null, "moving_variance_initializer": {"config": {}, "class_name": "Ones"}}, "name": "batch_normalization_48", "class_name": "BatchNormalization", "inbound_nodes": [[["conv2d_48", 0, 0, {}]]]}, {"config": {"name": "activation_43", "trainable": false, "activation": "relu"}, "name": "activation_43", "class_name": "Activation", "inbound_nodes": [[["batch_normalization_43", 0, 0, {}]]]}, {"config": {"name": "activation_48", "trainable": false, "activation": "relu"}, "name": "activation_48", "class_name": "Activation", "inbound_nodes": [[["batch_normalization_48", 0, 0, {}]]]}, {"config": {"name": "average_pooling2d_5", "strides": [1, 1], "trainable": false, "data_format": "channels_last", "padding": "same", "pool_size": [3, 3]}, "name": "average_pooling2d_5", "class_name": "AveragePooling2D", "inbound_nodes": [[["mixed4", 0, 0, {}]]]}, {"config": {"name": "conv2d_41", "kernel_regularizer": null, "use_bias": false, "dilation_rate": [1, 1], "data_format": "channels_last", "filters": 192, "bias_constraint": null, "activity_regularizer": null, "bias_initializer": {"config": {}, "class_name": "Zeros"}, "bias_regularizer": null, "strides": [1, 1], "kernel_size": [1, 1], "trainable": false, "kernel_constraint": null, "padding": "same", "kernel_initializer": {"config": {"mode": "fan_avg", "distribution": "uniform", "seed": null, "scale": 1.0}, "class_name": "VarianceScaling"}, "activation": "linear"}, "name": "conv2d_41", "class_name": "Conv2D", "inbound_nodes": [[["mixed4", 0, 0, {}]]]}, {"config": {"name": "conv2d_44", "kernel_regularizer": null, "use_bias": false, "dilation_rate": [1, 1], "data_format": "channels_last", "filters": 192, "bias_constraint": null, "activity_regularizer": null, "bias_initializer": {"config": {}, "class_name": "Zeros"}, "bias_regularizer": null, "strides": [1, 1], "kernel_size": [7, 1], "trainable": false, "kernel_constraint": null, "padding": "same", "kernel_initializer": {"config": {"mode": "fan_avg", "distribution": "uniform", "seed": null, "scale": 1.0}, "class_name": "VarianceScaling"}, "activation": "linear"}, "name": "conv2d_44", "class_name": "Conv2D", "inbound_nodes": [[["activation_43", 0, 0, {}]]]}, {"config": {"name": "conv2d_49", "kernel_regularizer": null, "use_bias": false, "dilation_rate": [1, 1], "data_format": "channels_last", "filters": 192, "bias_constraint": null, "activity_regularizer": null, "bias_initializer": {"config": {}, "class_name": "Zeros"}, "bias_regularizer": null, "strides": [1, 1], "kernel_size": [1, 7], "trainable": false, "kernel_constraint": null, "padding": "same", "kernel_initializer": {"config": {"mode": "fan_avg", "distribution": "uniform", "seed": null, "scale": 1.0}, "class_name": "VarianceScaling"}, "activation": "linear"}, "name": "conv2d_49", "class_name": "Conv2D", "inbound_nodes": [[["activation_48", 0, 0, {}]]]}, {"config": {"name": "conv2d_50", "kernel_regularizer": null, "use_bias": false, "dilation_rate": [1, 1], "data_format": "channels_last", "filters": 192, "bias_constraint": null, "activity_regularizer": null, "bias_initializer": {"config": {}, "class_name": "Zeros"}, "bias_regularizer": null, "strides": [1, 1], "kernel_size": [1, 1], "trainable": false, "kernel_constraint": null, "padding": "same", "kernel_initializer": {"config": {"mode": "fan_avg", "distribution": "uniform", "seed": null, "scale": 1.0}, "class_name": "VarianceScaling"}, "activation": "linear"}, "name": "conv2d_50", "class_name": "Conv2D", "inbound_nodes": [[["average_pooling2d_5", 0, 0, {}]]]}, {"config": {"name": "batch_normalization_41", "center": true, "gamma_initializer": {"config": {}, "class_name": "Ones"}, "moving_mean_initializer": {"config": {}, "class_name": "Zeros"}, "beta_initializer": {"config": {}, "class_name": "Zeros"}, "scale": false, "axis": 3, "beta_regularizer": null, "gamma_constraint": null, "gamma_regularizer": null, "momentum": 0.99, "trainable": false, "epsilon": 0.001, "beta_constraint": null, "moving_variance_initializer": {"config": {}, "class_name": "Ones"}}, "name": "batch_normalization_41", "class_name": "BatchNormalization", "inbound_nodes": [[["conv2d_41", 0, 0, {}]]]}, {"config": {"name": "batch_normalization_44", "center": true, "gamma_initializer": {"config": {}, "class_name": "Ones"}, "moving_mean_initializer": {"config": {}, "class_name": "Zeros"}, "beta_initializer": {"config": {}, "class_name": "Zeros"}, "scale": false, "axis": 3, "beta_regularizer": null, "gamma_constraint": null, "gamma_regularizer": null, "momentum": 0.99, "trainable": false, "epsilon": 0.001, "beta_constraint": null, "moving_variance_initializer": {"config": {}, "class_name": "Ones"}}, "name": "batch_normalization_44", "class_name": "BatchNormalization", "inbound_nodes": [[["conv2d_44", 0, 0, {}]]]}, {"config": {"name": "batch_normalization_49", "center": true, "gamma_initializer": {"config": {}, "class_name": "Ones"}, "moving_mean_initializer": {"config": {}, "class_name": "Zeros"}, "beta_initializer": {"config": {}, "class_name": "Zeros"}, "scale": false, "axis": 3, "beta_regularizer": null, "gamma_constraint": null, "gamma_regularizer": null, "momentum": 0.99, "trainable": false, "epsilon": 0.001, "beta_constraint": null, "moving_variance_initializer": {"config": {}, "class_name": "Ones"}}, "name": "batch_normalization_49", "class_name": "BatchNormalization", "inbound_nodes": [[["conv2d_49", 0, 0, {}]]]}, {"config": {"name": "batch_normalization_50", "center": true, "gamma_initializer": {"config": {}, "class_name": "Ones"}, "moving_mean_initializer": {"config": {}, "class_name": "Zeros"}, "beta_initializer": {"config": {}, "class_name": "Zeros"}, "scale": false, "axis": 3, "beta_regularizer": null, "gamma_constraint": null, "gamma_regularizer": null, "momentum": 0.99, "trainable": false, "epsilon": 0.001, "beta_constraint": null, "moving_variance_initializer": {"config": {}, "class_name": "Ones"}}, "name": "batch_normalization_50", "class_name": "BatchNormalization", "inbound_nodes": [[["conv2d_50", 0, 0, {}]]]}, {"config": {"name": "activation_41", "trainable": false, "activation": "relu"}, "name": "activation_41", "class_name": "Activation", "inbound_nodes": [[["batch_normalization_41", 0, 0, {}]]]}, {"config": {"name": "activation_44", "trainable": false, "activation": "relu"}, "name": "activation_44", "class_name": "Activation", "inbound_nodes": [[["batch_normalization_44", 0, 0, {}]]]}, {"config": {"name": "activation_49", "trainable": false, "activation": "relu"}, "name": "activation_49", "class_name": "Activation", "inbound_nodes": [[["batch_normalization_49", 0, 0, {}]]]}, {"config": {"name": "activation_50", "trainable": false, "activation": "relu"}, "name": "activation_50", "class_name": "Activation", "inbound_nodes": [[["batch_normalization_50", 0, 0, {}]]]}, {"config": {"name": "mixed5", "axis": 3, "trainable": false}, "name": "mixed5", "class_name": "Concatenate", "inbound_nodes": [[["activation_41", 0, 0, {}], ["activation_44", 0, 0, {}], ["activation_49", 0, 0, {}], ["activation_50", 0, 0, {}]]]}, {"config": {"name": "conv2d_55", "kernel_regularizer": null, "use_bias": false, "dilation_rate": [1, 1], "data_format": "channels_last", "filters": 160, "bias_constraint": null, "activity_regularizer": null, "bias_initializer": {"config": {}, "class_name": "Zeros"}, "bias_regularizer": null, "strides": [1, 1], "kernel_size": [1, 1], "trainable": false, "kernel_constraint": null, "padding": "same", "kernel_initializer": {"config": {"mode": "fan_avg", "distribution": "uniform", "seed": null, "scale": 1.0}, "class_name": "VarianceScaling"}, "activation": "linear"}, "name": "conv2d_55", "class_name": "Conv2D", "inbound_nodes": [[["mixed5", 0, 0, {}]]]}, {"config": {"name": "batch_normalization_55", "center": true, "gamma_initializer": {"config": {}, "class_name": "Ones"}, "moving_mean_initializer": {"config": {}, "class_name": "Zeros"}, "beta_initializer": {"config": {}, "class_name": "Zeros"}, "scale": false, "axis": 3, "beta_regularizer": null, "gamma_constraint": null, "gamma_regularizer": null, "momentum": 0.99, "trainable": false, "epsilon": 0.001, "beta_constraint": null, "moving_variance_initializer": {"config": {}, "class_name": "Ones"}}, "name": "batch_normalization_55", "class_name": "BatchNormalization", "inbound_nodes": [[["conv2d_55", 0, 0, {}]]]}, {"config": {"name": "activation_55", "trainable": false, "activation": "relu"}, "name": "activation_55", "class_name": "Activation", "inbound_nodes": [[["batch_normalization_55", 0, 0, {}]]]}, {"config": {"name": "conv2d_56", "kernel_regularizer": null, "use_bias": false, "dilation_rate": [1, 1], "data_format": "channels_last", "filters": 160, "bias_constraint": null, "activity_regularizer": null, "bias_initializer": {"config": {}, "class_name": "Zeros"}, "bias_regularizer": null, "strides": [1, 1], "kernel_size": [7, 1], "trainable": false, "kernel_constraint": null, "padding": "same", "kernel_initializer": {"config": {"mode": "fan_avg", "distribution": "uniform", "seed": null, "scale": 1.0}, "class_name": "VarianceScaling"}, "activation": "linear"}, "name": "conv2d_56", "class_name": "Conv2D", "inbound_nodes": [[["activation_55", 0, 0, {}]]]}, {"config": {"name": "batch_normalization_56", "center": true, "gamma_initializer": {"config": {}, "class_name": "Ones"}, "moving_mean_initializer": {"config": {}, "class_name": "Zeros"}, "beta_initializer": {"config": {}, "class_name": "Zeros"}, "scale": false, "axis": 3, "beta_regularizer": null, "gamma_constraint": null, "gamma_regularizer": null, "momentum": 0.99, "trainable": false, "epsilon": 0.001, "beta_constraint": null, "moving_variance_initializer": {"config": {}, "class_name": "Ones"}}, "name": "batch_normalization_56", "class_name": "BatchNormalization", "inbound_nodes": [[["conv2d_56", 0, 0, {}]]]}, {"config": {"name": "activation_56", "trainable": false, "activation": "relu"}, "name": "activation_56", "class_name": "Activation", "inbound_nodes": [[["batch_normalization_56", 0, 0, {}]]]}, {"config": {"name": "conv2d_52", "kernel_regularizer": null, "use_bias": false, "dilation_rate": [1, 1], "data_format": "channels_last", "filters": 160, "bias_constraint": null, "activity_regularizer": null, "bias_initializer": {"config": {}, "class_name": "Zeros"}, "bias_regularizer": null, "strides": [1, 1], "kernel_size": [1, 1], "trainable": false, "kernel_constraint": null, "padding": "same", "kernel_initializer": {"config": {"mode": "fan_avg", "distribution": "uniform", "seed": null, "scale": 1.0}, "class_name": "VarianceScaling"}, "activation": "linear"}, "name": "conv2d_52", "class_name": "Conv2D", "inbound_nodes": [[["mixed5", 0, 0, {}]]]}, {"config": {"name": "conv2d_57", "kernel_regularizer": null, "use_bias": false, "dilation_rate": [1, 1], "data_format": "channels_last", "filters": 160, "bias_constraint": null, "activity_regularizer": null, "bias_initializer": {"config": {}, "class_name": "Zeros"}, "bias_regularizer": null, "strides": [1, 1], "kernel_size": [1, 7], "trainable": false, "kernel_constraint": null, "padding": "same", "kernel_initializer": {"config": {"mode": "fan_avg", "distribution": "uniform", "seed": null, "scale": 1.0}, "class_name": "VarianceScaling"}, "activation": "linear"}, "name": "conv2d_57", "class_name": "Conv2D", "inbound_nodes": [[["activation_56", 0, 0, {}]]]}, {"config": {"name": "batch_normalization_52", "center": true, "gamma_initializer": {"config": {}, "class_name": "Ones"}, "moving_mean_initializer": {"config": {}, "class_name": "Zeros"}, "beta_initializer": {"config": {}, "class_name": "Zeros"}, "scale": false, "axis": 3, "beta_regularizer": null, "gamma_constraint": null, "gamma_regularizer": null, "momentum": 0.99, "trainable": false, "epsilon": 0.001, "beta_constraint": null, "moving_variance_initializer": {"config": {}, "class_name": "Ones"}}, "name": "batch_normalization_52", "class_name": "BatchNormalization", "inbound_nodes": [[["conv2d_52", 0, 0, {}]]]}, {"config": {"name": "batch_normalization_57", "center": true, "gamma_initializer": {"config": {}, "class_name": "Ones"}, "moving_mean_initializer": {"config": {}, "class_name": "Zeros"}, "beta_initializer": {"config": {}, "class_name": "Zeros"}, "scale": false, "axis": 3, "beta_regularizer": null, "gamma_constraint": null, "gamma_regularizer": null, "momentum": 0.99, "trainable": false, "epsilon": 0.001, "beta_constraint": null, "moving_variance_initializer": {"config": {}, "class_name": "Ones"}}, "name": "batch_normalization_57", "class_name": "BatchNormalization", "inbound_nodes": [[["conv2d_57", 0, 0, {}]]]}, {"config": {"name": "activation_52", "trainable": false, "activation": "relu"}, "name": "activation_52", "class_name": "Activation", "inbound_nodes": [[["batch_normalization_52", 0, 0, {}]]]}, {"config": {"name": "activation_57", "trainable": false, "activation": "relu"}, "name": "activation_57", "class_name": "Activation", "inbound_nodes": [[["batch_normalization_57", 0, 0, {}]]]}, {"config": {"name": "conv2d_53", "kernel_regularizer": null, "use_bias": false, "dilation_rate": [1, 1], "data_format": "channels_last", "filters": 160, "bias_constraint": null, "activity_regularizer": null, "bias_initializer": {"config": {}, "class_name": "Zeros"}, "bias_regularizer": null, "strides": [1, 1], "kernel_size": [1, 7], "trainable": false, "kernel_constraint": null, "padding": "same", "kernel_initializer": {"config": {"mode": "fan_avg", "distribution": "uniform", "seed": null, "scale": 1.0}, "class_name": "VarianceScaling"}, "activation": "linear"}, "name": "conv2d_53", "class_name": "Conv2D", "inbound_nodes": [[["activation_52", 0, 0, {}]]]}, {"config": {"name": "conv2d_58", "kernel_regularizer": null, "use_bias": false, "dilation_rate": [1, 1], "data_format": "channels_last", "filters": 160, "bias_constraint": null, "activity_regularizer": null, "bias_initializer": {"config": {}, "class_name": "Zeros"}, "bias_regularizer": null, "strides": [1, 1], "kernel_size": [7, 1], "trainable": false, "kernel_constraint": null, "padding": "same", "kernel_initializer": {"config": {"mode": "fan_avg", "distribution": "uniform", "seed": null, "scale": 1.0}, "class_name": "VarianceScaling"}, "activation": "linear"}, "name": "conv2d_58", "class_name": "Conv2D", "inbound_nodes": [[["activation_57", 0, 0, {}]]]}, {"config": {"name": "batch_normalization_53", "center": true, "gamma_initializer": {"config": {}, "class_name": "Ones"}, "moving_mean_initializer": {"config": {}, "class_name": "Zeros"}, "beta_initializer": {"config": {}, "class_name": "Zeros"}, "scale": false, "axis": 3, "beta_regularizer": null, "gamma_constraint": null, "gamma_regularizer": null, "momentum": 0.99, "trainable": false, "epsilon": 0.001, "beta_constraint": null, "moving_variance_initializer": {"config": {}, "class_name": "Ones"}}, "name": "batch_normalization_53", "class_name": "BatchNormalization", "inbound_nodes": [[["conv2d_53", 0, 0, {}]]]}, {"config": {"name": "batch_normalization_58", "center": true, "gamma_initializer": {"config": {}, "class_name": "Ones"}, "moving_mean_initializer": {"config": {}, "class_name": "Zeros"}, "beta_initializer": {"config": {}, "class_name": "Zeros"}, "scale": false, "axis": 3, "beta_regularizer": null, "gamma_constraint": null, "gamma_regularizer": null, "momentum": 0.99, "trainable": false, "epsilon": 0.001, "beta_constraint": null, "moving_variance_initializer": {"config": {}, "class_name": "Ones"}}, "name": "batch_normalization_58", "class_name": "BatchNormalization", "inbound_nodes": [[["conv2d_58", 0, 0, {}]]]}, {"config": {"name": "activation_53", "trainable": false, "activation": "relu"}, "name": "activation_53", "class_name": "Activation", "inbound_nodes": [[["batch_normalization_53", 0, 0, {}]]]}, {"config": {"name": "activation_58", "trainable": false, "activation": "relu"}, "name": "activation_58", "class_name": "Activation", "inbound_nodes": [[["batch_normalization_58", 0, 0, {}]]]}, {"config": {"name": "average_pooling2d_6", "strides": [1, 1], "trainable": false, "data_format": "channels_last", "padding": "same", "pool_size": [3, 3]}, "name": "average_pooling2d_6", "class_name": "AveragePooling2D", "inbound_nodes": [[["mixed5", 0, 0, {}]]]}, {"config": {"name": "conv2d_51", "kernel_regularizer": null, "use_bias": false, "dilation_rate": [1, 1], "data_format": "channels_last", "filters": 192, "bias_constraint": null, "activity_regularizer": null, "bias_initializer": {"config": {}, "class_name": "Zeros"}, "bias_regularizer": null, "strides": [1, 1], "kernel_size": [1, 1], "trainable": false, "kernel_constraint": null, "padding": "same", "kernel_initializer": {"config": {"mode": "fan_avg", "distribution": "uniform", "seed": null, "scale": 1.0}, "class_name": "VarianceScaling"}, "activation": "linear"}, "name": "conv2d_51", "class_name": "Conv2D", "inbound_nodes": [[["mixed5", 0, 0, {}]]]}, {"config": {"name": "conv2d_54", "kernel_regularizer": null, "use_bias": false, "dilation_rate": [1, 1], "data_format": "channels_last", "filters": 192, "bias_constraint": null, "activity_regularizer": null, "bias_initializer": {"config": {}, "class_name": "Zeros"}, "bias_regularizer": null, "strides": [1, 1], "kernel_size": [7, 1], "trainable": false, "kernel_constraint": null, "padding": "same", "kernel_initializer": {"config": {"mode": "fan_avg", "distribution": "uniform", "seed": null, "scale": 1.0}, "class_name": "VarianceScaling"}, "activation": "linear"}, "name": "conv2d_54", "class_name": "Conv2D", "inbound_nodes": [[["activation_53", 0, 0, {}]]]}, {"config": {"name": "conv2d_59", "kernel_regularizer": null, "use_bias": false, "dilation_rate": [1, 1], "data_format": "channels_last", "filters": 192, "bias_constraint": null, "activity_regularizer": null, "bias_initializer": {"config": {}, "class_name": "Zeros"}, "bias_regularizer": null, "strides": [1, 1], "kernel_size": [1, 7], "trainable": false, "kernel_constraint": null, "padding": "same", "kernel_initializer": {"config": {"mode": "fan_avg", "distribution": "uniform", "seed": null, "scale": 1.0}, "class_name": "VarianceScaling"}, "activation": "linear"}, "name": "conv2d_59", "class_name": "Conv2D", "inbound_nodes": [[["activation_58", 0, 0, {}]]]}, {"config": {"name": "conv2d_60", "kernel_regularizer": null, "use_bias": false, "dilation_rate": [1, 1], "data_format": "channels_last", "filters": 192, "bias_constraint": null, "activity_regularizer": null, "bias_initializer": {"config": {}, "class_name": "Zeros"}, "bias_regularizer": null, "strides": [1, 1], "kernel_size": [1, 1], "trainable": false, "kernel_constraint": null, "padding": "same", "kernel_initializer": {"config": {"mode": "fan_avg", "distribution": "uniform", "seed": null, "scale": 1.0}, "class_name": "VarianceScaling"}, "activation": "linear"}, "name": "conv2d_60", "class_name": "Conv2D", "inbound_nodes": [[["average_pooling2d_6", 0, 0, {}]]]}, {"config": {"name": "batch_normalization_51", "center": true, "gamma_initializer": {"config": {}, "class_name": "Ones"}, "moving_mean_initializer": {"config": {}, "class_name": "Zeros"}, "beta_initializer": {"config": {}, "class_name": "Zeros"}, "scale": false, "axis": 3, "beta_regularizer": null, "gamma_constraint": null, "gamma_regularizer": null, "momentum": 0.99, "trainable": false, "epsilon": 0.001, "beta_constraint": null, "moving_variance_initializer": {"config": {}, "class_name": "Ones"}}, "name": "batch_normalization_51", "class_name": "BatchNormalization", "inbound_nodes": [[["conv2d_51", 0, 0, {}]]]}, {"config": {"name": "batch_normalization_54", "center": true, "gamma_initializer": {"config": {}, "class_name": "Ones"}, "moving_mean_initializer": {"config": {}, "class_name": "Zeros"}, "beta_initializer": {"config": {}, "class_name": "Zeros"}, "scale": false, "axis": 3, "beta_regularizer": null, "gamma_constraint": null, "gamma_regularizer": null, "momentum": 0.99, "trainable": false, "epsilon": 0.001, "beta_constraint": null, "moving_variance_initializer": {"config": {}, "class_name": "Ones"}}, "name": "batch_normalization_54", "class_name": "BatchNormalization", "inbound_nodes": [[["conv2d_54", 0, 0, {}]]]}, {"config": {"name": "batch_normalization_59", "center": true, "gamma_initializer": {"config": {}, "class_name": "Ones"}, "moving_mean_initializer": {"config": {}, "class_name": "Zeros"}, "beta_initializer": {"config": {}, "class_name": "Zeros"}, "scale": false, "axis": 3, "beta_regularizer": null, "gamma_constraint": null, "gamma_regularizer": null, "momentum": 0.99, "trainable": false, "epsilon": 0.001, "beta_constraint": null, "moving_variance_initializer": {"config": {}, "class_name": "Ones"}}, "name": "batch_normalization_59", "class_name": "BatchNormalization", "inbound_nodes": [[["conv2d_59", 0, 0, {}]]]}, {"config": {"name": "batch_normalization_60", "center": true, "gamma_initializer": {"config": {}, "class_name": "Ones"}, "moving_mean_initializer": {"config": {}, "class_name": "Zeros"}, "beta_initializer": {"config": {}, "class_name": "Zeros"}, "scale": false, "axis": 3, "beta_regularizer": null, "gamma_constraint": null, "gamma_regularizer": null, "momentum": 0.99, "trainable": false, "epsilon": 0.001, "beta_constraint": null, "moving_variance_initializer": {"config": {}, "class_name": "Ones"}}, "name": "batch_normalization_60", "class_name": "BatchNormalization", "inbound_nodes": [[["conv2d_60", 0, 0, {}]]]}, {"config": {"name": "activation_51", "trainable": false, "activation": "relu"}, "name": "activation_51", "class_name": "Activation", "inbound_nodes": [[["batch_normalization_51", 0, 0, {}]]]}, {"config": {"name": "activation_54", "trainable": false, "activation": "relu"}, "name": "activation_54", "class_name": "Activation", "inbound_nodes": [[["batch_normalization_54", 0, 0, {}]]]}, {"config": {"name": "activation_59", "trainable": false, "activation": "relu"}, "name": "activation_59", "class_name": "Activation", "inbound_nodes": [[["batch_normalization_59", 0, 0, {}]]]}, {"config": {"name": "activation_60", "trainable": false, "activation": "relu"}, "name": "activation_60", "class_name": "Activation", "inbound_nodes": [[["batch_normalization_60", 0, 0, {}]]]}, {"config": {"name": "mixed6", "axis": 3, "trainable": false}, "name": "mixed6", "class_name": "Concatenate", "inbound_nodes": [[["activation_51", 0, 0, {}], ["activation_54", 0, 0, {}], ["activation_59", 0, 0, {}], ["activation_60", 0, 0, {}]]]}, {"config": {"name": "conv2d_65", "kernel_regularizer": null, "use_bias": false, "dilation_rate": [1, 1], "data_format": "channels_last", "filters": 192, "bias_constraint": null, "activity_regularizer": null, "bias_initializer": {"config": {}, "class_name": "Zeros"}, "bias_regularizer": null, "strides": [1, 1], "kernel_size": [1, 1], "trainable": false, "kernel_constraint": null, "padding": "same", "kernel_initializer": {"config": {"mode": "fan_avg", "distribution": "uniform", "seed": null, "scale": 1.0}, "class_name": "VarianceScaling"}, "activation": "linear"}, "name": "conv2d_65", "class_name": "Conv2D", "inbound_nodes": [[["mixed6", 0, 0, {}]]]}, {"config": {"name": "batch_normalization_65", "center": true, "gamma_initializer": {"config": {}, "class_name": "Ones"}, "moving_mean_initializer": {"config": {}, "class_name": "Zeros"}, "beta_initializer": {"config": {}, "class_name": "Zeros"}, "scale": false, "axis": 3, "beta_regularizer": null, "gamma_constraint": null, "gamma_regularizer": null, "momentum": 0.99, "trainable": false, "epsilon": 0.001, "beta_constraint": null, "moving_variance_initializer": {"config": {}, "class_name": "Ones"}}, "name": "batch_normalization_65", "class_name": "BatchNormalization", "inbound_nodes": [[["conv2d_65", 0, 0, {}]]]}, {"config": {"name": "activation_65", "trainable": false, "activation": "relu"}, "name": "activation_65", "class_name": "Activation", "inbound_nodes": [[["batch_normalization_65", 0, 0, {}]]]}, {"config": {"name": "conv2d_66", "kernel_regularizer": null, "use_bias": false, "dilation_rate": [1, 1], "data_format": "channels_last", "filters": 192, "bias_constraint": null, "activity_regularizer": null, "bias_initializer": {"config": {}, "class_name": "Zeros"}, "bias_regularizer": null, "strides": [1, 1], "kernel_size": [7, 1], "trainable": false, "kernel_constraint": null, "padding": "same", "kernel_initializer": {"config": {"mode": "fan_avg", "distribution": "uniform", "seed": null, "scale": 1.0}, "class_name": "VarianceScaling"}, "activation": "linear"}, "name": "conv2d_66", "class_name": "Conv2D", "inbound_nodes": [[["activation_65", 0, 0, {}]]]}, {"config": {"name": "batch_normalization_66", "center": true, "gamma_initializer": {"config": {}, "class_name": "Ones"}, "moving_mean_initializer": {"config": {}, "class_name": "Zeros"}, "beta_initializer": {"config": {}, "class_name": "Zeros"}, "scale": false, "axis": 3, "beta_regularizer": null, "gamma_constraint": null, "gamma_regularizer": null, "momentum": 0.99, "trainable": false, "epsilon": 0.001, "beta_constraint": null, "moving_variance_initializer": {"config": {}, "class_name": "Ones"}}, "name": "batch_normalization_66", "class_name": "BatchNormalization", "inbound_nodes": [[["conv2d_66", 0, 0, {}]]]}, {"config": {"name": "activation_66", "trainable": false, "activation": "relu"}, "name": "activation_66", "class_name": "Activation", "inbound_nodes": [[["batch_normalization_66", 0, 0, {}]]]}, {"config": {"name": "conv2d_62", "kernel_regularizer": null, "use_bias": false, "dilation_rate": [1, 1], "data_format": "channels_last", "filters": 192, "bias_constraint": null, "activity_regularizer": null, "bias_initializer": {"config": {}, "class_name": "Zeros"}, "bias_regularizer": null, "strides": [1, 1], "kernel_size": [1, 1], "trainable": false, "kernel_constraint": null, "padding": "same", "kernel_initializer": {"config": {"mode": "fan_avg", "distribution": "uniform", "seed": null, "scale": 1.0}, "class_name": "VarianceScaling"}, "activation": "linear"}, "name": "conv2d_62", "class_name": "Conv2D", "inbound_nodes": [[["mixed6", 0, 0, {}]]]}, {"config": {"name": "conv2d_67", "kernel_regularizer": null, "use_bias": false, "dilation_rate": [1, 1], "data_format": "channels_last", "filters": 192, "bias_constraint": null, "activity_regularizer": null, "bias_initializer": {"config": {}, "class_name": "Zeros"}, "bias_regularizer": null, "strides": [1, 1], "kernel_size": [1, 7], "trainable": false, "kernel_constraint": null, "padding": "same", "kernel_initializer": {"config": {"mode": "fan_avg", "distribution": "uniform", "seed": null, "scale": 1.0}, "class_name": "VarianceScaling"}, "activation": "linear"}, "name": "conv2d_67", "class_name": "Conv2D", "inbound_nodes": [[["activation_66", 0, 0, {}]]]}, {"config": {"name": "batch_normalization_62", "center": true, "gamma_initializer": {"config": {}, "class_name": "Ones"}, "moving_mean_initializer": {"config": {}, "class_name": "Zeros"}, "beta_initializer": {"config": {}, "class_name": "Zeros"}, "scale": false, "axis": 3, "beta_regularizer": null, "gamma_constraint": null, "gamma_regularizer": null, "momentum": 0.99, "trainable": false, "epsilon": 0.001, "beta_constraint": null, "moving_variance_initializer": {"config": {}, "class_name": "Ones"}}, "name": "batch_normalization_62", "class_name": "BatchNormalization", "inbound_nodes": [[["conv2d_62", 0, 0, {}]]]}, {"config": {"name": "batch_normalization_67", "center": true, "gamma_initializer": {"config": {}, "class_name": "Ones"}, "moving_mean_initializer": {"config": {}, "class_name": "Zeros"}, "beta_initializer": {"config": {}, "class_name": "Zeros"}, "scale": false, "axis": 3, "beta_regularizer": null, "gamma_constraint": null, "gamma_regularizer": null, "momentum": 0.99, "trainable": false, "epsilon": 0.001, "beta_constraint": null, "moving_variance_initializer": {"config": {}, "class_name": "Ones"}}, "name": "batch_normalization_67", "class_name": "BatchNormalization", "inbound_nodes": [[["conv2d_67", 0, 0, {}]]]}, {"config": {"name": "activation_62", "trainable": false, "activation": "relu"}, "name": "activation_62", "class_name": "Activation", "inbound_nodes": [[["batch_normalization_62", 0, 0, {}]]]}, {"config": {"name": "activation_67", "trainable": false, "activation": "relu"}, "name": "activation_67", "class_name": "Activation", "inbound_nodes": [[["batch_normalization_67", 0, 0, {}]]]}, {"config": {"name": "conv2d_63", "kernel_regularizer": null, "use_bias": false, "dilation_rate": [1, 1], "data_format": "channels_last", "filters": 192, "bias_constraint": null, "activity_regularizer": null, "bias_initializer": {"config": {}, "class_name": "Zeros"}, "bias_regularizer": null, "strides": [1, 1], "kernel_size": [1, 7], "trainable": false, "kernel_constraint": null, "padding": "same", "kernel_initializer": {"config": {"mode": "fan_avg", "distribution": "uniform", "seed": null, "scale": 1.0}, "class_name": "VarianceScaling"}, "activation": "linear"}, "name": "conv2d_63", "class_name": "Conv2D", "inbound_nodes": [[["activation_62", 0, 0, {}]]]}, {"config": {"name": "conv2d_68", "kernel_regularizer": null, "use_bias": false, "dilation_rate": [1, 1], "data_format": "channels_last", "filters": 192, "bias_constraint": null, "activity_regularizer": null, "bias_initializer": {"config": {}, "class_name": "Zeros"}, "bias_regularizer": null, "strides": [1, 1], "kernel_size": [7, 1], "trainable": false, "kernel_constraint": null, "padding": "same", "kernel_initializer": {"config": {"mode": "fan_avg", "distribution": "uniform", "seed": null, "scale": 1.0}, "class_name": "VarianceScaling"}, "activation": "linear"}, "name": "conv2d_68", "class_name": "Conv2D", "inbound_nodes": [[["activation_67", 0, 0, {}]]]}, {"config": {"name": "batch_normalization_63", "center": true, "gamma_initializer": {"config": {}, "class_name": "Ones"}, "moving_mean_initializer": {"config": {}, "class_name": "Zeros"}, "beta_initializer": {"config": {}, "class_name": "Zeros"}, "scale": false, "axis": 3, "beta_regularizer": null, "gamma_constraint": null, "gamma_regularizer": null, "momentum": 0.99, "trainable": false, "epsilon": 0.001, "beta_constraint": null, "moving_variance_initializer": {"config": {}, "class_name": "Ones"}}, "name": "batch_normalization_63", "class_name": "BatchNormalization", "inbound_nodes": [[["conv2d_63", 0, 0, {}]]]}, {"config": {"name": "batch_normalization_68", "center": true, "gamma_initializer": {"config": {}, "class_name": "Ones"}, "moving_mean_initializer": {"config": {}, "class_name": "Zeros"}, "beta_initializer": {"config": {}, "class_name": "Zeros"}, "scale": false, "axis": 3, "beta_regularizer": null, "gamma_constraint": null, "gamma_regularizer": null, "momentum": 0.99, "trainable": false, "epsilon": 0.001, "beta_constraint": null, "moving_variance_initializer": {"config": {}, "class_name": "Ones"}}, "name": "batch_normalization_68", "class_name": "BatchNormalization", "inbound_nodes": [[["conv2d_68", 0, 0, {}]]]}, {"config": {"name": "activation_63", "trainable": false, "activation": "relu"}, "name": "activation_63", "class_name": "Activation", "inbound_nodes": [[["batch_normalization_63", 0, 0, {}]]]}, {"config": {"name": "activation_68", "trainable": false, "activation": "relu"}, "name": "activation_68", "class_name": "Activation", "inbound_nodes": [[["batch_normalization_68", 0, 0, {}]]]}, {"config": {"name": "average_pooling2d_7", "strides": [1, 1], "trainable": false, "data_format": "channels_last", "padding": "same", "pool_size": [3, 3]}, "name": "average_pooling2d_7", "class_name": "AveragePooling2D", "inbound_nodes": [[["mixed6", 0, 0, {}]]]}, {"config": {"name": "conv2d_61", "kernel_regularizer": null, "use_bias": false, "dilation_rate": [1, 1], "data_format": "channels_last", "filters": 192, "bias_constraint": null, "activity_regularizer": null, "bias_initializer": {"config": {}, "class_name": "Zeros"}, "bias_regularizer": null, "strides": [1, 1], "kernel_size": [1, 1], "trainable": false, "kernel_constraint": null, "padding": "same", "kernel_initializer": {"config": {"mode": "fan_avg", "distribution": "uniform", "seed": null, "scale": 1.0}, "class_name": "VarianceScaling"}, "activation": "linear"}, "name": "conv2d_61", "class_name": "Conv2D", "inbound_nodes": [[["mixed6", 0, 0, {}]]]}, {"config": {"name": "conv2d_64", "kernel_regularizer": null, "use_bias": false, "dilation_rate": [1, 1], "data_format": "channels_last", "filters": 192, "bias_constraint": null, "activity_regularizer": null, "bias_initializer": {"config": {}, "class_name": "Zeros"}, "bias_regularizer": null, "strides": [1, 1], "kernel_size": [7, 1], "trainable": false, "kernel_constraint": null, "padding": "same", "kernel_initializer": {"config": {"mode": "fan_avg", "distribution": "uniform", "seed": null, "scale": 1.0}, "class_name": "VarianceScaling"}, "activation": "linear"}, "name": "conv2d_64", "class_name": "Conv2D", "inbound_nodes": [[["activation_63", 0, 0, {}]]]}, {"config": {"name": "conv2d_69", "kernel_regularizer": null, "use_bias": false, "dilation_rate": [1, 1], "data_format": "channels_last", "filters": 192, "bias_constraint": null, "activity_regularizer": null, "bias_initializer": {"config": {}, "class_name": "Zeros"}, "bias_regularizer": null, "strides": [1, 1], "kernel_size": [1, 7], "trainable": false, "kernel_constraint": null, "padding": "same", "kernel_initializer": {"config": {"mode": "fan_avg", "distribution": "uniform", "seed": null, "scale": 1.0}, "class_name": "VarianceScaling"}, "activation": "linear"}, "name": "conv2d_69", "class_name": "Conv2D", "inbound_nodes": [[["activation_68", 0, 0, {}]]]}, {"config": {"name": "conv2d_70", "kernel_regularizer": null, "use_bias": false, "dilation_rate": [1, 1], "data_format": "channels_last", "filters": 192, "bias_constraint": null, "activity_regularizer": null, "bias_initializer": {"config": {}, "class_name": "Zeros"}, "bias_regularizer": null, "strides": [1, 1], "kernel_size": [1, 1], "trainable": false, "kernel_constraint": null, "padding": "same", "kernel_initializer": {"config": {"mode": "fan_avg", "distribution": "uniform", "seed": null, "scale": 1.0}, "class_name": "VarianceScaling"}, "activation": "linear"}, "name": "conv2d_70", "class_name": "Conv2D", "inbound_nodes": [[["average_pooling2d_7", 0, 0, {}]]]}, {"config": {"name": "batch_normalization_61", "center": true, "gamma_initializer": {"config": {}, "class_name": "Ones"}, "moving_mean_initializer": {"config": {}, "class_name": "Zeros"}, "beta_initializer": {"config": {}, "class_name": "Zeros"}, "scale": false, "axis": 3, "beta_regularizer": null, "gamma_constraint": null, "gamma_regularizer": null, "momentum": 0.99, "trainable": false, "epsilon": 0.001, "beta_constraint": null, "moving_variance_initializer": {"config": {}, "class_name": "Ones"}}, "name": "batch_normalization_61", "class_name": "BatchNormalization", "inbound_nodes": [[["conv2d_61", 0, 0, {}]]]}, {"config": {"name": "batch_normalization_64", "center": true, "gamma_initializer": {"config": {}, "class_name": "Ones"}, "moving_mean_initializer": {"config": {}, "class_name": "Zeros"}, "beta_initializer": {"config": {}, "class_name": "Zeros"}, "scale": false, "axis": 3, "beta_regularizer": null, "gamma_constraint": null, "gamma_regularizer": null, "momentum": 0.99, "trainable": false, "epsilon": 0.001, "beta_constraint": null, "moving_variance_initializer": {"config": {}, "class_name": "Ones"}}, "name": "batch_normalization_64", "class_name": "BatchNormalization", "inbound_nodes": [[["conv2d_64", 0, 0, {}]]]}, {"config": {"name": "batch_normalization_69", "center": true, "gamma_initializer": {"config": {}, "class_name": "Ones"}, "moving_mean_initializer": {"config": {}, "class_name": "Zeros"}, "beta_initializer": {"config": {}, "class_name": "Zeros"}, "scale": false, "axis": 3, "beta_regularizer": null, "gamma_constraint": null, "gamma_regularizer": null, "momentum": 0.99, "trainable": false, "epsilon": 0.001, "beta_constraint": null, "moving_variance_initializer": {"config": {}, "class_name": "Ones"}}, "name": "batch_normalization_69", "class_name": "BatchNormalization", "inbound_nodes": [[["conv2d_69", 0, 0, {}]]]}, {"config": {"name": "batch_normalization_70", "center": true, "gamma_initializer": {"config": {}, "class_name": "Ones"}, "moving_mean_initializer": {"config": {}, "class_name": "Zeros"}, "beta_initializer": {"config": {}, "class_name": "Zeros"}, "scale": false, "axis": 3, "beta_regularizer": null, "gamma_constraint": null, "gamma_regularizer": null, "momentum": 0.99, "trainable": false, "epsilon": 0.001, "beta_constraint": null, "moving_variance_initializer": {"config": {}, "class_name": "Ones"}}, "name": "batch_normalization_70", "class_name": "BatchNormalization", "inbound_nodes": [[["conv2d_70", 0, 0, {}]]]}, {"config": {"name": "activation_61", "trainable": false, "activation": "relu"}, "name": "activation_61", "class_name": "Activation", "inbound_nodes": [[["batch_normalization_61", 0, 0, {}]]]}, {"config": {"name": "activation_64", "trainable": false, "activation": "relu"}, "name": "activation_64", "class_name": "Activation", "inbound_nodes": [[["batch_normalization_64", 0, 0, {}]]]}, {"config": {"name": "activation_69", "trainable": false, "activation": "relu"}, "name": "activation_69", "class_name": "Activation", "inbound_nodes": [[["batch_normalization_69", 0, 0, {}]]]}, {"config": {"name": "activation_70", "trainable": false, "activation": "relu"}, "name": "activation_70", "class_name": "Activation", "inbound_nodes": [[["batch_normalization_70", 0, 0, {}]]]}, {"config": {"name": "mixed7", "axis": 3, "trainable": false}, "name": "mixed7", "class_name": "Concatenate", "inbound_nodes": [[["activation_61", 0, 0, {}], ["activation_64", 0, 0, {}], ["activation_69", 0, 0, {}], ["activation_70", 0, 0, {}]]]}, {"config": {"name": "conv2d_73", "kernel_regularizer": null, "use_bias": false, "dilation_rate": [1, 1], "data_format": "channels_last", "filters": 192, "bias_constraint": null, "activity_regularizer": null, "bias_initializer": {"config": {}, "class_name": "Zeros"}, "bias_regularizer": null, "strides": [1, 1], "kernel_size": [1, 1], "trainable": false, "kernel_constraint": null, "padding": "same", "kernel_initializer": {"config": {"mode": "fan_avg", "distribution": "uniform", "seed": null, "scale": 1.0}, "class_name": "VarianceScaling"}, "activation": "linear"}, "name": "conv2d_73", "class_name": "Conv2D", "inbound_nodes": [[["mixed7", 0, 0, {}]]]}, {"config": {"name": "batch_normalization_73", "center": true, "gamma_initializer": {"config": {}, "class_name": "Ones"}, "moving_mean_initializer": {"config": {}, "class_name": "Zeros"}, "beta_initializer": {"config": {}, "class_name": "Zeros"}, "scale": false, "axis": 3, "beta_regularizer": null, "gamma_constraint": null, "gamma_regularizer": null, "momentum": 0.99, "trainable": false, "epsilon": 0.001, "beta_constraint": null, "moving_variance_initializer": {"config": {}, "class_name": "Ones"}}, "name": "batch_normalization_73", "class_name": "BatchNormalization", "inbound_nodes": [[["conv2d_73", 0, 0, {}]]]}, {"config": {"name": "activation_73", "trainable": false, "activation": "relu"}, "name": "activation_73", "class_name": "Activation", "inbound_nodes": [[["batch_normalization_73", 0, 0, {}]]]}, {"config": {"name": "conv2d_74", "kernel_regularizer": null, "use_bias": false, "dilation_rate": [1, 1], "data_format": "channels_last", "filters": 192, "bias_constraint": null, "activity_regularizer": null, "bias_initializer": {"config": {}, "class_name": "Zeros"}, "bias_regularizer": null, "strides": [1, 1], "kernel_size": [1, 7], "trainable": false, "kernel_constraint": null, "padding": "same", "kernel_initializer": {"config": {"mode": "fan_avg", "distribution": "uniform", "seed": null, "scale": 1.0}, "class_name": "VarianceScaling"}, "activation": "linear"}, "name": "conv2d_74", "class_name": "Conv2D", "inbound_nodes": [[["activation_73", 0, 0, {}]]]}, {"config": {"name": "batch_normalization_74", "center": true, "gamma_initializer": {"config": {}, "class_name": "Ones"}, "moving_mean_initializer": {"config": {}, "class_name": "Zeros"}, "beta_initializer": {"config": {}, "class_name": "Zeros"}, "scale": false, "axis": 3, "beta_regularizer": null, "gamma_constraint": null, "gamma_regularizer": null, "momentum": 0.99, "trainable": false, "epsilon": 0.001, "beta_constraint": null, "moving_variance_initializer": {"config": {}, "class_name": "Ones"}}, "name": "batch_normalization_74", "class_name": "BatchNormalization", "inbound_nodes": [[["conv2d_74", 0, 0, {}]]]}, {"config": {"name": "activation_74", "trainable": false, "activation": "relu"}, "name": "activation_74", "class_name": "Activation", "inbound_nodes": [[["batch_normalization_74", 0, 0, {}]]]}, {"config": {"name": "conv2d_71", "kernel_regularizer": null, "use_bias": false, "dilation_rate": [1, 1], "data_format": "channels_last", "filters": 192, "bias_constraint": null, "activity_regularizer": null, "bias_initializer": {"config": {}, "class_name": "Zeros"}, "bias_regularizer": null, "strides": [1, 1], "kernel_size": [1, 1], "trainable": false, "kernel_constraint": null, "padding": "same", "kernel_initializer": {"config": {"mode": "fan_avg", "distribution": "uniform", "seed": null, "scale": 1.0}, "class_name": "VarianceScaling"}, "activation": "linear"}, "name": "conv2d_71", "class_name": "Conv2D", "inbound_nodes": [[["mixed7", 0, 0, {}]]]}, {"config": {"name": "conv2d_75", "kernel_regularizer": null, "use_bias": false, "dilation_rate": [1, 1], "data_format": "channels_last", "filters": 192, "bias_constraint": null, "activity_regularizer": null, "bias_initializer": {"config": {}, "class_name": "Zeros"}, "bias_regularizer": null, "strides": [1, 1], "kernel_size": [7, 1], "trainable": false, "kernel_constraint": null, "padding": "same", "kernel_initializer": {"config": {"mode": "fan_avg", "distribution": "uniform", "seed": null, "scale": 1.0}, "class_name": "VarianceScaling"}, "activation": "linear"}, "name": "conv2d_75", "class_name": "Conv2D", "inbound_nodes": [[["activation_74", 0, 0, {}]]]}, {"config": {"name": "batch_normalization_71", "center": true, "gamma_initializer": {"config": {}, "class_name": "Ones"}, "moving_mean_initializer": {"config": {}, "class_name": "Zeros"}, "beta_initializer": {"config": {}, "class_name": "Zeros"}, "scale": false, "axis": 3, "beta_regularizer": null, "gamma_constraint": null, "gamma_regularizer": null, "momentum": 0.99, "trainable": false, "epsilon": 0.001, "beta_constraint": null, "moving_variance_initializer": {"config": {}, "class_name": "Ones"}}, "name": "batch_normalization_71", "class_name": "BatchNormalization", "inbound_nodes": [[["conv2d_71", 0, 0, {}]]]}, {"config": {"name": "batch_normalization_75", "center": true, "gamma_initializer": {"config": {}, "class_name": "Ones"}, "moving_mean_initializer": {"config": {}, "class_name": "Zeros"}, "beta_initializer": {"config": {}, "class_name": "Zeros"}, "scale": false, "axis": 3, "beta_regularizer": null, "gamma_constraint": null, "gamma_regularizer": null, "momentum": 0.99, "trainable": false, "epsilon": 0.001, "beta_constraint": null, "moving_variance_initializer": {"config": {}, "class_name": "Ones"}}, "name": "batch_normalization_75", "class_name": "BatchNormalization", "inbound_nodes": [[["conv2d_75", 0, 0, {}]]]}, {"config": {"name": "activation_71", "trainable": false, "activation": "relu"}, "name": "activation_71", "class_name": "Activation", "inbound_nodes": [[["batch_normalization_71", 0, 0, {}]]]}, {"config": {"name": "activation_75", "trainable": false, "activation": "relu"}, "name": "activation_75", "class_name": "Activation", "inbound_nodes": [[["batch_normalization_75", 0, 0, {}]]]}, {"config": {"name": "conv2d_72", "kernel_regularizer": null, "use_bias": false, "dilation_rate": [1, 1], "data_format": "channels_last", "filters": 320, "bias_constraint": null, "activity_regularizer": null, "bias_initializer": {"config": {}, "class_name": "Zeros"}, "bias_regularizer": null, "strides": [2, 2], "kernel_size": [3, 3], "trainable": false, "kernel_constraint": null, "padding": "valid", "kernel_initializer": {"config": {"mode": "fan_avg", "distribution": "uniform", "seed": null, "scale": 1.0}, "class_name": "VarianceScaling"}, "activation": "linear"}, "name": "conv2d_72", "class_name": "Conv2D", "inbound_nodes": [[["activation_71", 0, 0, {}]]]}, {"config": {"name": "conv2d_76", "kernel_regularizer": null, "use_bias": false, "dilation_rate": [1, 1], "data_format": "channels_last", "filters": 192, "bias_constraint": null, "activity_regularizer": null, "bias_initializer": {"config": {}, "class_name": "Zeros"}, "bias_regularizer": null, "strides": [2, 2], "kernel_size": [3, 3], "trainable": false, "kernel_constraint": null, "padding": "valid", "kernel_initializer": {"config": {"mode": "fan_avg", "distribution": "uniform", "seed": null, "scale": 1.0}, "class_name": "VarianceScaling"}, "activation": "linear"}, "name": "conv2d_76", "class_name": "Conv2D", "inbound_nodes": [[["activation_75", 0, 0, {}]]]}, {"config": {"name": "batch_normalization_72", "center": true, "gamma_initializer": {"config": {}, "class_name": "Ones"}, "moving_mean_initializer": {"config": {}, "class_name": "Zeros"}, "beta_initializer": {"config": {}, "class_name": "Zeros"}, "scale": false, "axis": 3, "beta_regularizer": null, "gamma_constraint": null, "gamma_regularizer": null, "momentum": 0.99, "trainable": false, "epsilon": 0.001, "beta_constraint": null, "moving_variance_initializer": {"config": {}, "class_name": "Ones"}}, "name": "batch_normalization_72", "class_name": "BatchNormalization", "inbound_nodes": [[["conv2d_72", 0, 0, {}]]]}, {"config": {"name": "batch_normalization_76", "center": true, "gamma_initializer": {"config": {}, "class_name": "Ones"}, "moving_mean_initializer": {"config": {}, "class_name": "Zeros"}, "beta_initializer": {"config": {}, "class_name": "Zeros"}, "scale": false, "axis": 3, "beta_regularizer": null, "gamma_constraint": null, "gamma_regularizer": null, "momentum": 0.99, "trainable": false, "epsilon": 0.001, "beta_constraint": null, "moving_variance_initializer": {"config": {}, "class_name": "Ones"}}, "name": "batch_normalization_76", "class_name": "BatchNormalization", "inbound_nodes": [[["conv2d_76", 0, 0, {}]]]}, {"config": {"name": "activation_72", "trainable": false, "activation": "relu"}, "name": "activation_72", "class_name": "Activation", "inbound_nodes": [[["batch_normalization_72", 0, 0, {}]]]}, {"config": {"name": "activation_76", "trainable": false, "activation": "relu"}, "name": "activation_76", "class_name": "Activation", "inbound_nodes": [[["batch_normalization_76", 0, 0, {}]]]}, {"config": {"name": "max_pooling2d_4", "strides": [2, 2], "trainable": false, "data_format": "channels_last", "padding": "valid", "pool_size": [3, 3]}, "name": "max_pooling2d_4", "class_name": "MaxPooling2D", "inbound_nodes": [[["mixed7", 0, 0, {}]]]}, {"config": {"name": "mixed8", "axis": 3, "trainable": false}, "name": "mixed8", "class_name": "Concatenate", "inbound_nodes": [[["activation_72", 0, 0, {}], ["activation_76", 0, 0, {}], ["max_pooling2d_4", 0, 0, {}]]]}, {"config": {"name": "conv2d_81", "kernel_regularizer": null, "use_bias": false, "dilation_rate": [1, 1], "data_format": "channels_last", "filters": 448, "bias_constraint": null, "activity_regularizer": null, "bias_initializer": {"config": {}, "class_name": "Zeros"}, "bias_regularizer": null, "strides": [1, 1], "kernel_size": [1, 1], "trainable": true, "kernel_constraint": null, "padding": "same", "kernel_initializer": {"config": {"mode": "fan_avg", "distribution": "uniform", "seed": null, "scale": 1.0}, "class_name": "VarianceScaling"}, "activation": "linear"}, "name": "conv2d_81", "class_name": "Conv2D", "inbound_nodes": [[["mixed8", 0, 0, {}]]]}, {"config": {"name": "batch_normalization_81", "center": true, "gamma_initializer": {"config": {}, "class_name": "Ones"}, "moving_mean_initializer": {"config": {}, "class_name": "Zeros"}, "beta_initializer": {"config": {}, "class_name": "Zeros"}, "scale": false, "axis": 3, "beta_regularizer": null, "gamma_constraint": null, "gamma_regularizer": null, "momentum": 0.99, "trainable": true, "epsilon": 0.001, "beta_constraint": null, "moving_variance_initializer": {"config": {}, "class_name": "Ones"}}, "name": "batch_normalization_81", "class_name": "BatchNormalization", "inbound_nodes": [[["conv2d_81", 0, 0, {}]]]}, {"config": {"name": "activation_81", "trainable": true, "activation": "relu"}, "name": "activation_81", "class_name": "Activation", "inbound_nodes": [[["batch_normalization_81", 0, 0, {}]]]}, {"config": {"name": "conv2d_78", "kernel_regularizer": null, "use_bias": false, "dilation_rate": [1, 1], "data_format": "channels_last", "filters": 384, "bias_constraint": null, "activity_regularizer": null, "bias_initializer": {"config": {}, "class_name": "Zeros"}, "bias_regularizer": null, "strides": [1, 1], "kernel_size": [1, 1], "trainable": true, "kernel_constraint": null, "padding": "same", "kernel_initializer": {"config": {"mode": "fan_avg", "distribution": "uniform", "seed": null, "scale": 1.0}, "class_name": "VarianceScaling"}, "activation": "linear"}, "name": "conv2d_78", "class_name": "Conv2D", "inbound_nodes": [[["mixed8", 0, 0, {}]]]}, {"config": {"name": "conv2d_82", "kernel_regularizer": null, "use_bias": false, "dilation_rate": [1, 1], "data_format": "channels_last", "filters": 384, "bias_constraint": null, "activity_regularizer": null, "bias_initializer": {"config": {}, "class_name": "Zeros"}, "bias_regularizer": null, "strides": [1, 1], "kernel_size": [3, 3], "trainable": true, "kernel_constraint": null, "padding": "same", "kernel_initializer": {"config": {"mode": "fan_avg", "distribution": "uniform", "seed": null, "scale": 1.0}, "class_name": "VarianceScaling"}, "activation": "linear"}, "name": "conv2d_82", "class_name": "Conv2D", "inbound_nodes": [[["activation_81", 0, 0, {}]]]}, {"config": {"name": "batch_normalization_78", "center": true, "gamma_initializer": {"config": {}, "class_name": "Ones"}, "moving_mean_initializer": {"config": {}, "class_name": "Zeros"}, "beta_initializer": {"config": {}, "class_name": "Zeros"}, "scale": false, "axis": 3, "beta_regularizer": null, "gamma_constraint": null, "gamma_regularizer": null, "momentum": 0.99, "trainable": true, "epsilon": 0.001, "beta_constraint": null, "moving_variance_initializer": {"config": {}, "class_name": "Ones"}}, "name": "batch_normalization_78", "class_name": "BatchNormalization", "inbound_nodes": [[["conv2d_78", 0, 0, {}]]]}, {"config": {"name": "batch_normalization_82", "center": true, "gamma_initializer": {"config": {}, "class_name": "Ones"}, "moving_mean_initializer": {"config": {}, "class_name": "Zeros"}, "beta_initializer": {"config": {}, "class_name": "Zeros"}, "scale": false, "axis": 3, "beta_regularizer": null, "gamma_constraint": null, "gamma_regularizer": null, "momentum": 0.99, "trainable": true, "epsilon": 0.001, "beta_constraint": null, "moving_variance_initializer": {"config": {}, "class_name": "Ones"}}, "name": "batch_normalization_82", "class_name": "BatchNormalization", "inbound_nodes": [[["conv2d_82", 0, 0, {}]]]}, {"config": {"name": "activation_78", "trainable": true, "activation": "relu"}, "name": "activation_78", "class_name": "Activation", "inbound_nodes": [[["batch_normalization_78", 0, 0, {}]]]}, {"config": {"name": "activation_82", "trainable": true, "activation": "relu"}, "name": "activation_82", "class_name": "Activation", "inbound_nodes": [[["batch_normalization_82", 0, 0, {}]]]}, {"config": {"name": "conv2d_79", "kernel_regularizer": null, "use_bias": false, "dilation_rate": [1, 1], "data_format": "channels_last", "filters": 384, "bias_constraint": null, "activity_regularizer": null, "bias_initializer": {"config": {}, "class_name": "Zeros"}, "bias_regularizer": null, "strides": [1, 1], "kernel_size": [1, 3], "trainable": true, "kernel_constraint": null, "padding": "same", "kernel_initializer": {"config": {"mode": "fan_avg", "distribution": "uniform", "seed": null, "scale": 1.0}, "class_name": "VarianceScaling"}, "activation": "linear"}, "name": "conv2d_79", "class_name": "Conv2D", "inbound_nodes": [[["activation_78", 0, 0, {}]]]}, {"config": {"name": "conv2d_80", "kernel_regularizer": null, "use_bias": false, "dilation_rate": [1, 1], "data_format": "channels_last", "filters": 384, "bias_constraint": null, "activity_regularizer": null, "bias_initializer": {"config": {}, "class_name": "Zeros"}, "bias_regularizer": null, "strides": [1, 1], "kernel_size": [3, 1], "trainable": true, "kernel_constraint": null, "padding": "same", "kernel_initializer": {"config": {"mode": "fan_avg", "distribution": "uniform", "seed": null, "scale": 1.0}, "class_name": "VarianceScaling"}, "activation": "linear"}, "name": "conv2d_80", "class_name": "Conv2D", "inbound_nodes": [[["activation_78", 0, 0, {}]]]}, {"config": {"name": "conv2d_83", "kernel_regularizer": null, "use_bias": false, "dilation_rate": [1, 1], "data_format": "channels_last", "filters": 384, "bias_constraint": null, "activity_regularizer": null, "bias_initializer": {"config": {}, "class_name": "Zeros"}, "bias_regularizer": null, "strides": [1, 1], "kernel_size": [1, 3], "trainable": true, "kernel_constraint": null, "padding": "same", "kernel_initializer": {"config": {"mode": "fan_avg", "distribution": "uniform", "seed": null, "scale": 1.0}, "class_name": "VarianceScaling"}, "activation": "linear"}, "name": "conv2d_83", "class_name": "Conv2D", "inbound_nodes": [[["activation_82", 0, 0, {}]]]}, {"config": {"name": "conv2d_84", "kernel_regularizer": null, "use_bias": false, "dilation_rate": [1, 1], "data_format": "channels_last", "filters": 384, "bias_constraint": null, "activity_regularizer": null, "bias_initializer": {"config": {}, "class_name": "Zeros"}, "bias_regularizer": null, "strides": [1, 1], "kernel_size": [3, 1], "trainable": true, "kernel_constraint": null, "padding": "same", "kernel_initializer": {"config": {"mode": "fan_avg", "distribution": "uniform", "seed": null, "scale": 1.0}, "class_name": "VarianceScaling"}, "activation": "linear"}, "name": "conv2d_84", "class_name": "Conv2D", "inbound_nodes": [[["activation_82", 0, 0, {}]]]}, {"config": {"name": "average_pooling2d_8", "strides": [1, 1], "trainable": true, "data_format": "channels_last", "padding": "same", "pool_size": [3, 3]}, "name": "average_pooling2d_8", "class_name": "AveragePooling2D", "inbound_nodes": [[["mixed8", 0, 0, {}]]]}, {"config": {"name": "conv2d_77", "kernel_regularizer": null, "use_bias": false, "dilation_rate": [1, 1], "data_format": "channels_last", "filters": 320, "bias_constraint": null, "activity_regularizer": null, "bias_initializer": {"config": {}, "class_name": "Zeros"}, "bias_regularizer": null, "strides": [1, 1], "kernel_size": [1, 1], "trainable": true, "kernel_constraint": null, "padding": "same", "kernel_initializer": {"config": {"mode": "fan_avg", "distribution": "uniform", "seed": null, "scale": 1.0}, "class_name": "VarianceScaling"}, "activation": "linear"}, "name": "conv2d_77", "class_name": "Conv2D", "inbound_nodes": [[["mixed8", 0, 0, {}]]]}, {"config": {"name": "batch_normalization_79", "center": true, "gamma_initializer": {"config": {}, "class_name": "Ones"}, "moving_mean_initializer": {"config": {}, "class_name": "Zeros"}, "beta_initializer": {"config": {}, "class_name": "Zeros"}, "scale": false, "axis": 3, "beta_regularizer": null, "gamma_constraint": null, "gamma_regularizer": null, "momentum": 0.99, "trainable": true, "epsilon": 0.001, "beta_constraint": null, "moving_variance_initializer": {"config": {}, "class_name": "Ones"}}, "name": "batch_normalization_79", "class_name": "BatchNormalization", "inbound_nodes": [[["conv2d_79", 0, 0, {}]]]}, {"config": {"name": "batch_normalization_80", "center": true, "gamma_initializer": {"config": {}, "class_name": "Ones"}, "moving_mean_initializer": {"config": {}, "class_name": "Zeros"}, "beta_initializer": {"config": {}, "class_name": "Zeros"}, "scale": false, "axis": 3, "beta_regularizer": null, "gamma_constraint": null, "gamma_regularizer": null, "momentum": 0.99, "trainable": true, "epsilon": 0.001, "beta_constraint": null, "moving_variance_initializer": {"config": {}, "class_name": "Ones"}}, "name": "batch_normalization_80", "class_name": "BatchNormalization", "inbound_nodes": [[["conv2d_80", 0, 0, {}]]]}, {"config": {"name": "batch_normalization_83", "center": true, "gamma_initializer": {"config": {}, "class_name": "Ones"}, "moving_mean_initializer": {"config": {}, "class_name": "Zeros"}, "beta_initializer": {"config": {}, "class_name": "Zeros"}, "scale": false, "axis": 3, "beta_regularizer": null, "gamma_constraint": null, "gamma_regularizer": null, "momentum": 0.99, "trainable": true, "epsilon": 0.001, "beta_constraint": null, "moving_variance_initializer": {"config": {}, "class_name": "Ones"}}, "name": "batch_normalization_83", "class_name": "BatchNormalization", "inbound_nodes": [[["conv2d_83", 0, 0, {}]]]}, {"config": {"name": "batch_normalization_84", "center": true, "gamma_initializer": {"config": {}, "class_name": "Ones"}, "moving_mean_initializer": {"config": {}, "class_name": "Zeros"}, "beta_initializer": {"config": {}, "class_name": "Zeros"}, "scale": false, "axis": 3, "beta_regularizer": null, "gamma_constraint": null, "gamma_regularizer": null, "momentum": 0.99, "trainable": true, "epsilon": 0.001, "beta_constraint": null, "moving_variance_initializer": {"config": {}, "class_name": "Ones"}}, "name": "batch_normalization_84", "class_name": "BatchNormalization", "inbound_nodes": [[["conv2d_84", 0, 0, {}]]]}, {"config": {"name": "conv2d_85", "kernel_regularizer": null, "use_bias": false, "dilation_rate": [1, 1], "data_format": "channels_last", "filters": 192, "bias_constraint": null, "activity_regularizer": null, "bias_initializer": {"config": {}, "class_name": "Zeros"}, "bias_regularizer": null, "strides": [1, 1], "kernel_size": [1, 1], "trainable": true, "kernel_constraint": null, "padding": "same", "kernel_initializer": {"config": {"mode": "fan_avg", "distribution": "uniform", "seed": null, "scale": 1.0}, "class_name": "VarianceScaling"}, "activation": "linear"}, "name": "conv2d_85", "class_name": "Conv2D", "inbound_nodes": [[["average_pooling2d_8", 0, 0, {}]]]}, {"config": {"name": "batch_normalization_77", "center": true, "gamma_initializer": {"config": {}, "class_name": "Ones"}, "moving_mean_initializer": {"config": {}, "class_name": "Zeros"}, "beta_initializer": {"config": {}, "class_name": "Zeros"}, "scale": false, "axis": 3, "beta_regularizer": null, "gamma_constraint": null, "gamma_regularizer": null, "momentum": 0.99, "trainable": true, "epsilon": 0.001, "beta_constraint": null, "moving_variance_initializer": {"config": {}, "class_name": "Ones"}}, "name": "batch_normalization_77", "class_name": "BatchNormalization", "inbound_nodes": [[["conv2d_77", 0, 0, {}]]]}, {"config": {"name": "activation_79", "trainable": true, "activation": "relu"}, "name": "activation_79", "class_name": "Activation", "inbound_nodes": [[["batch_normalization_79", 0, 0, {}]]]}, {"config": {"name": "activation_80", "trainable": true, "activation": "relu"}, "name": "activation_80", "class_name": "Activation", "inbound_nodes": [[["batch_normalization_80", 0, 0, {}]]]}, {"config": {"name": "activation_83", "trainable": true, "activation": "relu"}, "name": "activation_83", "class_name": "Activation", "inbound_nodes": [[["batch_normalization_83", 0, 0, {}]]]}, {"config": {"name": "activation_84", "trainable": true, "activation": "relu"}, "name": "activation_84", "class_name": "Activation", "inbound_nodes": [[["batch_normalization_84", 0, 0, {}]]]}, {"config": {"name": "batch_normalization_85", "center": true, "gamma_initializer": {"config": {}, "class_name": "Ones"}, "moving_mean_initializer": {"config": {}, "class_name": "Zeros"}, "beta_initializer": {"config": {}, "class_name": "Zeros"}, "scale": false, "axis": 3, "beta_regularizer": null, "gamma_constraint": null, "gamma_regularizer": null, "momentum": 0.99, "trainable": true, "epsilon": 0.001, "beta_constraint": null, "moving_variance_initializer": {"config": {}, "class_name": "Ones"}}, "name": "batch_normalization_85", "class_name": "BatchNormalization", "inbound_nodes": [[["conv2d_85", 0, 0, {}]]]}, {"config": {"name": "activation_77", "trainable": true, "activation": "relu"}, "name": "activation_77", "class_name": "Activation", "inbound_nodes": [[["batch_normalization_77", 0, 0, {}]]]}, {"config": {"name": "mixed9_0", "axis": 3, "trainable": true}, "name": "mixed9_0", "class_name": "Concatenate", "inbound_nodes": [[["activation_79", 0, 0, {}], ["activation_80", 0, 0, {}]]]}, {"config": {"name": "concatenate_1", "axis": 3, "trainable": true}, "name": "concatenate_1", "class_name": "Concatenate", "inbound_nodes": [[["activation_83", 0, 0, {}], ["activation_84", 0, 0, {}]]]}, {"config": {"name": "activation_85", "trainable": true, "activation": "relu"}, "name": "activation_85", "class_name": "Activation", "inbound_nodes": [[["batch_normalization_85", 0, 0, {}]]]}, {"config": {"name": "mixed9", "axis": 3, "trainable": true}, "name": "mixed9", "class_name": "Concatenate", "inbound_nodes": [[["activation_77", 0, 0, {}], ["mixed9_0", 0, 0, {}], ["concatenate_1", 0, 0, {}], ["activation_85", 0, 0, {}]]]}, {"config": {"name": "conv2d_90", "kernel_regularizer": null, "use_bias": false, "dilation_rate": [1, 1], "data_format": "channels_last", "filters": 448, "bias_constraint": null, "activity_regularizer": null, "bias_initializer": {"config": {}, "class_name": "Zeros"}, "bias_regularizer": null, "strides": [1, 1], "kernel_size": [1, 1], "trainable": true, "kernel_constraint": null, "padding": "same", "kernel_initializer": {"config": {"mode": "fan_avg", "distribution": "uniform", "seed": null, "scale": 1.0}, "class_name": "VarianceScaling"}, "activation": "linear"}, "name": "conv2d_90", "class_name": "Conv2D", "inbound_nodes": [[["mixed9", 0, 0, {}]]]}, {"config": {"name": "batch_normalization_90", "center": true, "gamma_initializer": {"config": {}, "class_name": "Ones"}, "moving_mean_initializer": {"config": {}, "class_name": "Zeros"}, "beta_initializer": {"config": {}, "class_name": "Zeros"}, "scale": false, "axis": 3, "beta_regularizer": null, "gamma_constraint": null, "gamma_regularizer": null, "momentum": 0.99, "trainable": true, "epsilon": 0.001, "beta_constraint": null, "moving_variance_initializer": {"config": {}, "class_name": "Ones"}}, "name": "batch_normalization_90", "class_name": "BatchNormalization", "inbound_nodes": [[["conv2d_90", 0, 0, {}]]]}, {"config": {"name": "activation_90", "trainable": true, "activation": "relu"}, "name": "activation_90", "class_name": "Activation", "inbound_nodes": [[["batch_normalization_90", 0, 0, {}]]]}, {"config": {"name": "conv2d_87", "kernel_regularizer": null, "use_bias": false, "dilation_rate": [1, 1], "data_format": "channels_last", "filters": 384, "bias_constraint": null, "activity_regularizer": null, "bias_initializer": {"config": {}, "class_name": "Zeros"}, "bias_regularizer": null, "strides": [1, 1], "kernel_size": [1, 1], "trainable": true, "kernel_constraint": null, "padding": "same", "kernel_initializer": {"config": {"mode": "fan_avg", "distribution": "uniform", "seed": null, "scale": 1.0}, "class_name": "VarianceScaling"}, "activation": "linear"}, "name": "conv2d_87", "class_name": "Conv2D", "inbound_nodes": [[["mixed9", 0, 0, {}]]]}, {"config": {"name": "conv2d_91", "kernel_regularizer": null, "use_bias": false, "dilation_rate": [1, 1], "data_format": "channels_last", "filters": 384, "bias_constraint": null, "activity_regularizer": null, "bias_initializer": {"config": {}, "class_name": "Zeros"}, "bias_regularizer": null, "strides": [1, 1], "kernel_size": [3, 3], "trainable": true, "kernel_constraint": null, "padding": "same", "kernel_initializer": {"config": {"mode": "fan_avg", "distribution": "uniform", "seed": null, "scale": 1.0}, "class_name": "VarianceScaling"}, "activation": "linear"}, "name": "conv2d_91", "class_name": "Conv2D", "inbound_nodes": [[["activation_90", 0, 0, {}]]]}, {"config": {"name": "batch_normalization_87", "center": true, "gamma_initializer": {"config": {}, "class_name": "Ones"}, "moving_mean_initializer": {"config": {}, "class_name": "Zeros"}, "beta_initializer": {"config": {}, "class_name": "Zeros"}, "scale": false, "axis": 3, "beta_regularizer": null, "gamma_constraint": null, "gamma_regularizer": null, "momentum": 0.99, "trainable": true, "epsilon": 0.001, "beta_constraint": null, "moving_variance_initializer": {"config": {}, "class_name": "Ones"}}, "name": "batch_normalization_87", "class_name": "BatchNormalization", "inbound_nodes": [[["conv2d_87", 0, 0, {}]]]}, {"config": {"name": "batch_normalization_91", "center": true, "gamma_initializer": {"config": {}, "class_name": "Ones"}, "moving_mean_initializer": {"config": {}, "class_name": "Zeros"}, "beta_initializer": {"config": {}, "class_name": "Zeros"}, "scale": false, "axis": 3, "beta_regularizer": null, "gamma_constraint": null, "gamma_regularizer": null, "momentum": 0.99, "trainable": true, "epsilon": 0.001, "beta_constraint": null, "moving_variance_initializer": {"config": {}, "class_name": "Ones"}}, "name": "batch_normalization_91", "class_name": "BatchNormalization", "inbound_nodes": [[["conv2d_91", 0, 0, {}]]]}, {"config": {"name": "activation_87", "trainable": true, "activation": "relu"}, "name": "activation_87", "class_name": "Activation", "inbound_nodes": [[["batch_normalization_87", 0, 0, {}]]]}, {"config": {"name": "activation_91", "trainable": true, "activation": "relu"}, "name": "activation_91", "class_name": "Activation", "inbound_nodes": [[["batch_normalization_91", 0, 0, {}]]]}, {"config": {"name": "conv2d_88", "kernel_regularizer": null, "use_bias": false, "dilation_rate": [1, 1], "data_format": "channels_last", "filters": 384, "bias_constraint": null, "activity_regularizer": null, "bias_initializer": {"config": {}, "class_name": "Zeros"}, "bias_regularizer": null, "strides": [1, 1], "kernel_size": [1, 3], "trainable": true, "kernel_constraint": null, "padding": "same", "kernel_initializer": {"config": {"mode": "fan_avg", "distribution": "uniform", "seed": null, "scale": 1.0}, "class_name": "VarianceScaling"}, "activation": "linear"}, "name": "conv2d_88", "class_name": "Conv2D", "inbound_nodes": [[["activation_87", 0, 0, {}]]]}, {"config": {"name": "conv2d_89", "kernel_regularizer": null, "use_bias": false, "dilation_rate": [1, 1], "data_format": "channels_last", "filters": 384, "bias_constraint": null, "activity_regularizer": null, "bias_initializer": {"config": {}, "class_name": "Zeros"}, "bias_regularizer": null, "strides": [1, 1], "kernel_size": [3, 1], "trainable": true, "kernel_constraint": null, "padding": "same", "kernel_initializer": {"config": {"mode": "fan_avg", "distribution": "uniform", "seed": null, "scale": 1.0}, "class_name": "VarianceScaling"}, "activation": "linear"}, "name": "conv2d_89", "class_name": "Conv2D", "inbound_nodes": [[["activation_87", 0, 0, {}]]]}, {"config": {"name": "conv2d_92", "kernel_regularizer": null, "use_bias": false, "dilation_rate": [1, 1], "data_format": "channels_last", "filters": 384, "bias_constraint": null, "activity_regularizer": null, "bias_initializer": {"config": {}, "class_name": "Zeros"}, "bias_regularizer": null, "strides": [1, 1], "kernel_size": [1, 3], "trainable": true, "kernel_constraint": null, "padding": "same", "kernel_initializer": {"config": {"mode": "fan_avg", "distribution": "uniform", "seed": null, "scale": 1.0}, "class_name": "VarianceScaling"}, "activation": "linear"}, "name": "conv2d_92", "class_name": "Conv2D", "inbound_nodes": [[["activation_91", 0, 0, {}]]]}, {"config": {"name": "conv2d_93", "kernel_regularizer": null, "use_bias": false, "dilation_rate": [1, 1], "data_format": "channels_last", "filters": 384, "bias_constraint": null, "activity_regularizer": null, "bias_initializer": {"config": {}, "class_name": "Zeros"}, "bias_regularizer": null, "strides": [1, 1], "kernel_size": [3, 1], "trainable": true, "kernel_constraint": null, "padding": "same", "kernel_initializer": {"config": {"mode": "fan_avg", "distribution": "uniform", "seed": null, "scale": 1.0}, "class_name": "VarianceScaling"}, "activation": "linear"}, "name": "conv2d_93", "class_name": "Conv2D", "inbound_nodes": [[["activation_91", 0, 0, {}]]]}, {"config": {"name": "average_pooling2d_9", "strides": [1, 1], "trainable": true, "data_format": "channels_last", "padding": "same", "pool_size": [3, 3]}, "name": "average_pooling2d_9", "class_name": "AveragePooling2D", "inbound_nodes": [[["mixed9", 0, 0, {}]]]}, {"config": {"name": "conv2d_86", "kernel_regularizer": null, "use_bias": false, "dilation_rate": [1, 1], "data_format": "channels_last", "filters": 320, "bias_constraint": null, "activity_regularizer": null, "bias_initializer": {"config": {}, "class_name": "Zeros"}, "bias_regularizer": null, "strides": [1, 1], "kernel_size": [1, 1], "trainable": true, "kernel_constraint": null, "padding": "same", "kernel_initializer": {"config": {"mode": "fan_avg", "distribution": "uniform", "seed": null, "scale": 1.0}, "class_name": "VarianceScaling"}, "activation": "linear"}, "name": "conv2d_86", "class_name": "Conv2D", "inbound_nodes": [[["mixed9", 0, 0, {}]]]}, {"config": {"name": "batch_normalization_88", "center": true, "gamma_initializer": {"config": {}, "class_name": "Ones"}, "moving_mean_initializer": {"config": {}, "class_name": "Zeros"}, "beta_initializer": {"config": {}, "class_name": "Zeros"}, "scale": false, "axis": 3, "beta_regularizer": null, "gamma_constraint": null, "gamma_regularizer": null, "momentum": 0.99, "trainable": true, "epsilon": 0.001, "beta_constraint": null, "moving_variance_initializer": {"config": {}, "class_name": "Ones"}}, "name": "batch_normalization_88", "class_name": "BatchNormalization", "inbound_nodes": [[["conv2d_88", 0, 0, {}]]]}, {"config": {"name": "batch_normalization_89", "center": true, "gamma_initializer": {"config": {}, "class_name": "Ones"}, "moving_mean_initializer": {"config": {}, "class_name": "Zeros"}, "beta_initializer": {"config": {}, "class_name": "Zeros"}, "scale": false, "axis": 3, "beta_regularizer": null, "gamma_constraint": null, "gamma_regularizer": null, "momentum": 0.99, "trainable": true, "epsilon": 0.001, "beta_constraint": null, "moving_variance_initializer": {"config": {}, "class_name": "Ones"}}, "name": "batch_normalization_89", "class_name": "BatchNormalization", "inbound_nodes": [[["conv2d_89", 0, 0, {}]]]}, {"config": {"name": "batch_normalization_92", "center": true, "gamma_initializer": {"config": {}, "class_name": "Ones"}, "moving_mean_initializer": {"config": {}, "class_name": "Zeros"}, "beta_initializer": {"config": {}, "class_name": "Zeros"}, "scale": false, "axis": 3, "beta_regularizer": null, "gamma_constraint": null, "gamma_regularizer": null, "momentum": 0.99, "trainable": true, "epsilon": 0.001, "beta_constraint": null, "moving_variance_initializer": {"config": {}, "class_name": "Ones"}}, "name": "batch_normalization_92", "class_name": "BatchNormalization", "inbound_nodes": [[["conv2d_92", 0, 0, {}]]]}, {"config": {"name": "batch_normalization_93", "center": true, "gamma_initializer": {"config": {}, "class_name": "Ones"}, "moving_mean_initializer": {"config": {}, "class_name": "Zeros"}, "beta_initializer": {"config": {}, "class_name": "Zeros"}, "scale": false, "axis": 3, "beta_regularizer": null, "gamma_constraint": null, "gamma_regularizer": null, "momentum": 0.99, "trainable": true, "epsilon": 0.001, "beta_constraint": null, "moving_variance_initializer": {"config": {}, "class_name": "Ones"}}, "name": "batch_normalization_93", "class_name": "BatchNormalization", "inbound_nodes": [[["conv2d_93", 0, 0, {}]]]}, {"config": {"name": "conv2d_94", "kernel_regularizer": null, "use_bias": false, "dilation_rate": [1, 1], "data_format": "channels_last", "filters": 192, "bias_constraint": null, "activity_regularizer": null, "bias_initializer": {"config": {}, "class_name": "Zeros"}, "bias_regularizer": null, "strides": [1, 1], "kernel_size": [1, 1], "trainable": true, "kernel_constraint": null, "padding": "same", "kernel_initializer": {"config": {"mode": "fan_avg", "distribution": "uniform", "seed": null, "scale": 1.0}, "class_name": "VarianceScaling"}, "activation": "linear"}, "name": "conv2d_94", "class_name": "Conv2D", "inbound_nodes": [[["average_pooling2d_9", 0, 0, {}]]]}, {"config": {"name": "batch_normalization_86", "center": true, "gamma_initializer": {"config": {}, "class_name": "Ones"}, "moving_mean_initializer": {"config": {}, "class_name": "Zeros"}, "beta_initializer": {"config": {}, "class_name": "Zeros"}, "scale": false, "axis": 3, "beta_regularizer": null, "gamma_constraint": null, "gamma_regularizer": null, "momentum": 0.99, "trainable": true, "epsilon": 0.001, "beta_constraint": null, "moving_variance_initializer": {"config": {}, "class_name": "Ones"}}, "name": "batch_normalization_86", "class_name": "BatchNormalization", "inbound_nodes": [[["conv2d_86", 0, 0, {}]]]}, {"config": {"name": "activation_88", "trainable": true, "activation": "relu"}, "name": "activation_88", "class_name": "Activation", "inbound_nodes": [[["batch_normalization_88", 0, 0, {}]]]}, {"config": {"name": "activation_89", "trainable": true, "activation": "relu"}, "name": "activation_89", "class_name": "Activation", "inbound_nodes": [[["batch_normalization_89", 0, 0, {}]]]}, {"config": {"name": "activation_92", "trainable": true, "activation": "relu"}, "name": "activation_92", "class_name": "Activation", "inbound_nodes": [[["batch_normalization_92", 0, 0, {}]]]}, {"config": {"name": "activation_93", "trainable": true, "activation": "relu"}, "name": "activation_93", "class_name": "Activation", "inbound_nodes": [[["batch_normalization_93", 0, 0, {}]]]}, {"config": {"name": "batch_normalization_94", "center": true, "gamma_initializer": {"config": {}, "class_name": "Ones"}, "moving_mean_initializer": {"config": {}, "class_name": "Zeros"}, "beta_initializer": {"config": {}, "class_name": "Zeros"}, "scale": false, "axis": 3, "beta_regularizer": null, "gamma_constraint": null, "gamma_regularizer": null, "momentum": 0.99, "trainable": true, "epsilon": 0.001, "beta_constraint": null, "moving_variance_initializer": {"config": {}, "class_name": "Ones"}}, "name": "batch_normalization_94", "class_name": "BatchNormalization", "inbound_nodes": [[["conv2d_94", 0, 0, {}]]]}, {"config": {"name": "activation_86", "trainable": true, "activation": "relu"}, "name": "activation_86", "class_name": "Activation", "inbound_nodes": [[["batch_normalization_86", 0, 0, {}]]]}, {"config": {"name": "mixed9_1", "axis": 3, "trainable": true}, "name": "mixed9_1", "class_name": "Concatenate", "inbound_nodes": [[["activation_88", 0, 0, {}], ["activation_89", 0, 0, {}]]]}, {"config": {"name": "concatenate_2", "axis": 3, "trainable": true}, "name": "concatenate_2", "class_name": "Concatenate", "inbound_nodes": [[["activation_92", 0, 0, {}], ["activation_93", 0, 0, {}]]]}, {"config": {"name": "activation_94", "trainable": true, "activation": "relu"}, "name": "activation_94", "class_name": "Activation", "inbound_nodes": [[["batch_normalization_94", 0, 0, {}]]]}, {"config": {"name": "mixed10", "axis": 3, "trainable": true}, "name": "mixed10", "class_name": "Concatenate", "inbound_nodes": [[["activation_86", 0, 0, {}], ["mixed9_1", 0, 0, {}], ["concatenate_2", 0, 0, {}], ["activation_94", 0, 0, {}]]]}, {"config": [{"config": {"name": "flatten_1", "batch_input_shape": [null, 3, 3, 2048], "dtype": "float32", "trainable": true}, "class_name": "Flatten"}, {"config": {"name": "dense1", "kernel_initializer": {"config": {"mode": "fan_avg", "distribution": "uniform", "seed": null, "scale": 1.0}, "class_name": "VarianceScaling"}, "kernel_regularizer": null, "use_bias": true, "activity_regularizer": null, "bias_initializer": {"config": {}, "class_name": "Zeros"}, "bias_regularizer": null, "trainable": true, "kernel_constraint": null, "bias_constraint": null, "units": 128, "activation": "linear"}, "class_name": "Dense"}, {"config": {"name": "activation_95", "activation": "relu", "trainable": true}, "class_name": "Activation"}, {"config": {"name": "dropout_1", "rate": 0.5, "trainable": true}, "class_name": "Dropout"}, {"config": {"name": "output", "kernel_initializer": {"config": {"mode": "fan_avg", "distribution": "uniform", "seed": null, "scale": 1.0}, "class_name": "VarianceScaling"}, "kernel_regularizer": null, "use_bias": true, "activity_regularizer": null, "bias_initializer": {"config": {}, "class_name": "Zeros"}, "bias_regularizer": null, "trainable": true, "kernel_constraint": null, "bias_constraint": null, "units": 4, "activation": "linear"}, "class_name": "Dense"}, {"config": {"name": "activation_96", "activation": "softmax", "trainable": true}, "class_name": "Activation"}], "name": "sequential_1", "class_name": "Sequential", "inbound_nodes": [[["mixed10", 0, 0, {}]]]}], "output_layers": [["sequential_1", 1, 0]]}, "class_name": "Model", "keras_version": "2.0.8"}