{"keras_version": "2.0.8", "config": {"layers": [{"config": {"dtype": "float32", "sparse": false, "batch_input_shape": [null, 200, 200, 3], "name": "input_1"}, "name": "input_1", "class_name": "InputLayer", "inbound_nodes": []}, {"config": {"filters": 32, "padding": "valid", "dilation_rate": [1, 1], "kernel_regularizer": null, "bias_constraint": null, "kernel_initializer": {"config": {"scale": 1.0, "distribution": "uniform", "seed": null, "mode": "fan_avg"}, "class_name": "VarianceScaling"}, "trainable": false, "name": "conv2d_1", "strides": [2, 2], "data_format": "channels_last", "activation": "linear", "kernel_constraint": null, "use_bias": false, "kernel_size": [3, 3], "bias_regularizer": null, "bias_initializer": {"config": {}, "class_name": "Zeros"}, "activity_regularizer": null}, "name": "conv2d_1", "class_name": "Conv2D", "inbound_nodes": [[["input_1", 0, 0, {}]]]}, {"config": {"moving_mean_initializer": {"config": {}, "class_name": "Zeros"}, "moving_variance_initializer": {"config": {}, "class_name": "Ones"}, "axis": 3, "scale": false, "gamma_initializer": {"config": {}, "class_name": "Ones"}, "trainable": false, "beta_regularizer": null, "name": "batch_normalization_1", "epsilon": 0.001, "beta_initializer": {"config": {}, "class_name": "Zeros"}, "center": true, "momentum": 0.99, "gamma_regularizer": null, "beta_constraint": null, "gamma_constraint": null}, "name": "batch_normalization_1", "class_name": "BatchNormalization", "inbound_nodes": [[["conv2d_1", 0, 0, {}]]]}, {"config": {"activation": "relu", "trainable": false, "name": "activation_1"}, "name": "activation_1", "class_name": "Activation", "inbound_nodes": [[["batch_normalization_1", 0, 0, {}]]]}, {"config": {"filters": 32, "padding": "valid", "dilation_rate": [1, 1], "kernel_regularizer": null, "bias_constraint": null, "kernel_initializer": {"config": {"scale": 1.0, "distribution": "uniform", "seed": null, "mode": "fan_avg"}, "class_name": "VarianceScaling"}, "trainable": false, "name": "conv2d_2", "strides": [1, 1], "data_format": "channels_last", "activation": "linear", "kernel_constraint": null, "use_bias": false, "kernel_size": [3, 3], "bias_regularizer": null, "bias_initializer": {"config": {}, "class_name": "Zeros"}, "activity_regularizer": null}, "name": "conv2d_2", "class_name": "Conv2D", "inbound_nodes": [[["activation_1", 0, 0, {}]]]}, {"config": {"moving_mean_initializer": {"config": {}, "class_name": "Zeros"}, "moving_variance_initializer": {"config": {}, "class_name": "Ones"}, "axis": 3, "scale": false, "gamma_initializer": {"config": {}, "class_name": "Ones"}, "trainable": false, "beta_regularizer": null, "name": "batch_normalization_2", "epsilon": 0.001, "beta_initializer": {"config": {}, "class_name": "Zeros"}, "center": true, "momentum": 0.99, "gamma_regularizer": null, "beta_constraint": null, "gamma_constraint": null}, "name": "batch_normalization_2", "class_name": "BatchNormalization", "inbound_nodes": [[["conv2d_2", 0, 0, {}]]]}, {"config": {"activation": "relu", "trainable": false, "name": "activation_2"}, "name": "activation_2", "class_name": "Activation", "inbound_nodes": [[["batch_normalization_2", 0, 0, {}]]]}, {"config": {"filters": 64, "padding": "same", "dilation_rate": [1, 1], "kernel_regularizer": null, "bias_constraint": null, "kernel_initializer": {"config": {"scale": 1.0, "distribution": "uniform", "seed": null, "mode": "fan_avg"}, "class_name": "VarianceScaling"}, "trainable": false, "name": "conv2d_3", "strides": [1, 1], "data_format": "channels_last", "activation": "linear", "kernel_constraint": null, "use_bias": false, "kernel_size": [3, 3], "bias_regularizer": null, "bias_initializer": {"config": {}, "class_name": "Zeros"}, "activity_regularizer": null}, "name": "conv2d_3", "class_name": "Conv2D", "inbound_nodes": [[["activation_2", 0, 0, {}]]]}, {"config": {"moving_mean_initializer": {"config": {}, "class_name": "Zeros"}, "moving_variance_initializer": {"config": {}, "class_name": "Ones"}, "axis": 3, "scale": false, "gamma_initializer": {"config": {}, "class_name": "Ones"}, "trainable": false, "beta_regularizer": null, "name": "batch_normalization_3", "epsilon": 0.001, "beta_initializer": {"config": {}, "class_name": "Zeros"}, "center": true, "momentum": 0.99, "gamma_regularizer": null, "beta_constraint": null, "gamma_constraint": null}, "name": "batch_normalization_3", "class_name": "BatchNormalization", "inbound_nodes": [[["conv2d_3", 0, 0, {}]]]}, {"config": {"activation": "relu", "trainable": false, "name": "activation_3"}, "name": "activation_3", "class_name": "Activation", "inbound_nodes": [[["batch_normalization_3", 0, 0, {}]]]}, {"config": {"padding": "valid", "name": "max_pooling2d_1", "trainable": false, "pool_size": [3, 3], "strides": [2, 2], "data_format": "channels_last"}, "name": "max_pooling2d_1", "class_name": "MaxPooling2D", "inbound_nodes": [[["activation_3", 0, 0, {}]]]}, {"config": {"filters": 80, "padding": "valid", "dilation_rate": [1, 1], "kernel_regularizer": null, "bias_constraint": null, "kernel_initializer": {"config": {"scale": 1.0, "distribution": "uniform", "seed": null, "mode": "fan_avg"}, "class_name": "VarianceScaling"}, "trainable": false, "name": "conv2d_4", "strides": [1, 1], "data_format": "channels_last", "activation": "linear", "kernel_constraint": null, "use_bias": false, "kernel_size": [1, 1], "bias_regularizer": null, "bias_initializer": {"config": {}, "class_name": "Zeros"}, "activity_regularizer": null}, "name": "conv2d_4", "class_name": "Conv2D", "inbound_nodes": [[["max_pooling2d_1", 0, 0, {}]]]}, {"config": {"moving_mean_initializer": {"config": {}, "class_name": "Zeros"}, "moving_variance_initializer": {"config": {}, "class_name": "Ones"}, "axis": 3, "scale": false, "gamma_initializer": {"config": {}, "class_name": "Ones"}, "trainable": false, "beta_regularizer": null, "name": "batch_normalization_4", "epsilon": 0.001, "beta_initializer": {"config": {}, "class_name": "Zeros"}, "center": true, "momentum": 0.99, "gamma_regularizer": null, "beta_constraint": null, "gamma_constraint": null}, "name": "batch_normalization_4", "class_name": "BatchNormalization", "inbound_nodes": [[["conv2d_4", 0, 0, {}]]]}, {"config": {"activation": "relu", "trainable": false, "name": "activation_4"}, "name": "activation_4", "class_name": "Activation", "inbound_nodes": [[["batch_normalization_4", 0, 0, {}]]]}, {"config": {"filters": 192, "padding": "valid", "dilation_rate": [1, 1], "kernel_regularizer": null, "bias_constraint": null, "kernel_initializer": {"config": {"scale": 1.0, "distribution": "uniform", "seed": null, "mode": "fan_avg"}, "class_name": "VarianceScaling"}, "trainable": false, "name": "conv2d_5", "strides": [1, 1], "data_format": "channels_last", "activation": "linear", "kernel_constraint": null, "use_bias": false, "kernel_size": [3, 3], "bias_regularizer": null, "bias_initializer": {"config": {}, "class_name": "Zeros"}, "activity_regularizer": null}, "name": "conv2d_5", "class_name": "Conv2D", "inbound_nodes": [[["activation_4", 0, 0, {}]]]}, {"config": {"moving_mean_initializer": {"config": {}, "class_name": "Zeros"}, "moving_variance_initializer": {"config": {}, "class_name": "Ones"}, "axis": 3, "scale": false, "gamma_initializer": {"config": {}, "class_name": "Ones"}, "trainable": false, "beta_regularizer": null, "name": "batch_normalization_5", "epsilon": 0.001, "beta_initializer": {"config": {}, "class_name": "Zeros"}, "center": true, "momentum": 0.99, "gamma_regularizer": null, "beta_constraint": null, "gamma_constraint": null}, "name": "batch_normalization_5", "class_name": "BatchNormalization", "inbound_nodes": [[["conv2d_5", 0, 0, {}]]]}, {"config": {"activation": "relu", "trainable": false, "name": "activation_5"}, "name": "activation_5", "class_name": "Activation", "inbound_nodes": [[["batch_normalization_5", 0, 0, {}]]]}, {"config": {"padding": "valid", "name": "max_pooling2d_2", "trainable": false, "pool_size": [3, 3], "strides": [2, 2], "data_format": "channels_last"}, "name": "max_pooling2d_2", "class_name": "MaxPooling2D", "inbound_nodes": [[["activation_5", 0, 0, {}]]]}, {"config": {"filters": 64, "padding": "same", "dilation_rate": [1, 1], "kernel_regularizer": null, "bias_constraint": null, "kernel_initializer": {"config": {"scale": 1.0, "distribution": "uniform", "seed": null, "mode": "fan_avg"}, "class_name": "VarianceScaling"}, "trainable": false, "name": "conv2d_9", "strides": [1, 1], "data_format": "channels_last", "activation": "linear", "kernel_constraint": null, "use_bias": false, "kernel_size": [1, 1], "bias_regularizer": null, "bias_initializer": {"config": {}, "class_name": "Zeros"}, "activity_regularizer": null}, "name": "conv2d_9", "class_name": "Conv2D", "inbound_nodes": [[["max_pooling2d_2", 0, 0, {}]]]}, {"config": {"moving_mean_initializer": {"config": {}, "class_name": "Zeros"}, "moving_variance_initializer": {"config": {}, "class_name": "Ones"}, "axis": 3, "scale": false, "gamma_initializer": {"config": {}, "class_name": "Ones"}, "trainable": false, "beta_regularizer": null, "name": "batch_normalization_9", "epsilon": 0.001, "beta_initializer": {"config": {}, "class_name": "Zeros"}, "center": true, "momentum": 0.99, "gamma_regularizer": null, "beta_constraint": null, "gamma_constraint": null}, "name": "batch_normalization_9", "class_name": "BatchNormalization", "inbound_nodes": [[["conv2d_9", 0, 0, {}]]]}, {"config": {"activation": "relu", "trainable": false, "name": "activation_9"}, "name": "activation_9", "class_name": "Activation", "inbound_nodes": [[["batch_normalization_9", 0, 0, {}]]]}, {"config": {"filters": 48, "padding": "same", "dilation_rate": [1, 1], "kernel_regularizer": null, "bias_constraint": null, "kernel_initializer": {"config": {"scale": 1.0, "distribution": "uniform", "seed": null, "mode": "fan_avg"}, "class_name": "VarianceScaling"}, "trainable": false, "name": "conv2d_7", "strides": [1, 1], "data_format": "channels_last", "activation": "linear", "kernel_constraint": null, "use_bias": false, "kernel_size": [1, 1], "bias_regularizer": null, "bias_initializer": {"config": {}, "class_name": "Zeros"}, "activity_regularizer": null}, "name": "conv2d_7", "class_name": "Conv2D", "inbound_nodes": [[["max_pooling2d_2", 0, 0, {}]]]}, {"config": {"filters": 96, "padding": "same", "dilation_rate": [1, 1], "kernel_regularizer": null, "bias_constraint": null, "kernel_initializer": {"config": {"scale": 1.0, "distribution": "uniform", "seed": null, "mode": "fan_avg"}, "class_name": "VarianceScaling"}, "trainable": false, "name": "conv2d_10", "strides": [1, 1], "data_format": "channels_last", "activation": "linear", "kernel_constraint": null, "use_bias": false, "kernel_size": [3, 3], "bias_regularizer": null, "bias_initializer": {"config": {}, "class_name": "Zeros"}, "activity_regularizer": null}, "name": "conv2d_10", "class_name": "Conv2D", "inbound_nodes": [[["activation_9", 0, 0, {}]]]}, {"config": {"moving_mean_initializer": {"config": {}, "class_name": "Zeros"}, "moving_variance_initializer": {"config": {}, "class_name": "Ones"}, "axis": 3, "scale": false, "gamma_initializer": {"config": {}, "class_name": "Ones"}, "trainable": false, "beta_regularizer": null, "name": "batch_normalization_7", "epsilon": 0.001, "beta_initializer": {"config": {}, "class_name": "Zeros"}, "center": true, "momentum": 0.99, "gamma_regularizer": null, "beta_constraint": null, "gamma_constraint": null}, "name": "batch_normalization_7", "class_name": "BatchNormalization", "inbound_nodes": [[["conv2d_7", 0, 0, {}]]]}, {"config": {"moving_mean_initializer": {"config": {}, "class_name": "Zeros"}, "moving_variance_initializer": {"config": {}, "class_name": "Ones"}, "axis": 3, "scale": false, "gamma_initializer": {"config": {}, "class_name": "Ones"}, "trainable": false, "beta_regularizer": null, "name": "batch_normalization_10", "epsilon": 0.001, "beta_initializer": {"config": {}, "class_name": "Zeros"}, "center": true, "momentum": 0.99, "gamma_regularizer": null, "beta_constraint": null, "gamma_constraint": null}, "name": "batch_normalization_10", "class_name": "BatchNormalization", "inbound_nodes": [[["conv2d_10", 0, 0, {}]]]}, {"config": {"activation": "relu", "trainable": false, "name": "activation_7"}, "name": "activation_7", "class_name": "Activation", "inbound_nodes": [[["batch_normalization_7", 0, 0, {}]]]}, {"config": {"activation": "relu", "trainable": false, "name": "activation_10"}, "name": "activation_10", "class_name": "Activation", "inbound_nodes": [[["batch_normalization_10", 0, 0, {}]]]}, {"config": {"padding": "same", "name": "average_pooling2d_1", "trainable": false, "pool_size": [3, 3], "strides": [1, 1], "data_format": "channels_last"}, "name": "average_pooling2d_1", "class_name": "AveragePooling2D", "inbound_nodes": [[["max_pooling2d_2", 0, 0, {}]]]}, {"config": {"filters": 64, "padding": "same", "dilation_rate": [1, 1], "kernel_regularizer": null, "bias_constraint": null, "kernel_initializer": {"config": {"scale": 1.0, "distribution": "uniform", "seed": null, "mode": "fan_avg"}, "class_name": "VarianceScaling"}, "trainable": false, "name": "conv2d_6", "strides": [1, 1], "data_format": "channels_last", "activation": "linear", "kernel_constraint": null, "use_bias": false, "kernel_size": [1, 1], "bias_regularizer": null, "bias_initializer": {"config": {}, "class_name": "Zeros"}, "activity_regularizer": null}, "name": "conv2d_6", "class_name": "Conv2D", "inbound_nodes": [[["max_pooling2d_2", 0, 0, {}]]]}, {"config": {"filters": 64, "padding": "same", "dilation_rate": [1, 1], "kernel_regularizer": null, "bias_constraint": null, "kernel_initializer": {"config": {"scale": 1.0, "distribution": "uniform", "seed": null, "mode": "fan_avg"}, "class_name": "VarianceScaling"}, "trainable": false, "name": "conv2d_8", "strides": [1, 1], "data_format": "channels_last", "activation": "linear", "kernel_constraint": null, "use_bias": false, "kernel_size": [5, 5], "bias_regularizer": null, "bias_initializer": {"config": {}, "class_name": "Zeros"}, "activity_regularizer": null}, "name": "conv2d_8", "class_name": "Conv2D", "inbound_nodes": [[["activation_7", 0, 0, {}]]]}, {"config": {"filters": 96, "padding": "same", "dilation_rate": [1, 1], "kernel_regularizer": null, "bias_constraint": null, "kernel_initializer": {"config": {"scale": 1.0, "distribution": "uniform", "seed": null, "mode": "fan_avg"}, "class_name": "VarianceScaling"}, "trainable": false, "name": "conv2d_11", "strides": [1, 1], "data_format": "channels_last", "activation": "linear", "kernel_constraint": null, "use_bias": false, "kernel_size": [3, 3], "bias_regularizer": null, "bias_initializer": {"config": {}, "class_name": "Zeros"}, "activity_regularizer": null}, "name": "conv2d_11", "class_name": "Conv2D", "inbound_nodes": [[["activation_10", 0, 0, {}]]]}, {"config": {"filters": 32, "padding": "same", "dilation_rate": [1, 1], "kernel_regularizer": null, "bias_constraint": null, "kernel_initializer": {"config": {"scale": 1.0, "distribution": "uniform", "seed": null, "mode": "fan_avg"}, "class_name": "VarianceScaling"}, "trainable": false, "name": "conv2d_12", "strides": [1, 1], "data_format": "channels_last", "activation": "linear", "kernel_constraint": null, "use_bias": false, "kernel_size": [1, 1], "bias_regularizer": null, "bias_initializer": {"config": {}, "class_name": "Zeros"}, "activity_regularizer": null}, "name": "conv2d_12", "class_name": "Conv2D", "inbound_nodes": [[["average_pooling2d_1", 0, 0, {}]]]}, {"config": {"moving_mean_initializer": {"config": {}, "class_name": "Zeros"}, "moving_variance_initializer": {"config": {}, "class_name": "Ones"}, "axis": 3, "scale": false, "gamma_initializer": {"config": {}, "class_name": "Ones"}, "trainable": false, "beta_regularizer": null, "name": "batch_normalization_6", "epsilon": 0.001, "beta_initializer": {"config": {}, "class_name": "Zeros"}, "center": true, "momentum": 0.99, "gamma_regularizer": null, "beta_constraint": null, "gamma_constraint": null}, "name": "batch_normalization_6", "class_name": "BatchNormalization", "inbound_nodes": [[["conv2d_6", 0, 0, {}]]]}, {"config": {"moving_mean_initializer": {"config": {}, "class_name": "Zeros"}, "moving_variance_initializer": {"config": {}, "class_name": "Ones"}, "axis": 3, "scale": false, "gamma_initializer": {"config": {}, "class_name": "Ones"}, "trainable": false, "beta_regularizer": null, "name": "batch_normalization_8", "epsilon": 0.001, "beta_initializer": {"config": {}, "class_name": "Zeros"}, "center": true, "momentum": 0.99, "gamma_regularizer": null, "beta_constraint": null, "gamma_constraint": null}, "name": "batch_normalization_8", "class_name": "BatchNormalization", "inbound_nodes": [[["conv2d_8", 0, 0, {}]]]}, {"config": {"moving_mean_initializer": {"config": {}, "class_name": "Zeros"}, "moving_variance_initializer": {"config": {}, "class_name": "Ones"}, "axis": 3, "scale": false, "gamma_initializer": {"config": {}, "class_name": "Ones"}, "trainable": false, "beta_regularizer": null, "name": "batch_normalization_11", "epsilon": 0.001, "beta_initializer": {"config": {}, "class_name": "Zeros"}, "center": true, "momentum": 0.99, "gamma_regularizer": null, "beta_constraint": null, "gamma_constraint": null}, "name": "batch_normalization_11", "class_name": "BatchNormalization", "inbound_nodes": [[["conv2d_11", 0, 0, {}]]]}, {"config": {"moving_mean_initializer": {"config": {}, "class_name": "Zeros"}, "moving_variance_initializer": {"config": {}, "class_name": "Ones"}, "axis": 3, "scale": false, "gamma_initializer": {"config": {}, "class_name": "Ones"}, "trainable": false, "beta_regularizer": null, "name": "batch_normalization_12", "epsilon": 0.001, "beta_initializer": {"config": {}, "class_name": "Zeros"}, "center": true, "momentum": 0.99, "gamma_regularizer": null, "beta_constraint": null, "gamma_constraint": null}, "name": "batch_normalization_12", "class_name": "BatchNormalization", "inbound_nodes": [[["conv2d_12", 0, 0, {}]]]}, {"config": {"activation": "relu", "trainable": false, "name": "activation_6"}, "name": "activation_6", "class_name": "Activation", "inbound_nodes": [[["batch_normalization_6", 0, 0, {}]]]}, {"config": {"activation": "relu", "trainable": false, "name": "activation_8"}, "name": "activation_8", "class_name": "Activation", "inbound_nodes": [[["batch_normalization_8", 0, 0, {}]]]}, {"config": {"activation": "relu", "trainable": false, "name": "activation_11"}, "name": "activation_11", "class_name": "Activation", "inbound_nodes": [[["batch_normalization_11", 0, 0, {}]]]}, {"config": {"activation": "relu", "trainable": false, "name": "activation_12"}, "name": "activation_12", "class_name": "Activation", "inbound_nodes": [[["batch_normalization_12", 0, 0, {}]]]}, {"config": {"trainable": false, "axis": 3, "name": "mixed0"}, "name": "mixed0", "class_name": "Concatenate", "inbound_nodes": [[["activation_6", 0, 0, {}], ["activation_8", 0, 0, {}], ["activation_11", 0, 0, {}], ["activation_12", 0, 0, {}]]]}, {"config": {"filters": 64, "padding": "same", "dilation_rate": [1, 1], "kernel_regularizer": null, "bias_constraint": null, "kernel_initializer": {"config": {"scale": 1.0, "distribution": "uniform", "seed": null, "mode": "fan_avg"}, "class_name": "VarianceScaling"}, "trainable": false, "name": "conv2d_16", "strides": [1, 1], "data_format": "channels_last", "activation": "linear", "kernel_constraint": null, "use_bias": false, "kernel_size": [1, 1], "bias_regularizer": null, "bias_initializer": {"config": {}, "class_name": "Zeros"}, "activity_regularizer": null}, "name": "conv2d_16", "class_name": "Conv2D", "inbound_nodes": [[["mixed0", 0, 0, {}]]]}, {"config": {"moving_mean_initializer": {"config": {}, "class_name": "Zeros"}, "moving_variance_initializer": {"config": {}, "class_name": "Ones"}, "axis": 3, "scale": false, "gamma_initializer": {"config": {}, "class_name": "Ones"}, "trainable": false, "beta_regularizer": null, "name": "batch_normalization_16", "epsilon": 0.001, "beta_initializer": {"config": {}, "class_name": "Zeros"}, "center": true, "momentum": 0.99, "gamma_regularizer": null, "beta_constraint": null, "gamma_constraint": null}, "name": "batch_normalization_16", "class_name": "BatchNormalization", "inbound_nodes": [[["conv2d_16", 0, 0, {}]]]}, {"config": {"activation": "relu", "trainable": false, "name": "activation_16"}, "name": "activation_16", "class_name": "Activation", "inbound_nodes": [[["batch_normalization_16", 0, 0, {}]]]}, {"config": {"filters": 48, "padding": "same", "dilation_rate": [1, 1], "kernel_regularizer": null, "bias_constraint": null, "kernel_initializer": {"config": {"scale": 1.0, "distribution": "uniform", "seed": null, "mode": "fan_avg"}, "class_name": "VarianceScaling"}, "trainable": false, "name": "conv2d_14", "strides": [1, 1], "data_format": "channels_last", "activation": "linear", "kernel_constraint": null, "use_bias": false, "kernel_size": [1, 1], "bias_regularizer": null, "bias_initializer": {"config": {}, "class_name": "Zeros"}, "activity_regularizer": null}, "name": "conv2d_14", "class_name": "Conv2D", "inbound_nodes": [[["mixed0", 0, 0, {}]]]}, {"config": {"filters": 96, "padding": "same", "dilation_rate": [1, 1], "kernel_regularizer": null, "bias_constraint": null, "kernel_initializer": {"config": {"scale": 1.0, "distribution": "uniform", "seed": null, "mode": "fan_avg"}, "class_name": "VarianceScaling"}, "trainable": false, "name": "conv2d_17", "strides": [1, 1], "data_format": "channels_last", "activation": "linear", "kernel_constraint": null, "use_bias": false, "kernel_size": [3, 3], "bias_regularizer": null, "bias_initializer": {"config": {}, "class_name": "Zeros"}, "activity_regularizer": null}, "name": "conv2d_17", "class_name": "Conv2D", "inbound_nodes": [[["activation_16", 0, 0, {}]]]}, {"config": {"moving_mean_initializer": {"config": {}, "class_name": "Zeros"}, "moving_variance_initializer": {"config": {}, "class_name": "Ones"}, "axis": 3, "scale": false, "gamma_initializer": {"config": {}, "class_name": "Ones"}, "trainable": false, "beta_regularizer": null, "name": "batch_normalization_14", "epsilon": 0.001, "beta_initializer": {"config": {}, "class_name": "Zeros"}, "center": true, "momentum": 0.99, "gamma_regularizer": null, "beta_constraint": null, "gamma_constraint": null}, "name": "batch_normalization_14", "class_name": "BatchNormalization", "inbound_nodes": [[["conv2d_14", 0, 0, {}]]]}, {"config": {"moving_mean_initializer": {"config": {}, "class_name": "Zeros"}, "moving_variance_initializer": {"config": {}, "class_name": "Ones"}, "axis": 3, "scale": false, "gamma_initializer": {"config": {}, "class_name": "Ones"}, "trainable": false, "beta_regularizer": null, "name": "batch_normalization_17", "epsilon": 0.001, "beta_initializer": {"config": {}, "class_name": "Zeros"}, "center": true, "momentum": 0.99, "gamma_regularizer": null, "beta_constraint": null, "gamma_constraint": null}, "name": "batch_normalization_17", "class_name": "BatchNormalization", "inbound_nodes": [[["conv2d_17", 0, 0, {}]]]}, {"config": {"activation": "relu", "trainable": false, "name": "activation_14"}, "name": "activation_14", "class_name": "Activation", "inbound_nodes": [[["batch_normalization_14", 0, 0, {}]]]}, {"config": {"activation": "relu", "trainable": false, "name": "activation_17"}, "name": "activation_17", "class_name": "Activation", "inbound_nodes": [[["batch_normalization_17", 0, 0, {}]]]}, {"config": {"padding": "same", "name": "average_pooling2d_2", "trainable": false, "pool_size": [3, 3], "strides": [1, 1], "data_format": "channels_last"}, "name": "average_pooling2d_2", "class_name": "AveragePooling2D", "inbound_nodes": [[["mixed0", 0, 0, {}]]]}, {"config": {"filters": 64, "padding": "same", "dilation_rate": [1, 1], "kernel_regularizer": null, "bias_constraint": null, "kernel_initializer": {"config": {"scale": 1.0, "distribution": "uniform", "seed": null, "mode": "fan_avg"}, "class_name": "VarianceScaling"}, "trainable": false, "name": "conv2d_13", "strides": [1, 1], "data_format": "channels_last", "activation": "linear", "kernel_constraint": null, "use_bias": false, "kernel_size": [1, 1], "bias_regularizer": null, "bias_initializer": {"config": {}, "class_name": "Zeros"}, "activity_regularizer": null}, "name": "conv2d_13", "class_name": "Conv2D", "inbound_nodes": [[["mixed0", 0, 0, {}]]]}, {"config": {"filters": 64, "padding": "same", "dilation_rate": [1, 1], "kernel_regularizer": null, "bias_constraint": null, "kernel_initializer": {"config": {"scale": 1.0, "distribution": "uniform", "seed": null, "mode": "fan_avg"}, "class_name": "VarianceScaling"}, "trainable": false, "name": "conv2d_15", "strides": [1, 1], "data_format": "channels_last", "activation": "linear", "kernel_constraint": null, "use_bias": false, "kernel_size": [5, 5], "bias_regularizer": null, "bias_initializer": {"config": {}, "class_name": "Zeros"}, "activity_regularizer": null}, "name": "conv2d_15", "class_name": "Conv2D", "inbound_nodes": [[["activation_14", 0, 0, {}]]]}, {"config": {"filters": 96, "padding": "same", "dilation_rate": [1, 1], "kernel_regularizer": null, "bias_constraint": null, "kernel_initializer": {"config": {"scale": 1.0, "distribution": "uniform", "seed": null, "mode": "fan_avg"}, "class_name": "VarianceScaling"}, "trainable": false, "name": "conv2d_18", "strides": [1, 1], "data_format": "channels_last", "activation": "linear", "kernel_constraint": null, "use_bias": false, "kernel_size": [3, 3], "bias_regularizer": null, "bias_initializer": {"config": {}, "class_name": "Zeros"}, "activity_regularizer": null}, "name": "conv2d_18", "class_name": "Conv2D", "inbound_nodes": [[["activation_17", 0, 0, {}]]]}, {"config": {"filters": 64, "padding": "same", "dilation_rate": [1, 1], "kernel_regularizer": null, "bias_constraint": null, "kernel_initializer": {"config": {"scale": 1.0, "distribution": "uniform", "seed": null, "mode": "fan_avg"}, "class_name": "VarianceScaling"}, "trainable": false, "name": "conv2d_19", "strides": [1, 1], "data_format": "channels_last", "activation": "linear", "kernel_constraint": null, "use_bias": false, "kernel_size": [1, 1], "bias_regularizer": null, "bias_initializer": {"config": {}, "class_name": "Zeros"}, "activity_regularizer": null}, "name": "conv2d_19", "class_name": "Conv2D", "inbound_nodes": [[["average_pooling2d_2", 0, 0, {}]]]}, {"config": {"moving_mean_initializer": {"config": {}, "class_name": "Zeros"}, "moving_variance_initializer": {"config": {}, "class_name": "Ones"}, "axis": 3, "scale": false, "gamma_initializer": {"config": {}, "class_name": "Ones"}, "trainable": false, "beta_regularizer": null, "name": "batch_normalization_13", "epsilon": 0.001, "beta_initializer": {"config": {}, "class_name": "Zeros"}, "center": true, "momentum": 0.99, "gamma_regularizer": null, "beta_constraint": null, "gamma_constraint": null}, "name": "batch_normalization_13", "class_name": "BatchNormalization", "inbound_nodes": [[["conv2d_13", 0, 0, {}]]]}, {"config": {"moving_mean_initializer": {"config": {}, "class_name": "Zeros"}, "moving_variance_initializer": {"config": {}, "class_name": "Ones"}, "axis": 3, "scale": false, "gamma_initializer": {"config": {}, "class_name": "Ones"}, "trainable": false, "beta_regularizer": null, "name": "batch_normalization_15", "epsilon": 0.001, "beta_initializer": {"config": {}, "class_name": "Zeros"}, "center": true, "momentum": 0.99, "gamma_regularizer": null, "beta_constraint": null, "gamma_constraint": null}, "name": "batch_normalization_15", "class_name": "BatchNormalization", "inbound_nodes": [[["conv2d_15", 0, 0, {}]]]}, {"config": {"moving_mean_initializer": {"config": {}, "class_name": "Zeros"}, "moving_variance_initializer": {"config": {}, "class_name": "Ones"}, "axis": 3, "scale": false, "gamma_initializer": {"config": {}, "class_name": "Ones"}, "trainable": false, "beta_regularizer": null, "name": "batch_normalization_18", "epsilon": 0.001, "beta_initializer": {"config": {}, "class_name": "Zeros"}, "center": true, "momentum": 0.99, "gamma_regularizer": null, "beta_constraint": null, "gamma_constraint": null}, "name": "batch_normalization_18", "class_name": "BatchNormalization", "inbound_nodes": [[["conv2d_18", 0, 0, {}]]]}, {"config": {"moving_mean_initializer": {"config": {}, "class_name": "Zeros"}, "moving_variance_initializer": {"config": {}, "class_name": "Ones"}, "axis": 3, "scale": false, "gamma_initializer": {"config": {}, "class_name": "Ones"}, "trainable": false, "beta_regularizer": null, "name": "batch_normalization_19", "epsilon": 0.001, "beta_initializer": {"config": {}, "class_name": "Zeros"}, "center": true, "momentum": 0.99, "gamma_regularizer": null, "beta_constraint": null, "gamma_constraint": null}, "name": "batch_normalization_19", "class_name": "BatchNormalization", "inbound_nodes": [[["conv2d_19", 0, 0, {}]]]}, {"config": {"activation": "relu", "trainable": false, "name": "activation_13"}, "name": "activation_13", "class_name": "Activation", "inbound_nodes": [[["batch_normalization_13", 0, 0, {}]]]}, {"config": {"activation": "relu", "trainable": false, "name": "activation_15"}, "name": "activation_15", "class_name": "Activation", "inbound_nodes": [[["batch_normalization_15", 0, 0, {}]]]}, {"config": {"activation": "relu", "trainable": false, "name": "activation_18"}, "name": "activation_18", "class_name": "Activation", "inbound_nodes": [[["batch_normalization_18", 0, 0, {}]]]}, {"config": {"activation": "relu", "trainable": false, "name": "activation_19"}, "name": "activation_19", "class_name": "Activation", "inbound_nodes": [[["batch_normalization_19", 0, 0, {}]]]}, {"config": {"trainable": false, "axis": 3, "name": "mixed1"}, "name": "mixed1", "class_name": "Concatenate", "inbound_nodes": [[["activation_13", 0, 0, {}], ["activation_15", 0, 0, {}], ["activation_18", 0, 0, {}], ["activation_19", 0, 0, {}]]]}, {"config": {"filters": 64, "padding": "same", "dilation_rate": [1, 1], "kernel_regularizer": null, "bias_constraint": null, "kernel_initializer": {"config": {"scale": 1.0, "distribution": "uniform", "seed": null, "mode": "fan_avg"}, "class_name": "VarianceScaling"}, "trainable": false, "name": "conv2d_23", "strides": [1, 1], "data_format": "channels_last", "activation": "linear", "kernel_constraint": null, "use_bias": false, "kernel_size": [1, 1], "bias_regularizer": null, "bias_initializer": {"config": {}, "class_name": "Zeros"}, "activity_regularizer": null}, "name": "conv2d_23", "class_name": "Conv2D", "inbound_nodes": [[["mixed1", 0, 0, {}]]]}, {"config": {"moving_mean_initializer": {"config": {}, "class_name": "Zeros"}, "moving_variance_initializer": {"config": {}, "class_name": "Ones"}, "axis": 3, "scale": false, "gamma_initializer": {"config": {}, "class_name": "Ones"}, "trainable": false, "beta_regularizer": null, "name": "batch_normalization_23", "epsilon": 0.001, "beta_initializer": {"config": {}, "class_name": "Zeros"}, "center": true, "momentum": 0.99, "gamma_regularizer": null, "beta_constraint": null, "gamma_constraint": null}, "name": "batch_normalization_23", "class_name": "BatchNormalization", "inbound_nodes": [[["conv2d_23", 0, 0, {}]]]}, {"config": {"activation": "relu", "trainable": false, "name": "activation_23"}, "name": "activation_23", "class_name": "Activation", "inbound_nodes": [[["batch_normalization_23", 0, 0, {}]]]}, {"config": {"filters": 48, "padding": "same", "dilation_rate": [1, 1], "kernel_regularizer": null, "bias_constraint": null, "kernel_initializer": {"config": {"scale": 1.0, "distribution": "uniform", "seed": null, "mode": "fan_avg"}, "class_name": "VarianceScaling"}, "trainable": false, "name": "conv2d_21", "strides": [1, 1], "data_format": "channels_last", "activation": "linear", "kernel_constraint": null, "use_bias": false, "kernel_size": [1, 1], "bias_regularizer": null, "bias_initializer": {"config": {}, "class_name": "Zeros"}, "activity_regularizer": null}, "name": "conv2d_21", "class_name": "Conv2D", "inbound_nodes": [[["mixed1", 0, 0, {}]]]}, {"config": {"filters": 96, "padding": "same", "dilation_rate": [1, 1], "kernel_regularizer": null, "bias_constraint": null, "kernel_initializer": {"config": {"scale": 1.0, "distribution": "uniform", "seed": null, "mode": "fan_avg"}, "class_name": "VarianceScaling"}, "trainable": false, "name": "conv2d_24", "strides": [1, 1], "data_format": "channels_last", "activation": "linear", "kernel_constraint": null, "use_bias": false, "kernel_size": [3, 3], "bias_regularizer": null, "bias_initializer": {"config": {}, "class_name": "Zeros"}, "activity_regularizer": null}, "name": "conv2d_24", "class_name": "Conv2D", "inbound_nodes": [[["activation_23", 0, 0, {}]]]}, {"config": {"moving_mean_initializer": {"config": {}, "class_name": "Zeros"}, "moving_variance_initializer": {"config": {}, "class_name": "Ones"}, "axis": 3, "scale": false, "gamma_initializer": {"config": {}, "class_name": "Ones"}, "trainable": false, "beta_regularizer": null, "name": "batch_normalization_21", "epsilon": 0.001, "beta_initializer": {"config": {}, "class_name": "Zeros"}, "center": true, "momentum": 0.99, "gamma_regularizer": null, "beta_constraint": null, "gamma_constraint": null}, "name": "batch_normalization_21", "class_name": "BatchNormalization", "inbound_nodes": [[["conv2d_21", 0, 0, {}]]]}, {"config": {"moving_mean_initializer": {"config": {}, "class_name": "Zeros"}, "moving_variance_initializer": {"config": {}, "class_name": "Ones"}, "axis": 3, "scale": false, "gamma_initializer": {"config": {}, "class_name": "Ones"}, "trainable": false, "beta_regularizer": null, "name": "batch_normalization_24", "epsilon": 0.001, "beta_initializer": {"config": {}, "class_name": "Zeros"}, "center": true, "momentum": 0.99, "gamma_regularizer": null, "beta_constraint": null, "gamma_constraint": null}, "name": "batch_normalization_24", "class_name": "BatchNormalization", "inbound_nodes": [[["conv2d_24", 0, 0, {}]]]}, {"config": {"activation": "relu", "trainable": false, "name": "activation_21"}, "name": "activation_21", "class_name": "Activation", "inbound_nodes": [[["batch_normalization_21", 0, 0, {}]]]}, {"config": {"activation": "relu", "trainable": false, "name": "activation_24"}, "name": "activation_24", "class_name": "Activation", "inbound_nodes": [[["batch_normalization_24", 0, 0, {}]]]}, {"config": {"padding": "same", "name": "average_pooling2d_3", "trainable": false, "pool_size": [3, 3], "strides": [1, 1], "data_format": "channels_last"}, "name": "average_pooling2d_3", "class_name": "AveragePooling2D", "inbound_nodes": [[["mixed1", 0, 0, {}]]]}, {"config": {"filters": 64, "padding": "same", "dilation_rate": [1, 1], "kernel_regularizer": null, "bias_constraint": null, "kernel_initializer": {"config": {"scale": 1.0, "distribution": "uniform", "seed": null, "mode": "fan_avg"}, "class_name": "VarianceScaling"}, "trainable": false, "name": "conv2d_20", "strides": [1, 1], "data_format": "channels_last", "activation": "linear", "kernel_constraint": null, "use_bias": false, "kernel_size": [1, 1], "bias_regularizer": null, "bias_initializer": {"config": {}, "class_name": "Zeros"}, "activity_regularizer": null}, "name": "conv2d_20", "class_name": "Conv2D", "inbound_nodes": [[["mixed1", 0, 0, {}]]]}, {"config": {"filters": 64, "padding": "same", "dilation_rate": [1, 1], "kernel_regularizer": null, "bias_constraint": null, "kernel_initializer": {"config": {"scale": 1.0, "distribution": "uniform", "seed": null, "mode": "fan_avg"}, "class_name": "VarianceScaling"}, "trainable": false, "name": "conv2d_22", "strides": [1, 1], "data_format": "channels_last", "activation": "linear", "kernel_constraint": null, "use_bias": false, "kernel_size": [5, 5], "bias_regularizer": null, "bias_initializer": {"config": {}, "class_name": "Zeros"}, "activity_regularizer": null}, "name": "conv2d_22", "class_name": "Conv2D", "inbound_nodes": [[["activation_21", 0, 0, {}]]]}, {"config": {"filters": 96, "padding": "same", "dilation_rate": [1, 1], "kernel_regularizer": null, "bias_constraint": null, "kernel_initializer": {"config": {"scale": 1.0, "distribution": "uniform", "seed": null, "mode": "fan_avg"}, "class_name": "VarianceScaling"}, "trainable": false, "name": "conv2d_25", "strides": [1, 1], "data_format": "channels_last", "activation": "linear", "kernel_constraint": null, "use_bias": false, "kernel_size": [3, 3], "bias_regularizer": null, "bias_initializer": {"config": {}, "class_name": "Zeros"}, "activity_regularizer": null}, "name": "conv2d_25", "class_name": "Conv2D", "inbound_nodes": [[["activation_24", 0, 0, {}]]]}, {"config": {"filters": 64, "padding": "same", "dilation_rate": [1, 1], "kernel_regularizer": null, "bias_constraint": null, "kernel_initializer": {"config": {"scale": 1.0, "distribution": "uniform", "seed": null, "mode": "fan_avg"}, "class_name": "VarianceScaling"}, "trainable": false, "name": "conv2d_26", "strides": [1, 1], "data_format": "channels_last", "activation": "linear", "kernel_constraint": null, "use_bias": false, "kernel_size": [1, 1], "bias_regularizer": null, "bias_initializer": {"config": {}, "class_name": "Zeros"}, "activity_regularizer": null}, "name": "conv2d_26", "class_name": "Conv2D", "inbound_nodes": [[["average_pooling2d_3", 0, 0, {}]]]}, {"config": {"moving_mean_initializer": {"config": {}, "class_name": "Zeros"}, "moving_variance_initializer": {"config": {}, "class_name": "Ones"}, "axis": 3, "scale": false, "gamma_initializer": {"config": {}, "class_name": "Ones"}, "trainable": false, "beta_regularizer": null, "name": "batch_normalization_20", "epsilon": 0.001, "beta_initializer": {"config": {}, "class_name": "Zeros"}, "center": true, "momentum": 0.99, "gamma_regularizer": null, "beta_constraint": null, "gamma_constraint": null}, "name": "batch_normalization_20", "class_name": "BatchNormalization", "inbound_nodes": [[["conv2d_20", 0, 0, {}]]]}, {"config": {"moving_mean_initializer": {"config": {}, "class_name": "Zeros"}, "moving_variance_initializer": {"config": {}, "class_name": "Ones"}, "axis": 3, "scale": false, "gamma_initializer": {"config": {}, "class_name": "Ones"}, "trainable": false, "beta_regularizer": null, "name": "batch_normalization_22", "epsilon": 0.001, "beta_initializer": {"config": {}, "class_name": "Zeros"}, "center": true, "momentum": 0.99, "gamma_regularizer": null, "beta_constraint": null, "gamma_constraint": null}, "name": "batch_normalization_22", "class_name": "BatchNormalization", "inbound_nodes": [[["conv2d_22", 0, 0, {}]]]}, {"config": {"moving_mean_initializer": {"config": {}, "class_name": "Zeros"}, "moving_variance_initializer": {"config": {}, "class_name": "Ones"}, "axis": 3, "scale": false, "gamma_initializer": {"config": {}, "class_name": "Ones"}, "trainable": false, "beta_regularizer": null, "name": "batch_normalization_25", "epsilon": 0.001, "beta_initializer": {"config": {}, "class_name": "Zeros"}, "center": true, "momentum": 0.99, "gamma_regularizer": null, "beta_constraint": null, "gamma_constraint": null}, "name": "batch_normalization_25", "class_name": "BatchNormalization", "inbound_nodes": [[["conv2d_25", 0, 0, {}]]]}, {"config": {"moving_mean_initializer": {"config": {}, "class_name": "Zeros"}, "moving_variance_initializer": {"config": {}, "class_name": "Ones"}, "axis": 3, "scale": false, "gamma_initializer": {"config": {}, "class_name": "Ones"}, "trainable": false, "beta_regularizer": null, "name": "batch_normalization_26", "epsilon": 0.001, "beta_initializer": {"config": {}, "class_name": "Zeros"}, "center": true, "momentum": 0.99, "gamma_regularizer": null, "beta_constraint": null, "gamma_constraint": null}, "name": "batch_normalization_26", "class_name": "BatchNormalization", "inbound_nodes": [[["conv2d_26", 0, 0, {}]]]}, {"config": {"activation": "relu", "trainable": false, "name": "activation_20"}, "name": "activation_20", "class_name": "Activation", "inbound_nodes": [[["batch_normalization_20", 0, 0, {}]]]}, {"config": {"activation": "relu", "trainable": false, "name": "activation_22"}, "name": "activation_22", "class_name": "Activation", "inbound_nodes": [[["batch_normalization_22", 0, 0, {}]]]}, {"config": {"activation": "relu", "trainable": false, "name": "activation_25"}, "name": "activation_25", "class_name": "Activation", "inbound_nodes": [[["batch_normalization_25", 0, 0, {}]]]}, {"config": {"activation": "relu", "trainable": false, "name": "activation_26"}, "name": "activation_26", "class_name": "Activation", "inbound_nodes": [[["batch_normalization_26", 0, 0, {}]]]}, {"config": {"trainable": false, "axis": 3, "name": "mixed2"}, "name": "mixed2", "class_name": "Concatenate", "inbound_nodes": [[["activation_20", 0, 0, {}], ["activation_22", 0, 0, {}], ["activation_25", 0, 0, {}], ["activation_26", 0, 0, {}]]]}, {"config": {"filters": 64, "padding": "same", "dilation_rate": [1, 1], "kernel_regularizer": null, "bias_constraint": null, "kernel_initializer": {"config": {"scale": 1.0, "distribution": "uniform", "seed": null, "mode": "fan_avg"}, "class_name": "VarianceScaling"}, "trainable": false, "name": "conv2d_28", "strides": [1, 1], "data_format": "channels_last", "activation": "linear", "kernel_constraint": null, "use_bias": false, "kernel_size": [1, 1], "bias_regularizer": null, "bias_initializer": {"config": {}, "class_name": "Zeros"}, "activity_regularizer": null}, "name": "conv2d_28", "class_name": "Conv2D", "inbound_nodes": [[["mixed2", 0, 0, {}]]]}, {"config": {"moving_mean_initializer": {"config": {}, "class_name": "Zeros"}, "moving_variance_initializer": {"config": {}, "class_name": "Ones"}, "axis": 3, "scale": false, "gamma_initializer": {"config": {}, "class_name": "Ones"}, "trainable": false, "beta_regularizer": null, "name": "batch_normalization_28", "epsilon": 0.001, "beta_initializer": {"config": {}, "class_name": "Zeros"}, "center": true, "momentum": 0.99, "gamma_regularizer": null, "beta_constraint": null, "gamma_constraint": null}, "name": "batch_normalization_28", "class_name": "BatchNormalization", "inbound_nodes": [[["conv2d_28", 0, 0, {}]]]}, {"config": {"activation": "relu", "trainable": false, "name": "activation_28"}, "name": "activation_28", "class_name": "Activation", "inbound_nodes": [[["batch_normalization_28", 0, 0, {}]]]}, {"config": {"filters": 96, "padding": "same", "dilation_rate": [1, 1], "kernel_regularizer": null, "bias_constraint": null, "kernel_initializer": {"config": {"scale": 1.0, "distribution": "uniform", "seed": null, "mode": "fan_avg"}, "class_name": "VarianceScaling"}, "trainable": false, "name": "conv2d_29", "strides": [1, 1], "data_format": "channels_last", "activation": "linear", "kernel_constraint": null, "use_bias": false, "kernel_size": [3, 3], "bias_regularizer": null, "bias_initializer": {"config": {}, "class_name": "Zeros"}, "activity_regularizer": null}, "name": "conv2d_29", "class_name": "Conv2D", "inbound_nodes": [[["activation_28", 0, 0, {}]]]}, {"config": {"moving_mean_initializer": {"config": {}, "class_name": "Zeros"}, "moving_variance_initializer": {"config": {}, "class_name": "Ones"}, "axis": 3, "scale": false, "gamma_initializer": {"config": {}, "class_name": "Ones"}, "trainable": false, "beta_regularizer": null, "name": "batch_normalization_29", "epsilon": 0.001, "beta_initializer": {"config": {}, "class_name": "Zeros"}, "center": true, "momentum": 0.99, "gamma_regularizer": null, "beta_constraint": null, "gamma_constraint": null}, "name": "batch_normalization_29", "class_name": "BatchNormalization", "inbound_nodes": [[["conv2d_29", 0, 0, {}]]]}, {"config": {"activation": "relu", "trainable": false, "name": "activation_29"}, "name": "activation_29", "class_name": "Activation", "inbound_nodes": [[["batch_normalization_29", 0, 0, {}]]]}, {"config": {"filters": 384, "padding": "valid", "dilation_rate": [1, 1], "kernel_regularizer": null, "bias_constraint": null, "kernel_initializer": {"config": {"scale": 1.0, "distribution": "uniform", "seed": null, "mode": "fan_avg"}, "class_name": "VarianceScaling"}, "trainable": false, "name": "conv2d_27", "strides": [2, 2], "data_format": "channels_last", "activation": "linear", "kernel_constraint": null, "use_bias": false, "kernel_size": [3, 3], "bias_regularizer": null, "bias_initializer": {"config": {}, "class_name": "Zeros"}, "activity_regularizer": null}, "name": "conv2d_27", "class_name": "Conv2D", "inbound_nodes": [[["mixed2", 0, 0, {}]]]}, {"config": {"filters": 96, "padding": "valid", "dilation_rate": [1, 1], "kernel_regularizer": null, "bias_constraint": null, "kernel_initializer": {"config": {"scale": 1.0, "distribution": "uniform", "seed": null, "mode": "fan_avg"}, "class_name": "VarianceScaling"}, "trainable": false, "name": "conv2d_30", "strides": [2, 2], "data_format": "channels_last", "activation": "linear", "kernel_constraint": null, "use_bias": false, "kernel_size": [3, 3], "bias_regularizer": null, "bias_initializer": {"config": {}, "class_name": "Zeros"}, "activity_regularizer": null}, "name": "conv2d_30", "class_name": "Conv2D", "inbound_nodes": [[["activation_29", 0, 0, {}]]]}, {"config": {"moving_mean_initializer": {"config": {}, "class_name": "Zeros"}, "moving_variance_initializer": {"config": {}, "class_name": "Ones"}, "axis": 3, "scale": false, "gamma_initializer": {"config": {}, "class_name": "Ones"}, "trainable": false, "beta_regularizer": null, "name": "batch_normalization_27", "epsilon": 0.001, "beta_initializer": {"config": {}, "class_name": "Zeros"}, "center": true, "momentum": 0.99, "gamma_regularizer": null, "beta_constraint": null, "gamma_constraint": null}, "name": "batch_normalization_27", "class_name": "BatchNormalization", "inbound_nodes": [[["conv2d_27", 0, 0, {}]]]}, {"config": {"moving_mean_initializer": {"config": {}, "class_name": "Zeros"}, "moving_variance_initializer": {"config": {}, "class_name": "Ones"}, "axis": 3, "scale": false, "gamma_initializer": {"config": {}, "class_name": "Ones"}, "trainable": false, "beta_regularizer": null, "name": "batch_normalization_30", "epsilon": 0.001, "beta_initializer": {"config": {}, "class_name": "Zeros"}, "center": true, "momentum": 0.99, "gamma_regularizer": null, "beta_constraint": null, "gamma_constraint": null}, "name": "batch_normalization_30", "class_name": "BatchNormalization", "inbound_nodes": [[["conv2d_30", 0, 0, {}]]]}, {"config": {"activation": "relu", "trainable": false, "name": "activation_27"}, "name": "activation_27", "class_name": "Activation", "inbound_nodes": [[["batch_normalization_27", 0, 0, {}]]]}, {"config": {"activation": "relu", "trainable": false, "name": "activation_30"}, "name": "activation_30", "class_name": "Activation", "inbound_nodes": [[["batch_normalization_30", 0, 0, {}]]]}, {"config": {"padding": "valid", "name": "max_pooling2d_3", "trainable": false, "pool_size": [3, 3], "strides": [2, 2], "data_format": "channels_last"}, "name": "max_pooling2d_3", "class_name": "MaxPooling2D", "inbound_nodes": [[["mixed2", 0, 0, {}]]]}, {"config": {"trainable": false, "axis": 3, "name": "mixed3"}, "name": "mixed3", "class_name": "Concatenate", "inbound_nodes": [[["activation_27", 0, 0, {}], ["activation_30", 0, 0, {}], ["max_pooling2d_3", 0, 0, {}]]]}, {"config": {"filters": 128, "padding": "same", "dilation_rate": [1, 1], "kernel_regularizer": null, "bias_constraint": null, "kernel_initializer": {"config": {"scale": 1.0, "distribution": "uniform", "seed": null, "mode": "fan_avg"}, "class_name": "VarianceScaling"}, "trainable": false, "name": "conv2d_35", "strides": [1, 1], "data_format": "channels_last", "activation": "linear", "kernel_constraint": null, "use_bias": false, "kernel_size": [1, 1], "bias_regularizer": null, "bias_initializer": {"config": {}, "class_name": "Zeros"}, "activity_regularizer": null}, "name": "conv2d_35", "class_name": "Conv2D", "inbound_nodes": [[["mixed3", 0, 0, {}]]]}, {"config": {"moving_mean_initializer": {"config": {}, "class_name": "Zeros"}, "moving_variance_initializer": {"config": {}, "class_name": "Ones"}, "axis": 3, "scale": false, "gamma_initializer": {"config": {}, "class_name": "Ones"}, "trainable": false, "beta_regularizer": null, "name": "batch_normalization_35", "epsilon": 0.001, "beta_initializer": {"config": {}, "class_name": "Zeros"}, "center": true, "momentum": 0.99, "gamma_regularizer": null, "beta_constraint": null, "gamma_constraint": null}, "name": "batch_normalization_35", "class_name": "BatchNormalization", "inbound_nodes": [[["conv2d_35", 0, 0, {}]]]}, {"config": {"activation": "relu", "trainable": false, "name": "activation_35"}, "name": "activation_35", "class_name": "Activation", "inbound_nodes": [[["batch_normalization_35", 0, 0, {}]]]}, {"config": {"filters": 128, "padding": "same", "dilation_rate": [1, 1], "kernel_regularizer": null, "bias_constraint": null, "kernel_initializer": {"config": {"scale": 1.0, "distribution": "uniform", "seed": null, "mode": "fan_avg"}, "class_name": "VarianceScaling"}, "trainable": false, "name": "conv2d_36", "strides": [1, 1], "data_format": "channels_last", "activation": "linear", "kernel_constraint": null, "use_bias": false, "kernel_size": [7, 1], "bias_regularizer": null, "bias_initializer": {"config": {}, "class_name": "Zeros"}, "activity_regularizer": null}, "name": "conv2d_36", "class_name": "Conv2D", "inbound_nodes": [[["activation_35", 0, 0, {}]]]}, {"config": {"moving_mean_initializer": {"config": {}, "class_name": "Zeros"}, "moving_variance_initializer": {"config": {}, "class_name": "Ones"}, "axis": 3, "scale": false, "gamma_initializer": {"config": {}, "class_name": "Ones"}, "trainable": false, "beta_regularizer": null, "name": "batch_normalization_36", "epsilon": 0.001, "beta_initializer": {"config": {}, "class_name": "Zeros"}, "center": true, "momentum": 0.99, "gamma_regularizer": null, "beta_constraint": null, "gamma_constraint": null}, "name": "batch_normalization_36", "class_name": "BatchNormalization", "inbound_nodes": [[["conv2d_36", 0, 0, {}]]]}, {"config": {"activation": "relu", "trainable": false, "name": "activation_36"}, "name": "activation_36", "class_name": "Activation", "inbound_nodes": [[["batch_normalization_36", 0, 0, {}]]]}, {"config": {"filters": 128, "padding": "same", "dilation_rate": [1, 1], "kernel_regularizer": null, "bias_constraint": null, "kernel_initializer": {"config": {"scale": 1.0, "distribution": "uniform", "seed": null, "mode": "fan_avg"}, "class_name": "VarianceScaling"}, "trainable": false, "name": "conv2d_32", "strides": [1, 1], "data_format": "channels_last", "activation": "linear", "kernel_constraint": null, "use_bias": false, "kernel_size": [1, 1], "bias_regularizer": null, "bias_initializer": {"config": {}, "class_name": "Zeros"}, "activity_regularizer": null}, "name": "conv2d_32", "class_name": "Conv2D", "inbound_nodes": [[["mixed3", 0, 0, {}]]]}, {"config": {"filters": 128, "padding": "same", "dilation_rate": [1, 1], "kernel_regularizer": null, "bias_constraint": null, "kernel_initializer": {"config": {"scale": 1.0, "distribution": "uniform", "seed": null, "mode": "fan_avg"}, "class_name": "VarianceScaling"}, "trainable": false, "name": "conv2d_37", "strides": [1, 1], "data_format": "channels_last", "activation": "linear", "kernel_constraint": null, "use_bias": false, "kernel_size": [1, 7], "bias_regularizer": null, "bias_initializer": {"config": {}, "class_name": "Zeros"}, "activity_regularizer": null}, "name": "conv2d_37", "class_name": "Conv2D", "inbound_nodes": [[["activation_36", 0, 0, {}]]]}, {"config": {"moving_mean_initializer": {"config": {}, "class_name": "Zeros"}, "moving_variance_initializer": {"config": {}, "class_name": "Ones"}, "axis": 3, "scale": false, "gamma_initializer": {"config": {}, "class_name": "Ones"}, "trainable": false, "beta_regularizer": null, "name": "batch_normalization_32", "epsilon": 0.001, "beta_initializer": {"config": {}, "class_name": "Zeros"}, "center": true, "momentum": 0.99, "gamma_regularizer": null, "beta_constraint": null, "gamma_constraint": null}, "name": "batch_normalization_32", "class_name": "BatchNormalization", "inbound_nodes": [[["conv2d_32", 0, 0, {}]]]}, {"config": {"moving_mean_initializer": {"config": {}, "class_name": "Zeros"}, "moving_variance_initializer": {"config": {}, "class_name": "Ones"}, "axis": 3, "scale": false, "gamma_initializer": {"config": {}, "class_name": "Ones"}, "trainable": false, "beta_regularizer": null, "name": "batch_normalization_37", "epsilon": 0.001, "beta_initializer": {"config": {}, "class_name": "Zeros"}, "center": true, "momentum": 0.99, "gamma_regularizer": null, "beta_constraint": null, "gamma_constraint": null}, "name": "batch_normalization_37", "class_name": "BatchNormalization", "inbound_nodes": [[["conv2d_37", 0, 0, {}]]]}, {"config": {"activation": "relu", "trainable": false, "name": "activation_32"}, "name": "activation_32", "class_name": "Activation", "inbound_nodes": [[["batch_normalization_32", 0, 0, {}]]]}, {"config": {"activation": "relu", "trainable": false, "name": "activation_37"}, "name": "activation_37", "class_name": "Activation", "inbound_nodes": [[["batch_normalization_37", 0, 0, {}]]]}, {"config": {"filters": 128, "padding": "same", "dilation_rate": [1, 1], "kernel_regularizer": null, "bias_constraint": null, "kernel_initializer": {"config": {"scale": 1.0, "distribution": "uniform", "seed": null, "mode": "fan_avg"}, "class_name": "VarianceScaling"}, "trainable": false, "name": "conv2d_33", "strides": [1, 1], "data_format": "channels_last", "activation": "linear", "kernel_constraint": null, "use_bias": false, "kernel_size": [1, 7], "bias_regularizer": null, "bias_initializer": {"config": {}, "class_name": "Zeros"}, "activity_regularizer": null}, "name": "conv2d_33", "class_name": "Conv2D", "inbound_nodes": [[["activation_32", 0, 0, {}]]]}, {"config": {"filters": 128, "padding": "same", "dilation_rate": [1, 1], "kernel_regularizer": null, "bias_constraint": null, "kernel_initializer": {"config": {"scale": 1.0, "distribution": "uniform", "seed": null, "mode": "fan_avg"}, "class_name": "VarianceScaling"}, "trainable": false, "name": "conv2d_38", "strides": [1, 1], "data_format": "channels_last", "activation": "linear", "kernel_constraint": null, "use_bias": false, "kernel_size": [7, 1], "bias_regularizer": null, "bias_initializer": {"config": {}, "class_name": "Zeros"}, "activity_regularizer": null}, "name": "conv2d_38", "class_name": "Conv2D", "inbound_nodes": [[["activation_37", 0, 0, {}]]]}, {"config": {"moving_mean_initializer": {"config": {}, "class_name": "Zeros"}, "moving_variance_initializer": {"config": {}, "class_name": "Ones"}, "axis": 3, "scale": false, "gamma_initializer": {"config": {}, "class_name": "Ones"}, "trainable": false, "beta_regularizer": null, "name": "batch_normalization_33", "epsilon": 0.001, "beta_initializer": {"config": {}, "class_name": "Zeros"}, "center": true, "momentum": 0.99, "gamma_regularizer": null, "beta_constraint": null, "gamma_constraint": null}, "name": "batch_normalization_33", "class_name": "BatchNormalization", "inbound_nodes": [[["conv2d_33", 0, 0, {}]]]}, {"config": {"moving_mean_initializer": {"config": {}, "class_name": "Zeros"}, "moving_variance_initializer": {"config": {}, "class_name": "Ones"}, "axis": 3, "scale": false, "gamma_initializer": {"config": {}, "class_name": "Ones"}, "trainable": false, "beta_regularizer": null, "name": "batch_normalization_38", "epsilon": 0.001, "beta_initializer": {"config": {}, "class_name": "Zeros"}, "center": true, "momentum": 0.99, "gamma_regularizer": null, "beta_constraint": null, "gamma_constraint": null}, "name": "batch_normalization_38", "class_name": "BatchNormalization", "inbound_nodes": [[["conv2d_38", 0, 0, {}]]]}, {"config": {"activation": "relu", "trainable": false, "name": "activation_33"}, "name": "activation_33", "class_name": "Activation", "inbound_nodes": [[["batch_normalization_33", 0, 0, {}]]]}, {"config": {"activation": "relu", "trainable": false, "name": "activation_38"}, "name": "activation_38", "class_name": "Activation", "inbound_nodes": [[["batch_normalization_38", 0, 0, {}]]]}, {"config": {"padding": "same", "name": "average_pooling2d_4", "trainable": false, "pool_size": [3, 3], "strides": [1, 1], "data_format": "channels_last"}, "name": "average_pooling2d_4", "class_name": "AveragePooling2D", "inbound_nodes": [[["mixed3", 0, 0, {}]]]}, {"config": {"filters": 192, "padding": "same", "dilation_rate": [1, 1], "kernel_regularizer": null, "bias_constraint": null, "kernel_initializer": {"config": {"scale": 1.0, "distribution": "uniform", "seed": null, "mode": "fan_avg"}, "class_name": "VarianceScaling"}, "trainable": false, "name": "conv2d_31", "strides": [1, 1], "data_format": "channels_last", "activation": "linear", "kernel_constraint": null, "use_bias": false, "kernel_size": [1, 1], "bias_regularizer": null, "bias_initializer": {"config": {}, "class_name": "Zeros"}, "activity_regularizer": null}, "name": "conv2d_31", "class_name": "Conv2D", "inbound_nodes": [[["mixed3", 0, 0, {}]]]}, {"config": {"filters": 192, "padding": "same", "dilation_rate": [1, 1], "kernel_regularizer": null, "bias_constraint": null, "kernel_initializer": {"config": {"scale": 1.0, "distribution": "uniform", "seed": null, "mode": "fan_avg"}, "class_name": "VarianceScaling"}, "trainable": false, "name": "conv2d_34", "strides": [1, 1], "data_format": "channels_last", "activation": "linear", "kernel_constraint": null, "use_bias": false, "kernel_size": [7, 1], "bias_regularizer": null, "bias_initializer": {"config": {}, "class_name": "Zeros"}, "activity_regularizer": null}, "name": "conv2d_34", "class_name": "Conv2D", "inbound_nodes": [[["activation_33", 0, 0, {}]]]}, {"config": {"filters": 192, "padding": "same", "dilation_rate": [1, 1], "kernel_regularizer": null, "bias_constraint": null, "kernel_initializer": {"config": {"scale": 1.0, "distribution": "uniform", "seed": null, "mode": "fan_avg"}, "class_name": "VarianceScaling"}, "trainable": false, "name": "conv2d_39", "strides": [1, 1], "data_format": "channels_last", "activation": "linear", "kernel_constraint": null, "use_bias": false, "kernel_size": [1, 7], "bias_regularizer": null, "bias_initializer": {"config": {}, "class_name": "Zeros"}, "activity_regularizer": null}, "name": "conv2d_39", "class_name": "Conv2D", "inbound_nodes": [[["activation_38", 0, 0, {}]]]}, {"config": {"filters": 192, "padding": "same", "dilation_rate": [1, 1], "kernel_regularizer": null, "bias_constraint": null, "kernel_initializer": {"config": {"scale": 1.0, "distribution": "uniform", "seed": null, "mode": "fan_avg"}, "class_name": "VarianceScaling"}, "trainable": false, "name": "conv2d_40", "strides": [1, 1], "data_format": "channels_last", "activation": "linear", "kernel_constraint": null, "use_bias": false, "kernel_size": [1, 1], "bias_regularizer": null, "bias_initializer": {"config": {}, "class_name": "Zeros"}, "activity_regularizer": null}, "name": "conv2d_40", "class_name": "Conv2D", "inbound_nodes": [[["average_pooling2d_4", 0, 0, {}]]]}, {"config": {"moving_mean_initializer": {"config": {}, "class_name": "Zeros"}, "moving_variance_initializer": {"config": {}, "class_name": "Ones"}, "axis": 3, "scale": false, "gamma_initializer": {"config": {}, "class_name": "Ones"}, "trainable": false, "beta_regularizer": null, "name": "batch_normalization_31", "epsilon": 0.001, "beta_initializer": {"config": {}, "class_name": "Zeros"}, "center": true, "momentum": 0.99, "gamma_regularizer": null, "beta_constraint": null, "gamma_constraint": null}, "name": "batch_normalization_31", "class_name": "BatchNormalization", "inbound_nodes": [[["conv2d_31", 0, 0, {}]]]}, {"config": {"moving_mean_initializer": {"config": {}, "class_name": "Zeros"}, "moving_variance_initializer": {"config": {}, "class_name": "Ones"}, "axis": 3, "scale": false, "gamma_initializer": {"config": {}, "class_name": "Ones"}, "trainable": false, "beta_regularizer": null, "name": "batch_normalization_34", "epsilon": 0.001, "beta_initializer": {"config": {}, "class_name": "Zeros"}, "center": true, "momentum": 0.99, "gamma_regularizer": null, "beta_constraint": null, "gamma_constraint": null}, "name": "batch_normalization_34", "class_name": "BatchNormalization", "inbound_nodes": [[["conv2d_34", 0, 0, {}]]]}, {"config": {"moving_mean_initializer": {"config": {}, "class_name": "Zeros"}, "moving_variance_initializer": {"config": {}, "class_name": "Ones"}, "axis": 3, "scale": false, "gamma_initializer": {"config": {}, "class_name": "Ones"}, "trainable": false, "beta_regularizer": null, "name": "batch_normalization_39", "epsilon": 0.001, "beta_initializer": {"config": {}, "class_name": "Zeros"}, "center": true, "momentum": 0.99, "gamma_regularizer": null, "beta_constraint": null, "gamma_constraint": null}, "name": "batch_normalization_39", "class_name": "BatchNormalization", "inbound_nodes": [[["conv2d_39", 0, 0, {}]]]}, {"config": {"moving_mean_initializer": {"config": {}, "class_name": "Zeros"}, "moving_variance_initializer": {"config": {}, "class_name": "Ones"}, "axis": 3, "scale": false, "gamma_initializer": {"config": {}, "class_name": "Ones"}, "trainable": false, "beta_regularizer": null, "name": "batch_normalization_40", "epsilon": 0.001, "beta_initializer": {"config": {}, "class_name": "Zeros"}, "center": true, "momentum": 0.99, "gamma_regularizer": null, "beta_constraint": null, "gamma_constraint": null}, "name": "batch_normalization_40", "class_name": "BatchNormalization", "inbound_nodes": [[["conv2d_40", 0, 0, {}]]]}, {"config": {"activation": "relu", "trainable": false, "name": "activation_31"}, "name": "activation_31", "class_name": "Activation", "inbound_nodes": [[["batch_normalization_31", 0, 0, {}]]]}, {"config": {"activation": "relu", "trainable": false, "name": "activation_34"}, "name": "activation_34", "class_name": "Activation", "inbound_nodes": [[["batch_normalization_34", 0, 0, {}]]]}, {"config": {"activation": "relu", "trainable": false, "name": "activation_39"}, "name": "activation_39", "class_name": "Activation", "inbound_nodes": [[["batch_normalization_39", 0, 0, {}]]]}, {"config": {"activation": "relu", "trainable": false, "name": "activation_40"}, "name": "activation_40", "class_name": "Activation", "inbound_nodes": [[["batch_normalization_40", 0, 0, {}]]]}, {"config": {"trainable": false, "axis": 3, "name": "mixed4"}, "name": "mixed4", "class_name": "Concatenate", "inbound_nodes": [[["activation_31", 0, 0, {}], ["activation_34", 0, 0, {}], ["activation_39", 0, 0, {}], ["activation_40", 0, 0, {}]]]}, {"config": {"filters": 160, "padding": "same", "dilation_rate": [1, 1], "kernel_regularizer": null, "bias_constraint": null, "kernel_initializer": {"config": {"scale": 1.0, "distribution": "uniform", "seed": null, "mode": "fan_avg"}, "class_name": "VarianceScaling"}, "trainable": false, "name": "conv2d_45", "strides": [1, 1], "data_format": "channels_last", "activation": "linear", "kernel_constraint": null, "use_bias": false, "kernel_size": [1, 1], "bias_regularizer": null, "bias_initializer": {"config": {}, "class_name": "Zeros"}, "activity_regularizer": null}, "name": "conv2d_45", "class_name": "Conv2D", "inbound_nodes": [[["mixed4", 0, 0, {}]]]}, {"config": {"moving_mean_initializer": {"config": {}, "class_name": "Zeros"}, "moving_variance_initializer": {"config": {}, "class_name": "Ones"}, "axis": 3, "scale": false, "gamma_initializer": {"config": {}, "class_name": "Ones"}, "trainable": false, "beta_regularizer": null, "name": "batch_normalization_45", "epsilon": 0.001, "beta_initializer": {"config": {}, "class_name": "Zeros"}, "center": true, "momentum": 0.99, "gamma_regularizer": null, "beta_constraint": null, "gamma_constraint": null}, "name": "batch_normalization_45", "class_name": "BatchNormalization", "inbound_nodes": [[["conv2d_45", 0, 0, {}]]]}, {"config": {"activation": "relu", "trainable": false, "name": "activation_45"}, "name": "activation_45", "class_name": "Activation", "inbound_nodes": [[["batch_normalization_45", 0, 0, {}]]]}, {"config": {"filters": 160, "padding": "same", "dilation_rate": [1, 1], "kernel_regularizer": null, "bias_constraint": null, "kernel_initializer": {"config": {"scale": 1.0, "distribution": "uniform", "seed": null, "mode": "fan_avg"}, "class_name": "VarianceScaling"}, "trainable": false, "name": "conv2d_46", "strides": [1, 1], "data_format": "channels_last", "activation": "linear", "kernel_constraint": null, "use_bias": false, "kernel_size": [7, 1], "bias_regularizer": null, "bias_initializer": {"config": {}, "class_name": "Zeros"}, "activity_regularizer": null}, "name": "conv2d_46", "class_name": "Conv2D", "inbound_nodes": [[["activation_45", 0, 0, {}]]]}, {"config": {"moving_mean_initializer": {"config": {}, "class_name": "Zeros"}, "moving_variance_initializer": {"config": {}, "class_name": "Ones"}, "axis": 3, "scale": false, "gamma_initializer": {"config": {}, "class_name": "Ones"}, "trainable": false, "beta_regularizer": null, "name": "batch_normalization_46", "epsilon": 0.001, "beta_initializer": {"config": {}, "class_name": "Zeros"}, "center": true, "momentum": 0.99, "gamma_regularizer": null, "beta_constraint": null, "gamma_constraint": null}, "name": "batch_normalization_46", "class_name": "BatchNormalization", "inbound_nodes": [[["conv2d_46", 0, 0, {}]]]}, {"config": {"activation": "relu", "trainable": false, "name": "activation_46"}, "name": "activation_46", "class_name": "Activation", "inbound_nodes": [[["batch_normalization_46", 0, 0, {}]]]}, {"config": {"filters": 160, "padding": "same", "dilation_rate": [1, 1], "kernel_regularizer": null, "bias_constraint": null, "kernel_initializer": {"config": {"scale": 1.0, "distribution": "uniform", "seed": null, "mode": "fan_avg"}, "class_name": "VarianceScaling"}, "trainable": false, "name": "conv2d_42", "strides": [1, 1], "data_format": "channels_last", "activation": "linear", "kernel_constraint": null, "use_bias": false, "kernel_size": [1, 1], "bias_regularizer": null, "bias_initializer": {"config": {}, "class_name": "Zeros"}, "activity_regularizer": null}, "name": "conv2d_42", "class_name": "Conv2D", "inbound_nodes": [[["mixed4", 0, 0, {}]]]}, {"config": {"filters": 160, "padding": "same", "dilation_rate": [1, 1], "kernel_regularizer": null, "bias_constraint": null, "kernel_initializer": {"config": {"scale": 1.0, "distribution": "uniform", "seed": null, "mode": "fan_avg"}, "class_name": "VarianceScaling"}, "trainable": false, "name": "conv2d_47", "strides": [1, 1], "data_format": "channels_last", "activation": "linear", "kernel_constraint": null, "use_bias": false, "kernel_size": [1, 7], "bias_regularizer": null, "bias_initializer": {"config": {}, "class_name": "Zeros"}, "activity_regularizer": null}, "name": "conv2d_47", "class_name": "Conv2D", "inbound_nodes": [[["activation_46", 0, 0, {}]]]}, {"config": {"moving_mean_initializer": {"config": {}, "class_name": "Zeros"}, "moving_variance_initializer": {"config": {}, "class_name": "Ones"}, "axis": 3, "scale": false, "gamma_initializer": {"config": {}, "class_name": "Ones"}, "trainable": false, "beta_regularizer": null, "name": "batch_normalization_42", "epsilon": 0.001, "beta_initializer": {"config": {}, "class_name": "Zeros"}, "center": true, "momentum": 0.99, "gamma_regularizer": null, "beta_constraint": null, "gamma_constraint": null}, "name": "batch_normalization_42", "class_name": "BatchNormalization", "inbound_nodes": [[["conv2d_42", 0, 0, {}]]]}, {"config": {"moving_mean_initializer": {"config": {}, "class_name": "Zeros"}, "moving_variance_initializer": {"config": {}, "class_name": "Ones"}, "axis": 3, "scale": false, "gamma_initializer": {"config": {}, "class_name": "Ones"}, "trainable": false, "beta_regularizer": null, "name": "batch_normalization_47", "epsilon": 0.001, "beta_initializer": {"config": {}, "class_name": "Zeros"}, "center": true, "momentum": 0.99, "gamma_regularizer": null, "beta_constraint": null, "gamma_constraint": null}, "name": "batch_normalization_47", "class_name": "BatchNormalization", "inbound_nodes": [[["conv2d_47", 0, 0, {}]]]}, {"config": {"activation": "relu", "trainable": false, "name": "activation_42"}, "name": "activation_42", "class_name": "Activation", "inbound_nodes": [[["batch_normalization_42", 0, 0, {}]]]}, {"config": {"activation": "relu", "trainable": false, "name": "activation_47"}, "name": "activation_47", "class_name": "Activation", "inbound_nodes": [[["batch_normalization_47", 0, 0, {}]]]}, {"config": {"filters": 160, "padding": "same", "dilation_rate": [1, 1], "kernel_regularizer": null, "bias_constraint": null, "kernel_initializer": {"config": {"scale": 1.0, "distribution": "uniform", "seed": null, "mode": "fan_avg"}, "class_name": "VarianceScaling"}, "trainable": false, "name": "conv2d_43", "strides": [1, 1], "data_format": "channels_last", "activation": "linear", "kernel_constraint": null, "use_bias": false, "kernel_size": [1, 7], "bias_regularizer": null, "bias_initializer": {"config": {}, "class_name": "Zeros"}, "activity_regularizer": null}, "name": "conv2d_43", "class_name": "Conv2D", "inbound_nodes": [[["activation_42", 0, 0, {}]]]}, {"config": {"filters": 160, "padding": "same", "dilation_rate": [1, 1], "kernel_regularizer": null, "bias_constraint": null, "kernel_initializer": {"config": {"scale": 1.0, "distribution": "uniform", "seed": null, "mode": "fan_avg"}, "class_name": "VarianceScaling"}, "trainable": false, "name": "conv2d_48", "strides": [1, 1], "data_format": "channels_last", "activation": "linear", "kernel_constraint": null, "use_bias": false, "kernel_size": [7, 1], "bias_regularizer": null, "bias_initializer": {"config": {}, "class_name": "Zeros"}, "activity_regularizer": null}, "name": "conv2d_48", "class_name": "Conv2D", "inbound_nodes": [[["activation_47", 0, 0, {}]]]}, {"config": {"moving_mean_initializer": {"config": {}, "class_name": "Zeros"}, "moving_variance_initializer": {"config": {}, "class_name": "Ones"}, "axis": 3, "scale": false, "gamma_initializer": {"config": {}, "class_name": "Ones"}, "trainable": false, "beta_regularizer": null, "name": "batch_normalization_43", "epsilon": 0.001, "beta_initializer": {"config": {}, "class_name": "Zeros"}, "center": true, "momentum": 0.99, "gamma_regularizer": null, "beta_constraint": null, "gamma_constraint": null}, "name": "batch_normalization_43", "class_name": "BatchNormalization", "inbound_nodes": [[["conv2d_43", 0, 0, {}]]]}, {"config": {"moving_mean_initializer": {"config": {}, "class_name": "Zeros"}, "moving_variance_initializer": {"config": {}, "class_name": "Ones"}, "axis": 3, "scale": false, "gamma_initializer": {"config": {}, "class_name": "Ones"}, "trainable": false, "beta_regularizer": null, "name": "batch_normalization_48", "epsilon": 0.001, "beta_initializer": {"config": {}, "class_name": "Zeros"}, "center": true, "momentum": 0.99, "gamma_regularizer": null, "beta_constraint": null, "gamma_constraint": null}, "name": "batch_normalization_48", "class_name": "BatchNormalization", "inbound_nodes": [[["conv2d_48", 0, 0, {}]]]}, {"config": {"activation": "relu", "trainable": false, "name": "activation_43"}, "name": "activation_43", "class_name": "Activation", "inbound_nodes": [[["batch_normalization_43", 0, 0, {}]]]}, {"config": {"activation": "relu", "trainable": false, "name": "activation_48"}, "name": "activation_48", "class_name": "Activation", "inbound_nodes": [[["batch_normalization_48", 0, 0, {}]]]}, {"config": {"padding": "same", "name": "average_pooling2d_5", "trainable": false, "pool_size": [3, 3], "strides": [1, 1], "data_format": "channels_last"}, "name": "average_pooling2d_5", "class_name": "AveragePooling2D", "inbound_nodes": [[["mixed4", 0, 0, {}]]]}, {"config": {"filters": 192, "padding": "same", "dilation_rate": [1, 1], "kernel_regularizer": null, "bias_constraint": null, "kernel_initializer": {"config": {"scale": 1.0, "distribution": "uniform", "seed": null, "mode": "fan_avg"}, "class_name": "VarianceScaling"}, "trainable": false, "name": "conv2d_41", "strides": [1, 1], "data_format": "channels_last", "activation": "linear", "kernel_constraint": null, "use_bias": false, "kernel_size": [1, 1], "bias_regularizer": null, "bias_initializer": {"config": {}, "class_name": "Zeros"}, "activity_regularizer": null}, "name": "conv2d_41", "class_name": "Conv2D", "inbound_nodes": [[["mixed4", 0, 0, {}]]]}, {"config": {"filters": 192, "padding": "same", "dilation_rate": [1, 1], "kernel_regularizer": null, "bias_constraint": null, "kernel_initializer": {"config": {"scale": 1.0, "distribution": "uniform", "seed": null, "mode": "fan_avg"}, "class_name": "VarianceScaling"}, "trainable": false, "name": "conv2d_44", "strides": [1, 1], "data_format": "channels_last", "activation": "linear", "kernel_constraint": null, "use_bias": false, "kernel_size": [7, 1], "bias_regularizer": null, "bias_initializer": {"config": {}, "class_name": "Zeros"}, "activity_regularizer": null}, "name": "conv2d_44", "class_name": "Conv2D", "inbound_nodes": [[["activation_43", 0, 0, {}]]]}, {"config": {"filters": 192, "padding": "same", "dilation_rate": [1, 1], "kernel_regularizer": null, "bias_constraint": null, "kernel_initializer": {"config": {"scale": 1.0, "distribution": "uniform", "seed": null, "mode": "fan_avg"}, "class_name": "VarianceScaling"}, "trainable": false, "name": "conv2d_49", "strides": [1, 1], "data_format": "channels_last", "activation": "linear", "kernel_constraint": null, "use_bias": false, "kernel_size": [1, 7], "bias_regularizer": null, "bias_initializer": {"config": {}, "class_name": "Zeros"}, "activity_regularizer": null}, "name": "conv2d_49", "class_name": "Conv2D", "inbound_nodes": [[["activation_48", 0, 0, {}]]]}, {"config": {"filters": 192, "padding": "same", "dilation_rate": [1, 1], "kernel_regularizer": null, "bias_constraint": null, "kernel_initializer": {"config": {"scale": 1.0, "distribution": "uniform", "seed": null, "mode": "fan_avg"}, "class_name": "VarianceScaling"}, "trainable": false, "name": "conv2d_50", "strides": [1, 1], "data_format": "channels_last", "activation": "linear", "kernel_constraint": null, "use_bias": false, "kernel_size": [1, 1], "bias_regularizer": null, "bias_initializer": {"config": {}, "class_name": "Zeros"}, "activity_regularizer": null}, "name": "conv2d_50", "class_name": "Conv2D", "inbound_nodes": [[["average_pooling2d_5", 0, 0, {}]]]}, {"config": {"moving_mean_initializer": {"config": {}, "class_name": "Zeros"}, "moving_variance_initializer": {"config": {}, "class_name": "Ones"}, "axis": 3, "scale": false, "gamma_initializer": {"config": {}, "class_name": "Ones"}, "trainable": false, "beta_regularizer": null, "name": "batch_normalization_41", "epsilon": 0.001, "beta_initializer": {"config": {}, "class_name": "Zeros"}, "center": true, "momentum": 0.99, "gamma_regularizer": null, "beta_constraint": null, "gamma_constraint": null}, "name": "batch_normalization_41", "class_name": "BatchNormalization", "inbound_nodes": [[["conv2d_41", 0, 0, {}]]]}, {"config": {"moving_mean_initializer": {"config": {}, "class_name": "Zeros"}, "moving_variance_initializer": {"config": {}, "class_name": "Ones"}, "axis": 3, "scale": false, "gamma_initializer": {"config": {}, "class_name": "Ones"}, "trainable": false, "beta_regularizer": null, "name": "batch_normalization_44", "epsilon": 0.001, "beta_initializer": {"config": {}, "class_name": "Zeros"}, "center": true, "momentum": 0.99, "gamma_regularizer": null, "beta_constraint": null, "gamma_constraint": null}, "name": "batch_normalization_44", "class_name": "BatchNormalization", "inbound_nodes": [[["conv2d_44", 0, 0, {}]]]}, {"config": {"moving_mean_initializer": {"config": {}, "class_name": "Zeros"}, "moving_variance_initializer": {"config": {}, "class_name": "Ones"}, "axis": 3, "scale": false, "gamma_initializer": {"config": {}, "class_name": "Ones"}, "trainable": false, "beta_regularizer": null, "name": "batch_normalization_49", "epsilon": 0.001, "beta_initializer": {"config": {}, "class_name": "Zeros"}, "center": true, "momentum": 0.99, "gamma_regularizer": null, "beta_constraint": null, "gamma_constraint": null}, "name": "batch_normalization_49", "class_name": "BatchNormalization", "inbound_nodes": [[["conv2d_49", 0, 0, {}]]]}, {"config": {"moving_mean_initializer": {"config": {}, "class_name": "Zeros"}, "moving_variance_initializer": {"config": {}, "class_name": "Ones"}, "axis": 3, "scale": false, "gamma_initializer": {"config": {}, "class_name": "Ones"}, "trainable": false, "beta_regularizer": null, "name": "batch_normalization_50", "epsilon": 0.001, "beta_initializer": {"config": {}, "class_name": "Zeros"}, "center": true, "momentum": 0.99, "gamma_regularizer": null, "beta_constraint": null, "gamma_constraint": null}, "name": "batch_normalization_50", "class_name": "BatchNormalization", "inbound_nodes": [[["conv2d_50", 0, 0, {}]]]}, {"config": {"activation": "relu", "trainable": false, "name": "activation_41"}, "name": "activation_41", "class_name": "Activation", "inbound_nodes": [[["batch_normalization_41", 0, 0, {}]]]}, {"config": {"activation": "relu", "trainable": false, "name": "activation_44"}, "name": "activation_44", "class_name": "Activation", "inbound_nodes": [[["batch_normalization_44", 0, 0, {}]]]}, {"config": {"activation": "relu", "trainable": false, "name": "activation_49"}, "name": "activation_49", "class_name": "Activation", "inbound_nodes": [[["batch_normalization_49", 0, 0, {}]]]}, {"config": {"activation": "relu", "trainable": false, "name": "activation_50"}, "name": "activation_50", "class_name": "Activation", "inbound_nodes": [[["batch_normalization_50", 0, 0, {}]]]}, {"config": {"trainable": false, "axis": 3, "name": "mixed5"}, "name": "mixed5", "class_name": "Concatenate", "inbound_nodes": [[["activation_41", 0, 0, {}], ["activation_44", 0, 0, {}], ["activation_49", 0, 0, {}], ["activation_50", 0, 0, {}]]]}, {"config": {"filters": 160, "padding": "same", "dilation_rate": [1, 1], "kernel_regularizer": null, "bias_constraint": null, "kernel_initializer": {"config": {"scale": 1.0, "distribution": "uniform", "seed": null, "mode": "fan_avg"}, "class_name": "VarianceScaling"}, "trainable": false, "name": "conv2d_55", "strides": [1, 1], "data_format": "channels_last", "activation": "linear", "kernel_constraint": null, "use_bias": false, "kernel_size": [1, 1], "bias_regularizer": null, "bias_initializer": {"config": {}, "class_name": "Zeros"}, "activity_regularizer": null}, "name": "conv2d_55", "class_name": "Conv2D", "inbound_nodes": [[["mixed5", 0, 0, {}]]]}, {"config": {"moving_mean_initializer": {"config": {}, "class_name": "Zeros"}, "moving_variance_initializer": {"config": {}, "class_name": "Ones"}, "axis": 3, "scale": false, "gamma_initializer": {"config": {}, "class_name": "Ones"}, "trainable": false, "beta_regularizer": null, "name": "batch_normalization_55", "epsilon": 0.001, "beta_initializer": {"config": {}, "class_name": "Zeros"}, "center": true, "momentum": 0.99, "gamma_regularizer": null, "beta_constraint": null, "gamma_constraint": null}, "name": "batch_normalization_55", "class_name": "BatchNormalization", "inbound_nodes": [[["conv2d_55", 0, 0, {}]]]}, {"config": {"activation": "relu", "trainable": false, "name": "activation_55"}, "name": "activation_55", "class_name": "Activation", "inbound_nodes": [[["batch_normalization_55", 0, 0, {}]]]}, {"config": {"filters": 160, "padding": "same", "dilation_rate": [1, 1], "kernel_regularizer": null, "bias_constraint": null, "kernel_initializer": {"config": {"scale": 1.0, "distribution": "uniform", "seed": null, "mode": "fan_avg"}, "class_name": "VarianceScaling"}, "trainable": false, "name": "conv2d_56", "strides": [1, 1], "data_format": "channels_last", "activation": "linear", "kernel_constraint": null, "use_bias": false, "kernel_size": [7, 1], "bias_regularizer": null, "bias_initializer": {"config": {}, "class_name": "Zeros"}, "activity_regularizer": null}, "name": "conv2d_56", "class_name": "Conv2D", "inbound_nodes": [[["activation_55", 0, 0, {}]]]}, {"config": {"moving_mean_initializer": {"config": {}, "class_name": "Zeros"}, "moving_variance_initializer": {"config": {}, "class_name": "Ones"}, "axis": 3, "scale": false, "gamma_initializer": {"config": {}, "class_name": "Ones"}, "trainable": false, "beta_regularizer": null, "name": "batch_normalization_56", "epsilon": 0.001, "beta_initializer": {"config": {}, "class_name": "Zeros"}, "center": true, "momentum": 0.99, "gamma_regularizer": null, "beta_constraint": null, "gamma_constraint": null}, "name": "batch_normalization_56", "class_name": "BatchNormalization", "inbound_nodes": [[["conv2d_56", 0, 0, {}]]]}, {"config": {"activation": "relu", "trainable": false, "name": "activation_56"}, "name": "activation_56", "class_name": "Activation", "inbound_nodes": [[["batch_normalization_56", 0, 0, {}]]]}, {"config": {"filters": 160, "padding": "same", "dilation_rate": [1, 1], "kernel_regularizer": null, "bias_constraint": null, "kernel_initializer": {"config": {"scale": 1.0, "distribution": "uniform", "seed": null, "mode": "fan_avg"}, "class_name": "VarianceScaling"}, "trainable": false, "name": "conv2d_52", "strides": [1, 1], "data_format": "channels_last", "activation": "linear", "kernel_constraint": null, "use_bias": false, "kernel_size": [1, 1], "bias_regularizer": null, "bias_initializer": {"config": {}, "class_name": "Zeros"}, "activity_regularizer": null}, "name": "conv2d_52", "class_name": "Conv2D", "inbound_nodes": [[["mixed5", 0, 0, {}]]]}, {"config": {"filters": 160, "padding": "same", "dilation_rate": [1, 1], "kernel_regularizer": null, "bias_constraint": null, "kernel_initializer": {"config": {"scale": 1.0, "distribution": "uniform", "seed": null, "mode": "fan_avg"}, "class_name": "VarianceScaling"}, "trainable": false, "name": "conv2d_57", "strides": [1, 1], "data_format": "channels_last", "activation": "linear", "kernel_constraint": null, "use_bias": false, "kernel_size": [1, 7], "bias_regularizer": null, "bias_initializer": {"config": {}, "class_name": "Zeros"}, "activity_regularizer": null}, "name": "conv2d_57", "class_name": "Conv2D", "inbound_nodes": [[["activation_56", 0, 0, {}]]]}, {"config": {"moving_mean_initializer": {"config": {}, "class_name": "Zeros"}, "moving_variance_initializer": {"config": {}, "class_name": "Ones"}, "axis": 3, "scale": false, "gamma_initializer": {"config": {}, "class_name": "Ones"}, "trainable": false, "beta_regularizer": null, "name": "batch_normalization_52", "epsilon": 0.001, "beta_initializer": {"config": {}, "class_name": "Zeros"}, "center": true, "momentum": 0.99, "gamma_regularizer": null, "beta_constraint": null, "gamma_constraint": null}, "name": "batch_normalization_52", "class_name": "BatchNormalization", "inbound_nodes": [[["conv2d_52", 0, 0, {}]]]}, {"config": {"moving_mean_initializer": {"config": {}, "class_name": "Zeros"}, "moving_variance_initializer": {"config": {}, "class_name": "Ones"}, "axis": 3, "scale": false, "gamma_initializer": {"config": {}, "class_name": "Ones"}, "trainable": false, "beta_regularizer": null, "name": "batch_normalization_57", "epsilon": 0.001, "beta_initializer": {"config": {}, "class_name": "Zeros"}, "center": true, "momentum": 0.99, "gamma_regularizer": null, "beta_constraint": null, "gamma_constraint": null}, "name": "batch_normalization_57", "class_name": "BatchNormalization", "inbound_nodes": [[["conv2d_57", 0, 0, {}]]]}, {"config": {"activation": "relu", "trainable": false, "name": "activation_52"}, "name": "activation_52", "class_name": "Activation", "inbound_nodes": [[["batch_normalization_52", 0, 0, {}]]]}, {"config": {"activation": "relu", "trainable": false, "name": "activation_57"}, "name": "activation_57", "class_name": "Activation", "inbound_nodes": [[["batch_normalization_57", 0, 0, {}]]]}, {"config": {"filters": 160, "padding": "same", "dilation_rate": [1, 1], "kernel_regularizer": null, "bias_constraint": null, "kernel_initializer": {"config": {"scale": 1.0, "distribution": "uniform", "seed": null, "mode": "fan_avg"}, "class_name": "VarianceScaling"}, "trainable": false, "name": "conv2d_53", "strides": [1, 1], "data_format": "channels_last", "activation": "linear", "kernel_constraint": null, "use_bias": false, "kernel_size": [1, 7], "bias_regularizer": null, "bias_initializer": {"config": {}, "class_name": "Zeros"}, "activity_regularizer": null}, "name": "conv2d_53", "class_name": "Conv2D", "inbound_nodes": [[["activation_52", 0, 0, {}]]]}, {"config": {"filters": 160, "padding": "same", "dilation_rate": [1, 1], "kernel_regularizer": null, "bias_constraint": null, "kernel_initializer": {"config": {"scale": 1.0, "distribution": "uniform", "seed": null, "mode": "fan_avg"}, "class_name": "VarianceScaling"}, "trainable": false, "name": "conv2d_58", "strides": [1, 1], "data_format": "channels_last", "activation": "linear", "kernel_constraint": null, "use_bias": false, "kernel_size": [7, 1], "bias_regularizer": null, "bias_initializer": {"config": {}, "class_name": "Zeros"}, "activity_regularizer": null}, "name": "conv2d_58", "class_name": "Conv2D", "inbound_nodes": [[["activation_57", 0, 0, {}]]]}, {"config": {"moving_mean_initializer": {"config": {}, "class_name": "Zeros"}, "moving_variance_initializer": {"config": {}, "class_name": "Ones"}, "axis": 3, "scale": false, "gamma_initializer": {"config": {}, "class_name": "Ones"}, "trainable": false, "beta_regularizer": null, "name": "batch_normalization_53", "epsilon": 0.001, "beta_initializer": {"config": {}, "class_name": "Zeros"}, "center": true, "momentum": 0.99, "gamma_regularizer": null, "beta_constraint": null, "gamma_constraint": null}, "name": "batch_normalization_53", "class_name": "BatchNormalization", "inbound_nodes": [[["conv2d_53", 0, 0, {}]]]}, {"config": {"moving_mean_initializer": {"config": {}, "class_name": "Zeros"}, "moving_variance_initializer": {"config": {}, "class_name": "Ones"}, "axis": 3, "scale": false, "gamma_initializer": {"config": {}, "class_name": "Ones"}, "trainable": false, "beta_regularizer": null, "name": "batch_normalization_58", "epsilon": 0.001, "beta_initializer": {"config": {}, "class_name": "Zeros"}, "center": true, "momentum": 0.99, "gamma_regularizer": null, "beta_constraint": null, "gamma_constraint": null}, "name": "batch_normalization_58", "class_name": "BatchNormalization", "inbound_nodes": [[["conv2d_58", 0, 0, {}]]]}, {"config": {"activation": "relu", "trainable": false, "name": "activation_53"}, "name": "activation_53", "class_name": "Activation", "inbound_nodes": [[["batch_normalization_53", 0, 0, {}]]]}, {"config": {"activation": "relu", "trainable": false, "name": "activation_58"}, "name": "activation_58", "class_name": "Activation", "inbound_nodes": [[["batch_normalization_58", 0, 0, {}]]]}, {"config": {"padding": "same", "name": "average_pooling2d_6", "trainable": false, "pool_size": [3, 3], "strides": [1, 1], "data_format": "channels_last"}, "name": "average_pooling2d_6", "class_name": "AveragePooling2D", "inbound_nodes": [[["mixed5", 0, 0, {}]]]}, {"config": {"filters": 192, "padding": "same", "dilation_rate": [1, 1], "kernel_regularizer": null, "bias_constraint": null, "kernel_initializer": {"config": {"scale": 1.0, "distribution": "uniform", "seed": null, "mode": "fan_avg"}, "class_name": "VarianceScaling"}, "trainable": false, "name": "conv2d_51", "strides": [1, 1], "data_format": "channels_last", "activation": "linear", "kernel_constraint": null, "use_bias": false, "kernel_size": [1, 1], "bias_regularizer": null, "bias_initializer": {"config": {}, "class_name": "Zeros"}, "activity_regularizer": null}, "name": "conv2d_51", "class_name": "Conv2D", "inbound_nodes": [[["mixed5", 0, 0, {}]]]}, {"config": {"filters": 192, "padding": "same", "dilation_rate": [1, 1], "kernel_regularizer": null, "bias_constraint": null, "kernel_initializer": {"config": {"scale": 1.0, "distribution": "uniform", "seed": null, "mode": "fan_avg"}, "class_name": "VarianceScaling"}, "trainable": false, "name": "conv2d_54", "strides": [1, 1], "data_format": "channels_last", "activation": "linear", "kernel_constraint": null, "use_bias": false, "kernel_size": [7, 1], "bias_regularizer": null, "bias_initializer": {"config": {}, "class_name": "Zeros"}, "activity_regularizer": null}, "name": "conv2d_54", "class_name": "Conv2D", "inbound_nodes": [[["activation_53", 0, 0, {}]]]}, {"config": {"filters": 192, "padding": "same", "dilation_rate": [1, 1], "kernel_regularizer": null, "bias_constraint": null, "kernel_initializer": {"config": {"scale": 1.0, "distribution": "uniform", "seed": null, "mode": "fan_avg"}, "class_name": "VarianceScaling"}, "trainable": false, "name": "conv2d_59", "strides": [1, 1], "data_format": "channels_last", "activation": "linear", "kernel_constraint": null, "use_bias": false, "kernel_size": [1, 7], "bias_regularizer": null, "bias_initializer": {"config": {}, "class_name": "Zeros"}, "activity_regularizer": null}, "name": "conv2d_59", "class_name": "Conv2D", "inbound_nodes": [[["activation_58", 0, 0, {}]]]}, {"config": {"filters": 192, "padding": "same", "dilation_rate": [1, 1], "kernel_regularizer": null, "bias_constraint": null, "kernel_initializer": {"config": {"scale": 1.0, "distribution": "uniform", "seed": null, "mode": "fan_avg"}, "class_name": "VarianceScaling"}, "trainable": false, "name": "conv2d_60", "strides": [1, 1], "data_format": "channels_last", "activation": "linear", "kernel_constraint": null, "use_bias": false, "kernel_size": [1, 1], "bias_regularizer": null, "bias_initializer": {"config": {}, "class_name": "Zeros"}, "activity_regularizer": null}, "name": "conv2d_60", "class_name": "Conv2D", "inbound_nodes": [[["average_pooling2d_6", 0, 0, {}]]]}, {"config": {"moving_mean_initializer": {"config": {}, "class_name": "Zeros"}, "moving_variance_initializer": {"config": {}, "class_name": "Ones"}, "axis": 3, "scale": false, "gamma_initializer": {"config": {}, "class_name": "Ones"}, "trainable": false, "beta_regularizer": null, "name": "batch_normalization_51", "epsilon": 0.001, "beta_initializer": {"config": {}, "class_name": "Zeros"}, "center": true, "momentum": 0.99, "gamma_regularizer": null, "beta_constraint": null, "gamma_constraint": null}, "name": "batch_normalization_51", "class_name": "BatchNormalization", "inbound_nodes": [[["conv2d_51", 0, 0, {}]]]}, {"config": {"moving_mean_initializer": {"config": {}, "class_name": "Zeros"}, "moving_variance_initializer": {"config": {}, "class_name": "Ones"}, "axis": 3, "scale": false, "gamma_initializer": {"config": {}, "class_name": "Ones"}, "trainable": false, "beta_regularizer": null, "name": "batch_normalization_54", "epsilon": 0.001, "beta_initializer": {"config": {}, "class_name": "Zeros"}, "center": true, "momentum": 0.99, "gamma_regularizer": null, "beta_constraint": null, "gamma_constraint": null}, "name": "batch_normalization_54", "class_name": "BatchNormalization", "inbound_nodes": [[["conv2d_54", 0, 0, {}]]]}, {"config": {"moving_mean_initializer": {"config": {}, "class_name": "Zeros"}, "moving_variance_initializer": {"config": {}, "class_name": "Ones"}, "axis": 3, "scale": false, "gamma_initializer": {"config": {}, "class_name": "Ones"}, "trainable": false, "beta_regularizer": null, "name": "batch_normalization_59", "epsilon": 0.001, "beta_initializer": {"config": {}, "class_name": "Zeros"}, "center": true, "momentum": 0.99, "gamma_regularizer": null, "beta_constraint": null, "gamma_constraint": null}, "name": "batch_normalization_59", "class_name": "BatchNormalization", "inbound_nodes": [[["conv2d_59", 0, 0, {}]]]}, {"config": {"moving_mean_initializer": {"config": {}, "class_name": "Zeros"}, "moving_variance_initializer": {"config": {}, "class_name": "Ones"}, "axis": 3, "scale": false, "gamma_initializer": {"config": {}, "class_name": "Ones"}, "trainable": false, "beta_regularizer": null, "name": "batch_normalization_60", "epsilon": 0.001, "beta_initializer": {"config": {}, "class_name": "Zeros"}, "center": true, "momentum": 0.99, "gamma_regularizer": null, "beta_constraint": null, "gamma_constraint": null}, "name": "batch_normalization_60", "class_name": "BatchNormalization", "inbound_nodes": [[["conv2d_60", 0, 0, {}]]]}, {"config": {"activation": "relu", "trainable": false, "name": "activation_51"}, "name": "activation_51", "class_name": "Activation", "inbound_nodes": [[["batch_normalization_51", 0, 0, {}]]]}, {"config": {"activation": "relu", "trainable": false, "name": "activation_54"}, "name": "activation_54", "class_name": "Activation", "inbound_nodes": [[["batch_normalization_54", 0, 0, {}]]]}, {"config": {"activation": "relu", "trainable": false, "name": "activation_59"}, "name": "activation_59", "class_name": "Activation", "inbound_nodes": [[["batch_normalization_59", 0, 0, {}]]]}, {"config": {"activation": "relu", "trainable": false, "name": "activation_60"}, "name": "activation_60", "class_name": "Activation", "inbound_nodes": [[["batch_normalization_60", 0, 0, {}]]]}, {"config": {"trainable": false, "axis": 3, "name": "mixed6"}, "name": "mixed6", "class_name": "Concatenate", "inbound_nodes": [[["activation_51", 0, 0, {}], ["activation_54", 0, 0, {}], ["activation_59", 0, 0, {}], ["activation_60", 0, 0, {}]]]}, {"config": {"filters": 192, "padding": "same", "dilation_rate": [1, 1], "kernel_regularizer": null, "bias_constraint": null, "kernel_initializer": {"config": {"scale": 1.0, "distribution": "uniform", "seed": null, "mode": "fan_avg"}, "class_name": "VarianceScaling"}, "trainable": false, "name": "conv2d_65", "strides": [1, 1], "data_format": "channels_last", "activation": "linear", "kernel_constraint": null, "use_bias": false, "kernel_size": [1, 1], "bias_regularizer": null, "bias_initializer": {"config": {}, "class_name": "Zeros"}, "activity_regularizer": null}, "name": "conv2d_65", "class_name": "Conv2D", "inbound_nodes": [[["mixed6", 0, 0, {}]]]}, {"config": {"moving_mean_initializer": {"config": {}, "class_name": "Zeros"}, "moving_variance_initializer": {"config": {}, "class_name": "Ones"}, "axis": 3, "scale": false, "gamma_initializer": {"config": {}, "class_name": "Ones"}, "trainable": false, "beta_regularizer": null, "name": "batch_normalization_65", "epsilon": 0.001, "beta_initializer": {"config": {}, "class_name": "Zeros"}, "center": true, "momentum": 0.99, "gamma_regularizer": null, "beta_constraint": null, "gamma_constraint": null}, "name": "batch_normalization_65", "class_name": "BatchNormalization", "inbound_nodes": [[["conv2d_65", 0, 0, {}]]]}, {"config": {"activation": "relu", "trainable": false, "name": "activation_65"}, "name": "activation_65", "class_name": "Activation", "inbound_nodes": [[["batch_normalization_65", 0, 0, {}]]]}, {"config": {"filters": 192, "padding": "same", "dilation_rate": [1, 1], "kernel_regularizer": null, "bias_constraint": null, "kernel_initializer": {"config": {"scale": 1.0, "distribution": "uniform", "seed": null, "mode": "fan_avg"}, "class_name": "VarianceScaling"}, "trainable": false, "name": "conv2d_66", "strides": [1, 1], "data_format": "channels_last", "activation": "linear", "kernel_constraint": null, "use_bias": false, "kernel_size": [7, 1], "bias_regularizer": null, "bias_initializer": {"config": {}, "class_name": "Zeros"}, "activity_regularizer": null}, "name": "conv2d_66", "class_name": "Conv2D", "inbound_nodes": [[["activation_65", 0, 0, {}]]]}, {"config": {"moving_mean_initializer": {"config": {}, "class_name": "Zeros"}, "moving_variance_initializer": {"config": {}, "class_name": "Ones"}, "axis": 3, "scale": false, "gamma_initializer": {"config": {}, "class_name": "Ones"}, "trainable": false, "beta_regularizer": null, "name": "batch_normalization_66", "epsilon": 0.001, "beta_initializer": {"config": {}, "class_name": "Zeros"}, "center": true, "momentum": 0.99, "gamma_regularizer": null, "beta_constraint": null, "gamma_constraint": null}, "name": "batch_normalization_66", "class_name": "BatchNormalization", "inbound_nodes": [[["conv2d_66", 0, 0, {}]]]}, {"config": {"activation": "relu", "trainable": false, "name": "activation_66"}, "name": "activation_66", "class_name": "Activation", "inbound_nodes": [[["batch_normalization_66", 0, 0, {}]]]}, {"config": {"filters": 192, "padding": "same", "dilation_rate": [1, 1], "kernel_regularizer": null, "bias_constraint": null, "kernel_initializer": {"config": {"scale": 1.0, "distribution": "uniform", "seed": null, "mode": "fan_avg"}, "class_name": "VarianceScaling"}, "trainable": false, "name": "conv2d_62", "strides": [1, 1], "data_format": "channels_last", "activation": "linear", "kernel_constraint": null, "use_bias": false, "kernel_size": [1, 1], "bias_regularizer": null, "bias_initializer": {"config": {}, "class_name": "Zeros"}, "activity_regularizer": null}, "name": "conv2d_62", "class_name": "Conv2D", "inbound_nodes": [[["mixed6", 0, 0, {}]]]}, {"config": {"filters": 192, "padding": "same", "dilation_rate": [1, 1], "kernel_regularizer": null, "bias_constraint": null, "kernel_initializer": {"config": {"scale": 1.0, "distribution": "uniform", "seed": null, "mode": "fan_avg"}, "class_name": "VarianceScaling"}, "trainable": false, "name": "conv2d_67", "strides": [1, 1], "data_format": "channels_last", "activation": "linear", "kernel_constraint": null, "use_bias": false, "kernel_size": [1, 7], "bias_regularizer": null, "bias_initializer": {"config": {}, "class_name": "Zeros"}, "activity_regularizer": null}, "name": "conv2d_67", "class_name": "Conv2D", "inbound_nodes": [[["activation_66", 0, 0, {}]]]}, {"config": {"moving_mean_initializer": {"config": {}, "class_name": "Zeros"}, "moving_variance_initializer": {"config": {}, "class_name": "Ones"}, "axis": 3, "scale": false, "gamma_initializer": {"config": {}, "class_name": "Ones"}, "trainable": false, "beta_regularizer": null, "name": "batch_normalization_62", "epsilon": 0.001, "beta_initializer": {"config": {}, "class_name": "Zeros"}, "center": true, "momentum": 0.99, "gamma_regularizer": null, "beta_constraint": null, "gamma_constraint": null}, "name": "batch_normalization_62", "class_name": "BatchNormalization", "inbound_nodes": [[["conv2d_62", 0, 0, {}]]]}, {"config": {"moving_mean_initializer": {"config": {}, "class_name": "Zeros"}, "moving_variance_initializer": {"config": {}, "class_name": "Ones"}, "axis": 3, "scale": false, "gamma_initializer": {"config": {}, "class_name": "Ones"}, "trainable": false, "beta_regularizer": null, "name": "batch_normalization_67", "epsilon": 0.001, "beta_initializer": {"config": {}, "class_name": "Zeros"}, "center": true, "momentum": 0.99, "gamma_regularizer": null, "beta_constraint": null, "gamma_constraint": null}, "name": "batch_normalization_67", "class_name": "BatchNormalization", "inbound_nodes": [[["conv2d_67", 0, 0, {}]]]}, {"config": {"activation": "relu", "trainable": false, "name": "activation_62"}, "name": "activation_62", "class_name": "Activation", "inbound_nodes": [[["batch_normalization_62", 0, 0, {}]]]}, {"config": {"activation": "relu", "trainable": false, "name": "activation_67"}, "name": "activation_67", "class_name": "Activation", "inbound_nodes": [[["batch_normalization_67", 0, 0, {}]]]}, {"config": {"filters": 192, "padding": "same", "dilation_rate": [1, 1], "kernel_regularizer": null, "bias_constraint": null, "kernel_initializer": {"config": {"scale": 1.0, "distribution": "uniform", "seed": null, "mode": "fan_avg"}, "class_name": "VarianceScaling"}, "trainable": false, "name": "conv2d_63", "strides": [1, 1], "data_format": "channels_last", "activation": "linear", "kernel_constraint": null, "use_bias": false, "kernel_size": [1, 7], "bias_regularizer": null, "bias_initializer": {"config": {}, "class_name": "Zeros"}, "activity_regularizer": null}, "name": "conv2d_63", "class_name": "Conv2D", "inbound_nodes": [[["activation_62", 0, 0, {}]]]}, {"config": {"filters": 192, "padding": "same", "dilation_rate": [1, 1], "kernel_regularizer": null, "bias_constraint": null, "kernel_initializer": {"config": {"scale": 1.0, "distribution": "uniform", "seed": null, "mode": "fan_avg"}, "class_name": "VarianceScaling"}, "trainable": false, "name": "conv2d_68", "strides": [1, 1], "data_format": "channels_last", "activation": "linear", "kernel_constraint": null, "use_bias": false, "kernel_size": [7, 1], "bias_regularizer": null, "bias_initializer": {"config": {}, "class_name": "Zeros"}, "activity_regularizer": null}, "name": "conv2d_68", "class_name": "Conv2D", "inbound_nodes": [[["activation_67", 0, 0, {}]]]}, {"config": {"moving_mean_initializer": {"config": {}, "class_name": "Zeros"}, "moving_variance_initializer": {"config": {}, "class_name": "Ones"}, "axis": 3, "scale": false, "gamma_initializer": {"config": {}, "class_name": "Ones"}, "trainable": false, "beta_regularizer": null, "name": "batch_normalization_63", "epsilon": 0.001, "beta_initializer": {"config": {}, "class_name": "Zeros"}, "center": true, "momentum": 0.99, "gamma_regularizer": null, "beta_constraint": null, "gamma_constraint": null}, "name": "batch_normalization_63", "class_name": "BatchNormalization", "inbound_nodes": [[["conv2d_63", 0, 0, {}]]]}, {"config": {"moving_mean_initializer": {"config": {}, "class_name": "Zeros"}, "moving_variance_initializer": {"config": {}, "class_name": "Ones"}, "axis": 3, "scale": false, "gamma_initializer": {"config": {}, "class_name": "Ones"}, "trainable": false, "beta_regularizer": null, "name": "batch_normalization_68", "epsilon": 0.001, "beta_initializer": {"config": {}, "class_name": "Zeros"}, "center": true, "momentum": 0.99, "gamma_regularizer": null, "beta_constraint": null, "gamma_constraint": null}, "name": "batch_normalization_68", "class_name": "BatchNormalization", "inbound_nodes": [[["conv2d_68", 0, 0, {}]]]}, {"config": {"activation": "relu", "trainable": false, "name": "activation_63"}, "name": "activation_63", "class_name": "Activation", "inbound_nodes": [[["batch_normalization_63", 0, 0, {}]]]}, {"config": {"activation": "relu", "trainable": false, "name": "activation_68"}, "name": "activation_68", "class_name": "Activation", "inbound_nodes": [[["batch_normalization_68", 0, 0, {}]]]}, {"config": {"padding": "same", "name": "average_pooling2d_7", "trainable": false, "pool_size": [3, 3], "strides": [1, 1], "data_format": "channels_last"}, "name": "average_pooling2d_7", "class_name": "AveragePooling2D", "inbound_nodes": [[["mixed6", 0, 0, {}]]]}, {"config": {"filters": 192, "padding": "same", "dilation_rate": [1, 1], "kernel_regularizer": null, "bias_constraint": null, "kernel_initializer": {"config": {"scale": 1.0, "distribution": "uniform", "seed": null, "mode": "fan_avg"}, "class_name": "VarianceScaling"}, "trainable": false, "name": "conv2d_61", "strides": [1, 1], "data_format": "channels_last", "activation": "linear", "kernel_constraint": null, "use_bias": false, "kernel_size": [1, 1], "bias_regularizer": null, "bias_initializer": {"config": {}, "class_name": "Zeros"}, "activity_regularizer": null}, "name": "conv2d_61", "class_name": "Conv2D", "inbound_nodes": [[["mixed6", 0, 0, {}]]]}, {"config": {"filters": 192, "padding": "same", "dilation_rate": [1, 1], "kernel_regularizer": null, "bias_constraint": null, "kernel_initializer": {"config": {"scale": 1.0, "distribution": "uniform", "seed": null, "mode": "fan_avg"}, "class_name": "VarianceScaling"}, "trainable": false, "name": "conv2d_64", "strides": [1, 1], "data_format": "channels_last", "activation": "linear", "kernel_constraint": null, "use_bias": false, "kernel_size": [7, 1], "bias_regularizer": null, "bias_initializer": {"config": {}, "class_name": "Zeros"}, "activity_regularizer": null}, "name": "conv2d_64", "class_name": "Conv2D", "inbound_nodes": [[["activation_63", 0, 0, {}]]]}, {"config": {"filters": 192, "padding": "same", "dilation_rate": [1, 1], "kernel_regularizer": null, "bias_constraint": null, "kernel_initializer": {"config": {"scale": 1.0, "distribution": "uniform", "seed": null, "mode": "fan_avg"}, "class_name": "VarianceScaling"}, "trainable": false, "name": "conv2d_69", "strides": [1, 1], "data_format": "channels_last", "activation": "linear", "kernel_constraint": null, "use_bias": false, "kernel_size": [1, 7], "bias_regularizer": null, "bias_initializer": {"config": {}, "class_name": "Zeros"}, "activity_regularizer": null}, "name": "conv2d_69", "class_name": "Conv2D", "inbound_nodes": [[["activation_68", 0, 0, {}]]]}, {"config": {"filters": 192, "padding": "same", "dilation_rate": [1, 1], "kernel_regularizer": null, "bias_constraint": null, "kernel_initializer": {"config": {"scale": 1.0, "distribution": "uniform", "seed": null, "mode": "fan_avg"}, "class_name": "VarianceScaling"}, "trainable": false, "name": "conv2d_70", "strides": [1, 1], "data_format": "channels_last", "activation": "linear", "kernel_constraint": null, "use_bias": false, "kernel_size": [1, 1], "bias_regularizer": null, "bias_initializer": {"config": {}, "class_name": "Zeros"}, "activity_regularizer": null}, "name": "conv2d_70", "class_name": "Conv2D", "inbound_nodes": [[["average_pooling2d_7", 0, 0, {}]]]}, {"config": {"moving_mean_initializer": {"config": {}, "class_name": "Zeros"}, "moving_variance_initializer": {"config": {}, "class_name": "Ones"}, "axis": 3, "scale": false, "gamma_initializer": {"config": {}, "class_name": "Ones"}, "trainable": false, "beta_regularizer": null, "name": "batch_normalization_61", "epsilon": 0.001, "beta_initializer": {"config": {}, "class_name": "Zeros"}, "center": true, "momentum": 0.99, "gamma_regularizer": null, "beta_constraint": null, "gamma_constraint": null}, "name": "batch_normalization_61", "class_name": "BatchNormalization", "inbound_nodes": [[["conv2d_61", 0, 0, {}]]]}, {"config": {"moving_mean_initializer": {"config": {}, "class_name": "Zeros"}, "moving_variance_initializer": {"config": {}, "class_name": "Ones"}, "axis": 3, "scale": false, "gamma_initializer": {"config": {}, "class_name": "Ones"}, "trainable": false, "beta_regularizer": null, "name": "batch_normalization_64", "epsilon": 0.001, "beta_initializer": {"config": {}, "class_name": "Zeros"}, "center": true, "momentum": 0.99, "gamma_regularizer": null, "beta_constraint": null, "gamma_constraint": null}, "name": "batch_normalization_64", "class_name": "BatchNormalization", "inbound_nodes": [[["conv2d_64", 0, 0, {}]]]}, {"config": {"moving_mean_initializer": {"config": {}, "class_name": "Zeros"}, "moving_variance_initializer": {"config": {}, "class_name": "Ones"}, "axis": 3, "scale": false, "gamma_initializer": {"config": {}, "class_name": "Ones"}, "trainable": false, "beta_regularizer": null, "name": "batch_normalization_69", "epsilon": 0.001, "beta_initializer": {"config": {}, "class_name": "Zeros"}, "center": true, "momentum": 0.99, "gamma_regularizer": null, "beta_constraint": null, "gamma_constraint": null}, "name": "batch_normalization_69", "class_name": "BatchNormalization", "inbound_nodes": [[["conv2d_69", 0, 0, {}]]]}, {"config": {"moving_mean_initializer": {"config": {}, "class_name": "Zeros"}, "moving_variance_initializer": {"config": {}, "class_name": "Ones"}, "axis": 3, "scale": false, "gamma_initializer": {"config": {}, "class_name": "Ones"}, "trainable": false, "beta_regularizer": null, "name": "batch_normalization_70", "epsilon": 0.001, "beta_initializer": {"config": {}, "class_name": "Zeros"}, "center": true, "momentum": 0.99, "gamma_regularizer": null, "beta_constraint": null, "gamma_constraint": null}, "name": "batch_normalization_70", "class_name": "BatchNormalization", "inbound_nodes": [[["conv2d_70", 0, 0, {}]]]}, {"config": {"activation": "relu", "trainable": false, "name": "activation_61"}, "name": "activation_61", "class_name": "Activation", "inbound_nodes": [[["batch_normalization_61", 0, 0, {}]]]}, {"config": {"activation": "relu", "trainable": false, "name": "activation_64"}, "name": "activation_64", "class_name": "Activation", "inbound_nodes": [[["batch_normalization_64", 0, 0, {}]]]}, {"config": {"activation": "relu", "trainable": false, "name": "activation_69"}, "name": "activation_69", "class_name": "Activation", "inbound_nodes": [[["batch_normalization_69", 0, 0, {}]]]}, {"config": {"activation": "relu", "trainable": false, "name": "activation_70"}, "name": "activation_70", "class_name": "Activation", "inbound_nodes": [[["batch_normalization_70", 0, 0, {}]]]}, {"config": {"trainable": false, "axis": 3, "name": "mixed7"}, "name": "mixed7", "class_name": "Concatenate", "inbound_nodes": [[["activation_61", 0, 0, {}], ["activation_64", 0, 0, {}], ["activation_69", 0, 0, {}], ["activation_70", 0, 0, {}]]]}, {"config": {"filters": 192, "padding": "same", "dilation_rate": [1, 1], "kernel_regularizer": null, "bias_constraint": null, "kernel_initializer": {"config": {"scale": 1.0, "distribution": "uniform", "seed": null, "mode": "fan_avg"}, "class_name": "VarianceScaling"}, "trainable": false, "name": "conv2d_73", "strides": [1, 1], "data_format": "channels_last", "activation": "linear", "kernel_constraint": null, "use_bias": false, "kernel_size": [1, 1], "bias_regularizer": null, "bias_initializer": {"config": {}, "class_name": "Zeros"}, "activity_regularizer": null}, "name": "conv2d_73", "class_name": "Conv2D", "inbound_nodes": [[["mixed7", 0, 0, {}]]]}, {"config": {"moving_mean_initializer": {"config": {}, "class_name": "Zeros"}, "moving_variance_initializer": {"config": {}, "class_name": "Ones"}, "axis": 3, "scale": false, "gamma_initializer": {"config": {}, "class_name": "Ones"}, "trainable": false, "beta_regularizer": null, "name": "batch_normalization_73", "epsilon": 0.001, "beta_initializer": {"config": {}, "class_name": "Zeros"}, "center": true, "momentum": 0.99, "gamma_regularizer": null, "beta_constraint": null, "gamma_constraint": null}, "name": "batch_normalization_73", "class_name": "BatchNormalization", "inbound_nodes": [[["conv2d_73", 0, 0, {}]]]}, {"config": {"activation": "relu", "trainable": false, "name": "activation_73"}, "name": "activation_73", "class_name": "Activation", "inbound_nodes": [[["batch_normalization_73", 0, 0, {}]]]}, {"config": {"filters": 192, "padding": "same", "dilation_rate": [1, 1], "kernel_regularizer": null, "bias_constraint": null, "kernel_initializer": {"config": {"scale": 1.0, "distribution": "uniform", "seed": null, "mode": "fan_avg"}, "class_name": "VarianceScaling"}, "trainable": false, "name": "conv2d_74", "strides": [1, 1], "data_format": "channels_last", "activation": "linear", "kernel_constraint": null, "use_bias": false, "kernel_size": [1, 7], "bias_regularizer": null, "bias_initializer": {"config": {}, "class_name": "Zeros"}, "activity_regularizer": null}, "name": "conv2d_74", "class_name": "Conv2D", "inbound_nodes": [[["activation_73", 0, 0, {}]]]}, {"config": {"moving_mean_initializer": {"config": {}, "class_name": "Zeros"}, "moving_variance_initializer": {"config": {}, "class_name": "Ones"}, "axis": 3, "scale": false, "gamma_initializer": {"config": {}, "class_name": "Ones"}, "trainable": false, "beta_regularizer": null, "name": "batch_normalization_74", "epsilon": 0.001, "beta_initializer": {"config": {}, "class_name": "Zeros"}, "center": true, "momentum": 0.99, "gamma_regularizer": null, "beta_constraint": null, "gamma_constraint": null}, "name": "batch_normalization_74", "class_name": "BatchNormalization", "inbound_nodes": [[["conv2d_74", 0, 0, {}]]]}, {"config": {"activation": "relu", "trainable": false, "name": "activation_74"}, "name": "activation_74", "class_name": "Activation", "inbound_nodes": [[["batch_normalization_74", 0, 0, {}]]]}, {"config": {"filters": 192, "padding": "same", "dilation_rate": [1, 1], "kernel_regularizer": null, "bias_constraint": null, "kernel_initializer": {"config": {"scale": 1.0, "distribution": "uniform", "seed": null, "mode": "fan_avg"}, "class_name": "VarianceScaling"}, "trainable": false, "name": "conv2d_71", "strides": [1, 1], "data_format": "channels_last", "activation": "linear", "kernel_constraint": null, "use_bias": false, "kernel_size": [1, 1], "bias_regularizer": null, "bias_initializer": {"config": {}, "class_name": "Zeros"}, "activity_regularizer": null}, "name": "conv2d_71", "class_name": "Conv2D", "inbound_nodes": [[["mixed7", 0, 0, {}]]]}, {"config": {"filters": 192, "padding": "same", "dilation_rate": [1, 1], "kernel_regularizer": null, "bias_constraint": null, "kernel_initializer": {"config": {"scale": 1.0, "distribution": "uniform", "seed": null, "mode": "fan_avg"}, "class_name": "VarianceScaling"}, "trainable": false, "name": "conv2d_75", "strides": [1, 1], "data_format": "channels_last", "activation": "linear", "kernel_constraint": null, "use_bias": false, "kernel_size": [7, 1], "bias_regularizer": null, "bias_initializer": {"config": {}, "class_name": "Zeros"}, "activity_regularizer": null}, "name": "conv2d_75", "class_name": "Conv2D", "inbound_nodes": [[["activation_74", 0, 0, {}]]]}, {"config": {"moving_mean_initializer": {"config": {}, "class_name": "Zeros"}, "moving_variance_initializer": {"config": {}, "class_name": "Ones"}, "axis": 3, "scale": false, "gamma_initializer": {"config": {}, "class_name": "Ones"}, "trainable": false, "beta_regularizer": null, "name": "batch_normalization_71", "epsilon": 0.001, "beta_initializer": {"config": {}, "class_name": "Zeros"}, "center": true, "momentum": 0.99, "gamma_regularizer": null, "beta_constraint": null, "gamma_constraint": null}, "name": "batch_normalization_71", "class_name": "BatchNormalization", "inbound_nodes": [[["conv2d_71", 0, 0, {}]]]}, {"config": {"moving_mean_initializer": {"config": {}, "class_name": "Zeros"}, "moving_variance_initializer": {"config": {}, "class_name": "Ones"}, "axis": 3, "scale": false, "gamma_initializer": {"config": {}, "class_name": "Ones"}, "trainable": false, "beta_regularizer": null, "name": "batch_normalization_75", "epsilon": 0.001, "beta_initializer": {"config": {}, "class_name": "Zeros"}, "center": true, "momentum": 0.99, "gamma_regularizer": null, "beta_constraint": null, "gamma_constraint": null}, "name": "batch_normalization_75", "class_name": "BatchNormalization", "inbound_nodes": [[["conv2d_75", 0, 0, {}]]]}, {"config": {"activation": "relu", "trainable": false, "name": "activation_71"}, "name": "activation_71", "class_name": "Activation", "inbound_nodes": [[["batch_normalization_71", 0, 0, {}]]]}, {"config": {"activation": "relu", "trainable": false, "name": "activation_75"}, "name": "activation_75", "class_name": "Activation", "inbound_nodes": [[["batch_normalization_75", 0, 0, {}]]]}, {"config": {"filters": 320, "padding": "valid", "dilation_rate": [1, 1], "kernel_regularizer": null, "bias_constraint": null, "kernel_initializer": {"config": {"scale": 1.0, "distribution": "uniform", "seed": null, "mode": "fan_avg"}, "class_name": "VarianceScaling"}, "trainable": true, "name": "conv2d_72", "strides": [2, 2], "data_format": "channels_last", "activation": "linear", "kernel_constraint": null, "use_bias": false, "kernel_size": [3, 3], "bias_regularizer": null, "bias_initializer": {"config": {}, "class_name": "Zeros"}, "activity_regularizer": null}, "name": "conv2d_72", "class_name": "Conv2D", "inbound_nodes": [[["activation_71", 0, 0, {}]]]}, {"config": {"filters": 192, "padding": "valid", "dilation_rate": [1, 1], "kernel_regularizer": null, "bias_constraint": null, "kernel_initializer": {"config": {"scale": 1.0, "distribution": "uniform", "seed": null, "mode": "fan_avg"}, "class_name": "VarianceScaling"}, "trainable": true, "name": "conv2d_76", "strides": [2, 2], "data_format": "channels_last", "activation": "linear", "kernel_constraint": null, "use_bias": false, "kernel_size": [3, 3], "bias_regularizer": null, "bias_initializer": {"config": {}, "class_name": "Zeros"}, "activity_regularizer": null}, "name": "conv2d_76", "class_name": "Conv2D", "inbound_nodes": [[["activation_75", 0, 0, {}]]]}, {"config": {"moving_mean_initializer": {"config": {}, "class_name": "Zeros"}, "moving_variance_initializer": {"config": {}, "class_name": "Ones"}, "axis": 3, "scale": false, "gamma_initializer": {"config": {}, "class_name": "Ones"}, "trainable": true, "beta_regularizer": null, "name": "batch_normalization_72", "epsilon": 0.001, "beta_initializer": {"config": {}, "class_name": "Zeros"}, "center": true, "momentum": 0.99, "gamma_regularizer": null, "beta_constraint": null, "gamma_constraint": null}, "name": "batch_normalization_72", "class_name": "BatchNormalization", "inbound_nodes": [[["conv2d_72", 0, 0, {}]]]}, {"config": {"moving_mean_initializer": {"config": {}, "class_name": "Zeros"}, "moving_variance_initializer": {"config": {}, "class_name": "Ones"}, "axis": 3, "scale": false, "gamma_initializer": {"config": {}, "class_name": "Ones"}, "trainable": true, "beta_regularizer": null, "name": "batch_normalization_76", "epsilon": 0.001, "beta_initializer": {"config": {}, "class_name": "Zeros"}, "center": true, "momentum": 0.99, "gamma_regularizer": null, "beta_constraint": null, "gamma_constraint": null}, "name": "batch_normalization_76", "class_name": "BatchNormalization", "inbound_nodes": [[["conv2d_76", 0, 0, {}]]]}, {"config": {"activation": "relu", "trainable": true, "name": "activation_72"}, "name": "activation_72", "class_name": "Activation", "inbound_nodes": [[["batch_normalization_72", 0, 0, {}]]]}, {"config": {"activation": "relu", "trainable": true, "name": "activation_76"}, "name": "activation_76", "class_name": "Activation", "inbound_nodes": [[["batch_normalization_76", 0, 0, {}]]]}, {"config": {"padding": "valid", "name": "max_pooling2d_4", "trainable": true, "pool_size": [3, 3], "strides": [2, 2], "data_format": "channels_last"}, "name": "max_pooling2d_4", "class_name": "MaxPooling2D", "inbound_nodes": [[["mixed7", 0, 0, {}]]]}, {"config": {"trainable": true, "axis": 3, "name": "mixed8"}, "name": "mixed8", "class_name": "Concatenate", "inbound_nodes": [[["activation_72", 0, 0, {}], ["activation_76", 0, 0, {}], ["max_pooling2d_4", 0, 0, {}]]]}, {"config": {"filters": 448, "padding": "same", "dilation_rate": [1, 1], "kernel_regularizer": null, "bias_constraint": null, "kernel_initializer": {"config": {"scale": 1.0, "distribution": "uniform", "seed": null, "mode": "fan_avg"}, "class_name": "VarianceScaling"}, "trainable": true, "name": "conv2d_81", "strides": [1, 1], "data_format": "channels_last", "activation": "linear", "kernel_constraint": null, "use_bias": false, "kernel_size": [1, 1], "bias_regularizer": null, "bias_initializer": {"config": {}, "class_name": "Zeros"}, "activity_regularizer": null}, "name": "conv2d_81", "class_name": "Conv2D", "inbound_nodes": [[["mixed8", 0, 0, {}]]]}, {"config": {"moving_mean_initializer": {"config": {}, "class_name": "Zeros"}, "moving_variance_initializer": {"config": {}, "class_name": "Ones"}, "axis": 3, "scale": false, "gamma_initializer": {"config": {}, "class_name": "Ones"}, "trainable": true, "beta_regularizer": null, "name": "batch_normalization_81", "epsilon": 0.001, "beta_initializer": {"config": {}, "class_name": "Zeros"}, "center": true, "momentum": 0.99, "gamma_regularizer": null, "beta_constraint": null, "gamma_constraint": null}, "name": "batch_normalization_81", "class_name": "BatchNormalization", "inbound_nodes": [[["conv2d_81", 0, 0, {}]]]}, {"config": {"activation": "relu", "trainable": true, "name": "activation_81"}, "name": "activation_81", "class_name": "Activation", "inbound_nodes": [[["batch_normalization_81", 0, 0, {}]]]}, {"config": {"filters": 384, "padding": "same", "dilation_rate": [1, 1], "kernel_regularizer": null, "bias_constraint": null, "kernel_initializer": {"config": {"scale": 1.0, "distribution": "uniform", "seed": null, "mode": "fan_avg"}, "class_name": "VarianceScaling"}, "trainable": true, "name": "conv2d_78", "strides": [1, 1], "data_format": "channels_last", "activation": "linear", "kernel_constraint": null, "use_bias": false, "kernel_size": [1, 1], "bias_regularizer": null, "bias_initializer": {"config": {}, "class_name": "Zeros"}, "activity_regularizer": null}, "name": "conv2d_78", "class_name": "Conv2D", "inbound_nodes": [[["mixed8", 0, 0, {}]]]}, {"config": {"filters": 384, "padding": "same", "dilation_rate": [1, 1], "kernel_regularizer": null, "bias_constraint": null, "kernel_initializer": {"config": {"scale": 1.0, "distribution": "uniform", "seed": null, "mode": "fan_avg"}, "class_name": "VarianceScaling"}, "trainable": true, "name": "conv2d_82", "strides": [1, 1], "data_format": "channels_last", "activation": "linear", "kernel_constraint": null, "use_bias": false, "kernel_size": [3, 3], "bias_regularizer": null, "bias_initializer": {"config": {}, "class_name": "Zeros"}, "activity_regularizer": null}, "name": "conv2d_82", "class_name": "Conv2D", "inbound_nodes": [[["activation_81", 0, 0, {}]]]}, {"config": {"moving_mean_initializer": {"config": {}, "class_name": "Zeros"}, "moving_variance_initializer": {"config": {}, "class_name": "Ones"}, "axis": 3, "scale": false, "gamma_initializer": {"config": {}, "class_name": "Ones"}, "trainable": true, "beta_regularizer": null, "name": "batch_normalization_78", "epsilon": 0.001, "beta_initializer": {"config": {}, "class_name": "Zeros"}, "center": true, "momentum": 0.99, "gamma_regularizer": null, "beta_constraint": null, "gamma_constraint": null}, "name": "batch_normalization_78", "class_name": "BatchNormalization", "inbound_nodes": [[["conv2d_78", 0, 0, {}]]]}, {"config": {"moving_mean_initializer": {"config": {}, "class_name": "Zeros"}, "moving_variance_initializer": {"config": {}, "class_name": "Ones"}, "axis": 3, "scale": false, "gamma_initializer": {"config": {}, "class_name": "Ones"}, "trainable": true, "beta_regularizer": null, "name": "batch_normalization_82", "epsilon": 0.001, "beta_initializer": {"config": {}, "class_name": "Zeros"}, "center": true, "momentum": 0.99, "gamma_regularizer": null, "beta_constraint": null, "gamma_constraint": null}, "name": "batch_normalization_82", "class_name": "BatchNormalization", "inbound_nodes": [[["conv2d_82", 0, 0, {}]]]}, {"config": {"activation": "relu", "trainable": true, "name": "activation_78"}, "name": "activation_78", "class_name": "Activation", "inbound_nodes": [[["batch_normalization_78", 0, 0, {}]]]}, {"config": {"activation": "relu", "trainable": true, "name": "activation_82"}, "name": "activation_82", "class_name": "Activation", "inbound_nodes": [[["batch_normalization_82", 0, 0, {}]]]}, {"config": {"filters": 384, "padding": "same", "dilation_rate": [1, 1], "kernel_regularizer": null, "bias_constraint": null, "kernel_initializer": {"config": {"scale": 1.0, "distribution": "uniform", "seed": null, "mode": "fan_avg"}, "class_name": "VarianceScaling"}, "trainable": true, "name": "conv2d_79", "strides": [1, 1], "data_format": "channels_last", "activation": "linear", "kernel_constraint": null, "use_bias": false, "kernel_size": [1, 3], "bias_regularizer": null, "bias_initializer": {"config": {}, "class_name": "Zeros"}, "activity_regularizer": null}, "name": "conv2d_79", "class_name": "Conv2D", "inbound_nodes": [[["activation_78", 0, 0, {}]]]}, {"config": {"filters": 384, "padding": "same", "dilation_rate": [1, 1], "kernel_regularizer": null, "bias_constraint": null, "kernel_initializer": {"config": {"scale": 1.0, "distribution": "uniform", "seed": null, "mode": "fan_avg"}, "class_name": "VarianceScaling"}, "trainable": true, "name": "conv2d_80", "strides": [1, 1], "data_format": "channels_last", "activation": "linear", "kernel_constraint": null, "use_bias": false, "kernel_size": [3, 1], "bias_regularizer": null, "bias_initializer": {"config": {}, "class_name": "Zeros"}, "activity_regularizer": null}, "name": "conv2d_80", "class_name": "Conv2D", "inbound_nodes": [[["activation_78", 0, 0, {}]]]}, {"config": {"filters": 384, "padding": "same", "dilation_rate": [1, 1], "kernel_regularizer": null, "bias_constraint": null, "kernel_initializer": {"config": {"scale": 1.0, "distribution": "uniform", "seed": null, "mode": "fan_avg"}, "class_name": "VarianceScaling"}, "trainable": true, "name": "conv2d_83", "strides": [1, 1], "data_format": "channels_last", "activation": "linear", "kernel_constraint": null, "use_bias": false, "kernel_size": [1, 3], "bias_regularizer": null, "bias_initializer": {"config": {}, "class_name": "Zeros"}, "activity_regularizer": null}, "name": "conv2d_83", "class_name": "Conv2D", "inbound_nodes": [[["activation_82", 0, 0, {}]]]}, {"config": {"filters": 384, "padding": "same", "dilation_rate": [1, 1], "kernel_regularizer": null, "bias_constraint": null, "kernel_initializer": {"config": {"scale": 1.0, "distribution": "uniform", "seed": null, "mode": "fan_avg"}, "class_name": "VarianceScaling"}, "trainable": true, "name": "conv2d_84", "strides": [1, 1], "data_format": "channels_last", "activation": "linear", "kernel_constraint": null, "use_bias": false, "kernel_size": [3, 1], "bias_regularizer": null, "bias_initializer": {"config": {}, "class_name": "Zeros"}, "activity_regularizer": null}, "name": "conv2d_84", "class_name": "Conv2D", "inbound_nodes": [[["activation_82", 0, 0, {}]]]}, {"config": {"padding": "same", "name": "average_pooling2d_8", "trainable": true, "pool_size": [3, 3], "strides": [1, 1], "data_format": "channels_last"}, "name": "average_pooling2d_8", "class_name": "AveragePooling2D", "inbound_nodes": [[["mixed8", 0, 0, {}]]]}, {"config": {"filters": 320, "padding": "same", "dilation_rate": [1, 1], "kernel_regularizer": null, "bias_constraint": null, "kernel_initializer": {"config": {"scale": 1.0, "distribution": "uniform", "seed": null, "mode": "fan_avg"}, "class_name": "VarianceScaling"}, "trainable": true, "name": "conv2d_77", "strides": [1, 1], "data_format": "channels_last", "activation": "linear", "kernel_constraint": null, "use_bias": false, "kernel_size": [1, 1], "bias_regularizer": null, "bias_initializer": {"config": {}, "class_name": "Zeros"}, "activity_regularizer": null}, "name": "conv2d_77", "class_name": "Conv2D", "inbound_nodes": [[["mixed8", 0, 0, {}]]]}, {"config": {"moving_mean_initializer": {"config": {}, "class_name": "Zeros"}, "moving_variance_initializer": {"config": {}, "class_name": "Ones"}, "axis": 3, "scale": false, "gamma_initializer": {"config": {}, "class_name": "Ones"}, "trainable": true, "beta_regularizer": null, "name": "batch_normalization_79", "epsilon": 0.001, "beta_initializer": {"config": {}, "class_name": "Zeros"}, "center": true, "momentum": 0.99, "gamma_regularizer": null, "beta_constraint": null, "gamma_constraint": null}, "name": "batch_normalization_79", "class_name": "BatchNormalization", "inbound_nodes": [[["conv2d_79", 0, 0, {}]]]}, {"config": {"moving_mean_initializer": {"config": {}, "class_name": "Zeros"}, "moving_variance_initializer": {"config": {}, "class_name": "Ones"}, "axis": 3, "scale": false, "gamma_initializer": {"config": {}, "class_name": "Ones"}, "trainable": true, "beta_regularizer": null, "name": "batch_normalization_80", "epsilon": 0.001, "beta_initializer": {"config": {}, "class_name": "Zeros"}, "center": true, "momentum": 0.99, "gamma_regularizer": null, "beta_constraint": null, "gamma_constraint": null}, "name": "batch_normalization_80", "class_name": "BatchNormalization", "inbound_nodes": [[["conv2d_80", 0, 0, {}]]]}, {"config": {"moving_mean_initializer": {"config": {}, "class_name": "Zeros"}, "moving_variance_initializer": {"config": {}, "class_name": "Ones"}, "axis": 3, "scale": false, "gamma_initializer": {"config": {}, "class_name": "Ones"}, "trainable": true, "beta_regularizer": null, "name": "batch_normalization_83", "epsilon": 0.001, "beta_initializer": {"config": {}, "class_name": "Zeros"}, "center": true, "momentum": 0.99, "gamma_regularizer": null, "beta_constraint": null, "gamma_constraint": null}, "name": "batch_normalization_83", "class_name": "BatchNormalization", "inbound_nodes": [[["conv2d_83", 0, 0, {}]]]}, {"config": {"moving_mean_initializer": {"config": {}, "class_name": "Zeros"}, "moving_variance_initializer": {"config": {}, "class_name": "Ones"}, "axis": 3, "scale": false, "gamma_initializer": {"config": {}, "class_name": "Ones"}, "trainable": true, "beta_regularizer": null, "name": "batch_normalization_84", "epsilon": 0.001, "beta_initializer": {"config": {}, "class_name": "Zeros"}, "center": true, "momentum": 0.99, "gamma_regularizer": null, "beta_constraint": null, "gamma_constraint": null}, "name": "batch_normalization_84", "class_name": "BatchNormalization", "inbound_nodes": [[["conv2d_84", 0, 0, {}]]]}, {"config": {"filters": 192, "padding": "same", "dilation_rate": [1, 1], "kernel_regularizer": null, "bias_constraint": null, "kernel_initializer": {"config": {"scale": 1.0, "distribution": "uniform", "seed": null, "mode": "fan_avg"}, "class_name": "VarianceScaling"}, "trainable": true, "name": "conv2d_85", "strides": [1, 1], "data_format": "channels_last", "activation": "linear", "kernel_constraint": null, "use_bias": false, "kernel_size": [1, 1], "bias_regularizer": null, "bias_initializer": {"config": {}, "class_name": "Zeros"}, "activity_regularizer": null}, "name": "conv2d_85", "class_name": "Conv2D", "inbound_nodes": [[["average_pooling2d_8", 0, 0, {}]]]}, {"config": {"moving_mean_initializer": {"config": {}, "class_name": "Zeros"}, "moving_variance_initializer": {"config": {}, "class_name": "Ones"}, "axis": 3, "scale": false, "gamma_initializer": {"config": {}, "class_name": "Ones"}, "trainable": true, "beta_regularizer": null, "name": "batch_normalization_77", "epsilon": 0.001, "beta_initializer": {"config": {}, "class_name": "Zeros"}, "center": true, "momentum": 0.99, "gamma_regularizer": null, "beta_constraint": null, "gamma_constraint": null}, "name": "batch_normalization_77", "class_name": "BatchNormalization", "inbound_nodes": [[["conv2d_77", 0, 0, {}]]]}, {"config": {"activation": "relu", "trainable": true, "name": "activation_79"}, "name": "activation_79", "class_name": "Activation", "inbound_nodes": [[["batch_normalization_79", 0, 0, {}]]]}, {"config": {"activation": "relu", "trainable": true, "name": "activation_80"}, "name": "activation_80", "class_name": "Activation", "inbound_nodes": [[["batch_normalization_80", 0, 0, {}]]]}, {"config": {"activation": "relu", "trainable": true, "name": "activation_83"}, "name": "activation_83", "class_name": "Activation", "inbound_nodes": [[["batch_normalization_83", 0, 0, {}]]]}, {"config": {"activation": "relu", "trainable": true, "name": "activation_84"}, "name": "activation_84", "class_name": "Activation", "inbound_nodes": [[["batch_normalization_84", 0, 0, {}]]]}, {"config": {"moving_mean_initializer": {"config": {}, "class_name": "Zeros"}, "moving_variance_initializer": {"config": {}, "class_name": "Ones"}, "axis": 3, "scale": false, "gamma_initializer": {"config": {}, "class_name": "Ones"}, "trainable": true, "beta_regularizer": null, "name": "batch_normalization_85", "epsilon": 0.001, "beta_initializer": {"config": {}, "class_name": "Zeros"}, "center": true, "momentum": 0.99, "gamma_regularizer": null, "beta_constraint": null, "gamma_constraint": null}, "name": "batch_normalization_85", "class_name": "BatchNormalization", "inbound_nodes": [[["conv2d_85", 0, 0, {}]]]}, {"config": {"activation": "relu", "trainable": true, "name": "activation_77"}, "name": "activation_77", "class_name": "Activation", "inbound_nodes": [[["batch_normalization_77", 0, 0, {}]]]}, {"config": {"trainable": true, "axis": 3, "name": "mixed9_0"}, "name": "mixed9_0", "class_name": "Concatenate", "inbound_nodes": [[["activation_79", 0, 0, {}], ["activation_80", 0, 0, {}]]]}, {"config": {"trainable": true, "axis": 3, "name": "concatenate_1"}, "name": "concatenate_1", "class_name": "Concatenate", "inbound_nodes": [[["activation_83", 0, 0, {}], ["activation_84", 0, 0, {}]]]}, {"config": {"activation": "relu", "trainable": true, "name": "activation_85"}, "name": "activation_85", "class_name": "Activation", "inbound_nodes": [[["batch_normalization_85", 0, 0, {}]]]}, {"config": {"trainable": true, "axis": 3, "name": "mixed9"}, "name": "mixed9", "class_name": "Concatenate", "inbound_nodes": [[["activation_77", 0, 0, {}], ["mixed9_0", 0, 0, {}], ["concatenate_1", 0, 0, {}], ["activation_85", 0, 0, {}]]]}, {"config": {"filters": 448, "padding": "same", "dilation_rate": [1, 1], "kernel_regularizer": null, "bias_constraint": null, "kernel_initializer": {"config": {"scale": 1.0, "distribution": "uniform", "seed": null, "mode": "fan_avg"}, "class_name": "VarianceScaling"}, "trainable": true, "name": "conv2d_90", "strides": [1, 1], "data_format": "channels_last", "activation": "linear", "kernel_constraint": null, "use_bias": false, "kernel_size": [1, 1], "bias_regularizer": null, "bias_initializer": {"config": {}, "class_name": "Zeros"}, "activity_regularizer": null}, "name": "conv2d_90", "class_name": "Conv2D", "inbound_nodes": [[["mixed9", 0, 0, {}]]]}, {"config": {"moving_mean_initializer": {"config": {}, "class_name": "Zeros"}, "moving_variance_initializer": {"config": {}, "class_name": "Ones"}, "axis": 3, "scale": false, "gamma_initializer": {"config": {}, "class_name": "Ones"}, "trainable": true, "beta_regularizer": null, "name": "batch_normalization_90", "epsilon": 0.001, "beta_initializer": {"config": {}, "class_name": "Zeros"}, "center": true, "momentum": 0.99, "gamma_regularizer": null, "beta_constraint": null, "gamma_constraint": null}, "name": "batch_normalization_90", "class_name": "BatchNormalization", "inbound_nodes": [[["conv2d_90", 0, 0, {}]]]}, {"config": {"activation": "relu", "trainable": true, "name": "activation_90"}, "name": "activation_90", "class_name": "Activation", "inbound_nodes": [[["batch_normalization_90", 0, 0, {}]]]}, {"config": {"filters": 384, "padding": "same", "dilation_rate": [1, 1], "kernel_regularizer": null, "bias_constraint": null, "kernel_initializer": {"config": {"scale": 1.0, "distribution": "uniform", "seed": null, "mode": "fan_avg"}, "class_name": "VarianceScaling"}, "trainable": true, "name": "conv2d_87", "strides": [1, 1], "data_format": "channels_last", "activation": "linear", "kernel_constraint": null, "use_bias": false, "kernel_size": [1, 1], "bias_regularizer": null, "bias_initializer": {"config": {}, "class_name": "Zeros"}, "activity_regularizer": null}, "name": "conv2d_87", "class_name": "Conv2D", "inbound_nodes": [[["mixed9", 0, 0, {}]]]}, {"config": {"filters": 384, "padding": "same", "dilation_rate": [1, 1], "kernel_regularizer": null, "bias_constraint": null, "kernel_initializer": {"config": {"scale": 1.0, "distribution": "uniform", "seed": null, "mode": "fan_avg"}, "class_name": "VarianceScaling"}, "trainable": true, "name": "conv2d_91", "strides": [1, 1], "data_format": "channels_last", "activation": "linear", "kernel_constraint": null, "use_bias": false, "kernel_size": [3, 3], "bias_regularizer": null, "bias_initializer": {"config": {}, "class_name": "Zeros"}, "activity_regularizer": null}, "name": "conv2d_91", "class_name": "Conv2D", "inbound_nodes": [[["activation_90", 0, 0, {}]]]}, {"config": {"moving_mean_initializer": {"config": {}, "class_name": "Zeros"}, "moving_variance_initializer": {"config": {}, "class_name": "Ones"}, "axis": 3, "scale": false, "gamma_initializer": {"config": {}, "class_name": "Ones"}, "trainable": true, "beta_regularizer": null, "name": "batch_normalization_87", "epsilon": 0.001, "beta_initializer": {"config": {}, "class_name": "Zeros"}, "center": true, "momentum": 0.99, "gamma_regularizer": null, "beta_constraint": null, "gamma_constraint": null}, "name": "batch_normalization_87", "class_name": "BatchNormalization", "inbound_nodes": [[["conv2d_87", 0, 0, {}]]]}, {"config": {"moving_mean_initializer": {"config": {}, "class_name": "Zeros"}, "moving_variance_initializer": {"config": {}, "class_name": "Ones"}, "axis": 3, "scale": false, "gamma_initializer": {"config": {}, "class_name": "Ones"}, "trainable": true, "beta_regularizer": null, "name": "batch_normalization_91", "epsilon": 0.001, "beta_initializer": {"config": {}, "class_name": "Zeros"}, "center": true, "momentum": 0.99, "gamma_regularizer": null, "beta_constraint": null, "gamma_constraint": null}, "name": "batch_normalization_91", "class_name": "BatchNormalization", "inbound_nodes": [[["conv2d_91", 0, 0, {}]]]}, {"config": {"activation": "relu", "trainable": true, "name": "activation_87"}, "name": "activation_87", "class_name": "Activation", "inbound_nodes": [[["batch_normalization_87", 0, 0, {}]]]}, {"config": {"activation": "relu", "trainable": true, "name": "activation_91"}, "name": "activation_91", "class_name": "Activation", "inbound_nodes": [[["batch_normalization_91", 0, 0, {}]]]}, {"config": {"filters": 384, "padding": "same", "dilation_rate": [1, 1], "kernel_regularizer": null, "bias_constraint": null, "kernel_initializer": {"config": {"scale": 1.0, "distribution": "uniform", "seed": null, "mode": "fan_avg"}, "class_name": "VarianceScaling"}, "trainable": true, "name": "conv2d_88", "strides": [1, 1], "data_format": "channels_last", "activation": "linear", "kernel_constraint": null, "use_bias": false, "kernel_size": [1, 3], "bias_regularizer": null, "bias_initializer": {"config": {}, "class_name": "Zeros"}, "activity_regularizer": null}, "name": "conv2d_88", "class_name": "Conv2D", "inbound_nodes": [[["activation_87", 0, 0, {}]]]}, {"config": {"filters": 384, "padding": "same", "dilation_rate": [1, 1], "kernel_regularizer": null, "bias_constraint": null, "kernel_initializer": {"config": {"scale": 1.0, "distribution": "uniform", "seed": null, "mode": "fan_avg"}, "class_name": "VarianceScaling"}, "trainable": true, "name": "conv2d_89", "strides": [1, 1], "data_format": "channels_last", "activation": "linear", "kernel_constraint": null, "use_bias": false, "kernel_size": [3, 1], "bias_regularizer": null, "bias_initializer": {"config": {}, "class_name": "Zeros"}, "activity_regularizer": null}, "name": "conv2d_89", "class_name": "Conv2D", "inbound_nodes": [[["activation_87", 0, 0, {}]]]}, {"config": {"filters": 384, "padding": "same", "dilation_rate": [1, 1], "kernel_regularizer": null, "bias_constraint": null, "kernel_initializer": {"config": {"scale": 1.0, "distribution": "uniform", "seed": null, "mode": "fan_avg"}, "class_name": "VarianceScaling"}, "trainable": true, "name": "conv2d_92", "strides": [1, 1], "data_format": "channels_last", "activation": "linear", "kernel_constraint": null, "use_bias": false, "kernel_size": [1, 3], "bias_regularizer": null, "bias_initializer": {"config": {}, "class_name": "Zeros"}, "activity_regularizer": null}, "name": "conv2d_92", "class_name": "Conv2D", "inbound_nodes": [[["activation_91", 0, 0, {}]]]}, {"config": {"filters": 384, "padding": "same", "dilation_rate": [1, 1], "kernel_regularizer": null, "bias_constraint": null, "kernel_initializer": {"config": {"scale": 1.0, "distribution": "uniform", "seed": null, "mode": "fan_avg"}, "class_name": "VarianceScaling"}, "trainable": true, "name": "conv2d_93", "strides": [1, 1], "data_format": "channels_last", "activation": "linear", "kernel_constraint": null, "use_bias": false, "kernel_size": [3, 1], "bias_regularizer": null, "bias_initializer": {"config": {}, "class_name": "Zeros"}, "activity_regularizer": null}, "name": "conv2d_93", "class_name": "Conv2D", "inbound_nodes": [[["activation_91", 0, 0, {}]]]}, {"config": {"padding": "same", "name": "average_pooling2d_9", "trainable": true, "pool_size": [3, 3], "strides": [1, 1], "data_format": "channels_last"}, "name": "average_pooling2d_9", "class_name": "AveragePooling2D", "inbound_nodes": [[["mixed9", 0, 0, {}]]]}, {"config": {"filters": 320, "padding": "same", "dilation_rate": [1, 1], "kernel_regularizer": null, "bias_constraint": null, "kernel_initializer": {"config": {"scale": 1.0, "distribution": "uniform", "seed": null, "mode": "fan_avg"}, "class_name": "VarianceScaling"}, "trainable": true, "name": "conv2d_86", "strides": [1, 1], "data_format": "channels_last", "activation": "linear", "kernel_constraint": null, "use_bias": false, "kernel_size": [1, 1], "bias_regularizer": null, "bias_initializer": {"config": {}, "class_name": "Zeros"}, "activity_regularizer": null}, "name": "conv2d_86", "class_name": "Conv2D", "inbound_nodes": [[["mixed9", 0, 0, {}]]]}, {"config": {"moving_mean_initializer": {"config": {}, "class_name": "Zeros"}, "moving_variance_initializer": {"config": {}, "class_name": "Ones"}, "axis": 3, "scale": false, "gamma_initializer": {"config": {}, "class_name": "Ones"}, "trainable": true, "beta_regularizer": null, "name": "batch_normalization_88", "epsilon": 0.001, "beta_initializer": {"config": {}, "class_name": "Zeros"}, "center": true, "momentum": 0.99, "gamma_regularizer": null, "beta_constraint": null, "gamma_constraint": null}, "name": "batch_normalization_88", "class_name": "BatchNormalization", "inbound_nodes": [[["conv2d_88", 0, 0, {}]]]}, {"config": {"moving_mean_initializer": {"config": {}, "class_name": "Zeros"}, "moving_variance_initializer": {"config": {}, "class_name": "Ones"}, "axis": 3, "scale": false, "gamma_initializer": {"config": {}, "class_name": "Ones"}, "trainable": true, "beta_regularizer": null, "name": "batch_normalization_89", "epsilon": 0.001, "beta_initializer": {"config": {}, "class_name": "Zeros"}, "center": true, "momentum": 0.99, "gamma_regularizer": null, "beta_constraint": null, "gamma_constraint": null}, "name": "batch_normalization_89", "class_name": "BatchNormalization", "inbound_nodes": [[["conv2d_89", 0, 0, {}]]]}, {"config": {"moving_mean_initializer": {"config": {}, "class_name": "Zeros"}, "moving_variance_initializer": {"config": {}, "class_name": "Ones"}, "axis": 3, "scale": false, "gamma_initializer": {"config": {}, "class_name": "Ones"}, "trainable": true, "beta_regularizer": null, "name": "batch_normalization_92", "epsilon": 0.001, "beta_initializer": {"config": {}, "class_name": "Zeros"}, "center": true, "momentum": 0.99, "gamma_regularizer": null, "beta_constraint": null, "gamma_constraint": null}, "name": "batch_normalization_92", "class_name": "BatchNormalization", "inbound_nodes": [[["conv2d_92", 0, 0, {}]]]}, {"config": {"moving_mean_initializer": {"config": {}, "class_name": "Zeros"}, "moving_variance_initializer": {"config": {}, "class_name": "Ones"}, "axis": 3, "scale": false, "gamma_initializer": {"config": {}, "class_name": "Ones"}, "trainable": true, "beta_regularizer": null, "name": "batch_normalization_93", "epsilon": 0.001, "beta_initializer": {"config": {}, "class_name": "Zeros"}, "center": true, "momentum": 0.99, "gamma_regularizer": null, "beta_constraint": null, "gamma_constraint": null}, "name": "batch_normalization_93", "class_name": "BatchNormalization", "inbound_nodes": [[["conv2d_93", 0, 0, {}]]]}, {"config": {"filters": 192, "padding": "same", "dilation_rate": [1, 1], "kernel_regularizer": null, "bias_constraint": null, "kernel_initializer": {"config": {"scale": 1.0, "distribution": "uniform", "seed": null, "mode": "fan_avg"}, "class_name": "VarianceScaling"}, "trainable": true, "name": "conv2d_94", "strides": [1, 1], "data_format": "channels_last", "activation": "linear", "kernel_constraint": null, "use_bias": false, "kernel_size": [1, 1], "bias_regularizer": null, "bias_initializer": {"config": {}, "class_name": "Zeros"}, "activity_regularizer": null}, "name": "conv2d_94", "class_name": "Conv2D", "inbound_nodes": [[["average_pooling2d_9", 0, 0, {}]]]}, {"config": {"moving_mean_initializer": {"config": {}, "class_name": "Zeros"}, "moving_variance_initializer": {"config": {}, "class_name": "Ones"}, "axis": 3, "scale": false, "gamma_initializer": {"config": {}, "class_name": "Ones"}, "trainable": true, "beta_regularizer": null, "name": "batch_normalization_86", "epsilon": 0.001, "beta_initializer": {"config": {}, "class_name": "Zeros"}, "center": true, "momentum": 0.99, "gamma_regularizer": null, "beta_constraint": null, "gamma_constraint": null}, "name": "batch_normalization_86", "class_name": "BatchNormalization", "inbound_nodes": [[["conv2d_86", 0, 0, {}]]]}, {"config": {"activation": "relu", "trainable": true, "name": "activation_88"}, "name": "activation_88", "class_name": "Activation", "inbound_nodes": [[["batch_normalization_88", 0, 0, {}]]]}, {"config": {"activation": "relu", "trainable": true, "name": "activation_89"}, "name": "activation_89", "class_name": "Activation", "inbound_nodes": [[["batch_normalization_89", 0, 0, {}]]]}, {"config": {"activation": "relu", "trainable": true, "name": "activation_92"}, "name": "activation_92", "class_name": "Activation", "inbound_nodes": [[["batch_normalization_92", 0, 0, {}]]]}, {"config": {"activation": "relu", "trainable": true, "name": "activation_93"}, "name": "activation_93", "class_name": "Activation", "inbound_nodes": [[["batch_normalization_93", 0, 0, {}]]]}, {"config": {"moving_mean_initializer": {"config": {}, "class_name": "Zeros"}, "moving_variance_initializer": {"config": {}, "class_name": "Ones"}, "axis": 3, "scale": false, "gamma_initializer": {"config": {}, "class_name": "Ones"}, "trainable": true, "beta_regularizer": null, "name": "batch_normalization_94", "epsilon": 0.001, "beta_initializer": {"config": {}, "class_name": "Zeros"}, "center": true, "momentum": 0.99, "gamma_regularizer": null, "beta_constraint": null, "gamma_constraint": null}, "name": "batch_normalization_94", "class_name": "BatchNormalization", "inbound_nodes": [[["conv2d_94", 0, 0, {}]]]}, {"config": {"activation": "relu", "trainable": true, "name": "activation_86"}, "name": "activation_86", "class_name": "Activation", "inbound_nodes": [[["batch_normalization_86", 0, 0, {}]]]}, {"config": {"trainable": true, "axis": 3, "name": "mixed9_1"}, "name": "mixed9_1", "class_name": "Concatenate", "inbound_nodes": [[["activation_88", 0, 0, {}], ["activation_89", 0, 0, {}]]]}, {"config": {"trainable": true, "axis": 3, "name": "concatenate_2"}, "name": "concatenate_2", "class_name": "Concatenate", "inbound_nodes": [[["activation_92", 0, 0, {}], ["activation_93", 0, 0, {}]]]}, {"config": {"activation": "relu", "trainable": true, "name": "activation_94"}, "name": "activation_94", "class_name": "Activation", "inbound_nodes": [[["batch_normalization_94", 0, 0, {}]]]}, {"config": {"trainable": true, "axis": 3, "name": "mixed10"}, "name": "mixed10", "class_name": "Concatenate", "inbound_nodes": [[["activation_86", 0, 0, {}], ["mixed9_1", 0, 0, {}], ["concatenate_2", 0, 0, {}], ["activation_94", 0, 0, {}]]]}, {"config": [{"config": {"trainable": true, "dtype": "float32", "batch_input_shape": [null, 4, 4, 2048], "name": "flatten_1"}, "class_name": "Flatten"}, {"config": {"kernel_initializer": {"config": {"scale": 1.0, "distribution": "uniform", "seed": null, "mode": "fan_avg"}, "class_name": "VarianceScaling"}, "kernel_regularizer": null, "kernel_constraint": null, "trainable": true, "units": 512, "bias_initializer": {"config": {}, "class_name": "Zeros"}, "activation": "linear", "bias_constraint": null, "use_bias": true, "bias_regularizer": null, "name": "dense1", "activity_regularizer": null}, "class_name": "Dense"}, {"config": {"activation": "relu", "trainable": true, "name": "activation_95"}, "class_name": "Activation"}, {"config": {"trainable": true, "rate": 0.5, "name": "dropout_1"}, "class_name": "Dropout"}, {"config": {"kernel_initializer": {"config": {"scale": 1.0, "distribution": "uniform", "seed": null, "mode": "fan_avg"}, "class_name": "VarianceScaling"}, "kernel_regularizer": null, "kernel_constraint": null, "trainable": true, "units": 8, "bias_initializer": {"config": {}, "class_name": "Zeros"}, "activation": "linear", "bias_constraint": null, "use_bias": true, "bias_regularizer": null, "name": "output", "activity_regularizer": null}, "class_name": "Dense"}, {"config": {"activation": "softmax", "trainable": true, "name": "activation_96"}, "class_name": "Activation"}], "name": "sequential_1", "class_name": "Sequential", "inbound_nodes": [[["mixed10", 0, 0, {}]]]}], "name": "model_1", "input_layers": [["input_1", 0, 0]], "output_layers": [["sequential_1", 1, 0]]}, "class_name": "Model", "backend": "tensorflow"}